backend/PAI/latest.pt (safetensors, 40242 bytes, 11 tensors)

fc1.dendrite_module.parent_module.bias f4 [64]
000000 f8 07 64 be c0 fa c6 bc 3c 81 56 bf 60 d7 33 bf
       -0.22268665 -0.024289489 -0.83790946 -0.7025051
000010 36 35 2c 3f f8 99 9a be 8a 82 70 bf 0c f3 9a be
       0.67268693 -0.30195594 -0.93949187 -0.30263555
000020 20 36 27 3f 10 6f 4d 3f 26 85 1a 3f cc 95 0f bf
       0.65316963 0.8024759 0.6035942 -0.56087947
000030 ac de 65 3f b4 9e 91 3e b8 38 22 3f 10 54 44 be
       0.89792895 0.28441393 0.63367796 -0.19172692
000040 64 8f e0 3e 00 3e 46 bb 94 15 23 3f 40 23 26 3f
       0.43859398 -0.0030249357 0.637048 0.6489754
000050 38 65 7b 3e 88 17 44 be 7e b5 7a bf 94 ab 30 3f
       0.2455033 -0.19149601 -0.97933185 0.6901181
000060 be ee 53 bf 00 50 85 3e e8 6a ba be f4 c4 69 bf
       -0.82786167 0.26037598 -0.36409688 -0.9131615
000070 16 77 12 bf 40 ce 20 bf 5a d4 19 3f fe 00 16 3f
       -0.5721296 -0.6281471 0.6008965 0.58595264
000080 88 89 dd be 6c 90 8f be 1a f2 67 bf 48 92 eb be
       -0.4326899 -0.28039873 -0.9060379 -0.4601004
000090 4c 9b 5a bf da 25 35 3f 00 78 7e 3c 86 1e 4b bf
       -0.85393214 0.7076088 0.01553154 -0.7934345
0000a0 00 e6 97 bd 08 66 c8 be 52 14 61 bf 5c dc e0 3e
       -0.07416916 -0.39140344 -0.8792163 0.4391812
0000b0 60 d9 ad 3e fa 94 13 3f 9e cd 7d 3f 70 66 87 be
       0.33954906 0.57649195 0.9914187 -0.2644534
0000c0 b8 ac 0f bf f0 b8 c6 3d e4 62 fc be 46 aa 1c 3f
       -0.5612292 0.09703243 -0.49294198 0.61197317
0000d0 1c 3c a2 be 92 33 67 bf 20 62 3e bd 5e b5 75 bf
       -0.31686485 -0.90313065 -0.046480298 -0.9597987
0000e0 5c 0f fd 3e aa c3 37 3f 78 09 0d 3f e6 de 2f bf
       0.4942578 0.71782935 0.55092573 -0.6869949
0000f0 d8 8a 0e 3f 6a 69 70 3f 38 ac 11 bf 30 03 84 bd
       0.5568061 0.9391085 -0.5690341 -0.064459205

fc1.dendrite_module.parent_module.weight f4 [64, 1]
000000 18 6f a5 3e 0c 4a f2 be 80 c6 10 3f a4 ba b6 3e
       0.3231132 -0.47322118 0.56552887 0.3568927
000010 80 83 f8 3d 48 a0 0a 3e f0 61 1f 3e 64 e5 a8 3e
       0.12134457 0.13537705 0.15564704 0.3298751
000020 f2 cd 27 3f 90 db 5f bf f8 e4 46 3e c8 ed 80 be
       0.6554862 -0.874444 0.19423282 -0.25181413
000030 e4 8b 27 bf 28 66 2f bf c8 dd a6 be e2 ed 64 3f
       -0.6544783 -0.68515253 -0.3259108 0.8942548
000040 c0 57 23 3d cc 80 be 3e 88 0e 51 be 98 73 c8 be
       0.039878607 0.3720764 -0.204157 -0.3915069
000050 84 01 c7 3e 32 00 2c bf 14 27 1c bf b0 fc 41 bf
       0.38868344 -0.671878 -0.6099713 -0.75776196
000060 c0 50 0f 3d d8 68 1e 3e 9c 78 18 bf a0 a0 e4 be
       0.03498912 0.15469682 -0.59559035 -0.44653797
000070 08 af 4f be 18 96 40 be ec 90 d8 be a0 87 24 3d
       -0.20281613 -0.18807256 -0.42298067 0.040168405
000080 70 5c f5 be 92 12 07 bf 02 43 37 bf ee c3 68 bf
       -0.47922087 -0.5276271 -0.7158662 -0.90923965
000090 00 73 64 bc 40 51 d2 3d 6c a5 b6 be 20 8e 5c 3d
       -0.013943434 0.102694035 -0.35673082 0.05384648
0000a0 80 9f 43 3d ba 26 40 3f 24 bc 56 3f 12 91 41 bf
       0.047759533 0.7505909 0.8388083 -0.75611985
0000b0 76 6b 02 bf e8 8c eb be 90 9b f7 bd bc 7a 2a 3f
       -0.5094522 -0.4600594 -0.12090218 0.6659353
0000c0 c8 0c 2d 3f a8 60 f4 3e 80 ec 17 bc 00 f0 00 bd
       0.6759763 0.47729993 -0.009272695 -0.03147888
0000d0 56 07 3d 3f f8 54 60 bf e2 d4 21 3f 26 e3 20 3f
       0.7383932 -0.8762965 0.6321546 0.628466
0000e0 70 79 66 bf de 97 6e bf 2a ea 64 bf 4c 08 b1 3e
       -0.9002905 -0.9320048 -0.89419806 0.34576643
0000f0 2c 33 75 bf c8 e0 7c be a0 6c 2e be 74 eb 81 3e
       -0.9578121 -0.24695122 -0.17033625 0.2537495

fc1.main_module.bias f4 [64]
000000 9b cb ab be c0 fa c6 bc ce 6d 73 bf 69 51 3e bf
       -0.33553776 -0.024289489 -0.95089424 -0.7434297
000010 fe 8c 2f 3f b1 72 9a be 15 a7 77 bf fc ca a6 be
       0.6857451 -0.30165628 -0.9673932 -0.3257674
000020 c7 a7 09 3f 10 6f 4d 3f 94 3c 1b 3f cc 95 0f bf
       0.5377163 0.8024759 0.6063931 -0.56087947
000030 ac de 65 3f b4 9e 91 3e b8 38 22 3f 04 cd 97 be
       0.89792895 0.28441393 0.63367796 -0.29648602
000040 6c 30 ad 3e 7d e3 9f bd 94 15 23 3f 40 23 26 3f
       0.33826005 -0.07807062 0.637048 0.6489754
000050 ae 2e 5b 3e 88 17 44 be 7e b5 7a bf 94 ab 30 3f
       0.21404526 -0.19149601 -0.97933185 0.6901181
000060 28 90 67 bf 0f da 56 3e e8 6a ba be f4 c4 69 bf
       -0.9045434 0.2098162 -0.36409688 -0.9131615
000070 16 77 12 bf 40 ce 20 bf 5a d4 19 3f 42 3a 00 3f
       -0.5721296 -0.6281471 0.6008965 0.50088894
000080 88 89 dd be 6c 90 8f be 1a f2 67 bf 48 92 eb be
       -0.4326899 -0.28039873 -0.9060379 -0.4601004
000090 4c 9b 5a bf ce fb 2e 3f 00 78 7e 3c d8 ca 53 bf
       -0.85393214 0.68352973 0.01553154 -0.8273139
0000a0 a9 ce 49 bd 41 64 e6 be 8a 3d 5b bf 5c dc e0 3e
       -0.049269352 -0.44998363 -0.85640776 0.4391812
0000b0 60 d9 ad 3e fa 94 13 3f 9e cd 7d 3f d8 e3 a7 be
       0.33954906 0.57649195 0.9914187 -0.32791018
0000c0 8d 73 1b bf 02 82 e1 3d e4 62 fc be 46 aa 1c 3f
       -0.6072319 0.11011125 -0.49294198 0.61197317
0000d0 21 ac 9d be 92 33 67 bf 56 c0 14 be 9a ed 85 bf
       -0.30795386 -0.90313065 -0.14526495 -1.0463135
0000e0 5c 0f fd 3e aa c3 37 3f 78 09 0d 3f 7c e1 4f bf
       0.4942578 0.71782935 0.55092573 -0.81203437
0000f0 d8 8a 0e 3f 6a 69 70 3f 38 ac 11 bf 2e 62 6e bd
       0.5568061 0.9391085 -0.5690341 -0.0581991

fc1.main_module.weight f4 [64, 1]
000000 95 8a 6b 3e 0c 4a f2 be 6c 94 ef 3e a9 d5 ad 3e
       0.23002084 -0.47322118 0.46792924 0.33952072
000010 99 d2 29 3e a3 a0 28 3e c1 f6 1e 3e c1 53 aa 3e
       0.16584243 0.16467528 0.15523817 0.33267024
000020 cb fb 0f 3f 90 db 5f bf 3d 12 6a 3e c8 ed 80 be
       0.5624358 -0.874444 0.2285852 -0.25181413
000030 e4 8b 27 bf 28 66 2f bf c8 dd a6 be fb bb 4e 3f
       -0.6544783 -0.68515253 -0.3259108 0.80755585
000040 60 db 3e bd 89 a4 a1 3e 88 0e 51 be 98 73 c8 be
       -0.04659593 0.31570843 -0.204157 -0.3915069
000050 3d 5d c4 3e 32 00 2c bf 14 27 1c bf b0 fc 41 bf
       0.38352385 -0.671878 -0.6099713 -0.75776196
000060 b8 b4 20 bd 20 1a 02 3e 9c 78 18 bf a0 a0 e4 be
       -0.039234847 0.12705278 -0.59559035 -0.44653797
000070 08 af 4f be 18 96 40 be ec 90 d8 be d5 44 37 bd
       -0.20281613 -0.18807256 -0.42298067 -0.044743378
000080 70 5c f5 be 92 12 07 bf 02 43 37 bf ee c3 68 bf
       -0.47922087 -0.5276271 -0.7158662 -0.90923965
000090 00 73 64 bc 90 9b e2 3d 6c a5 b6 be 22 f1 3a 3d
       -0.013943434 0.110648274 -0.35673082 0.04564012
0000a0 d4 40 d1 3d 01 87 36 3f 58 b6 64 3f 12 91 41 bf
       0.10217443 0.7129975 0.89340734 -0.75611985
0000b0 76 6b 02 bf e8 8c eb be 90 9b f7 bd e2 29 20 3f
       -0.5094522 -0.4600594 -0.12090218 0.6256391
0000c0 96 37 27 3f e1 a4 05 3f 80 ec 17 bc 00 f0 00 bd
       0.6531919 0.5220471 -0.009272695 -0.03147888
0000d0 a4 4e 47 3f f8 54 60 bf 1e be 0e 3f 75 d9 0f 3f
       0.7785437 -0.8762965 0.55758846 0.5619119
0000e0 70 79 66 bf de 97 6e bf 2a ea 64 bf f0 8c 7e 3e
       -0.9002905 -0.9320048 -0.89419806 0.24858451
0000f0 2c 33 75 bf c8 e0 7c be a0 6c 2e be 6d d8 94 3e
       -0.9578121 -0.24695122 -0.17033625 0.2907137

fc2.dendrite_module.parent_module.bias f4 [64]
000000 80 5d b3 3b 28 c1 aa bc 60 30 86 bb fa 67 e8 3d
       0.0054737926 -0.020844057 -0.004095122 0.11347957
000010 c6 7f b7 3d 18 90 f0 3c 8c 9f 31 3d b8 ea a9 3d
       0.08959918 0.029365584 0.043365046 0.08296722
000020 fc 08 57 bd ec 6f 6d bd 28 82 f8 bc 1c 10 9a bd
       -0.052498803 -0.057968065 -0.0303355 -0.07522604
000030 5c 39 e2 3d 9e 42 df bd d0 99 97 3d ae d0 c4 3d
       0.11046097 -0.10901378 0.07402384 0.09610115
000040 8a 58 d1 bd ae f4 a8 3d 3c 51 0c 3d 10 1c d3 3c
       -0.102219656 0.08249794 0.03425716 0.025770217
000050 6a d0 ea bd 36 3f ce bd 56 e9 8f 3d d4 05 0e bd
       -0.11465533 -0.1007065 0.07026927 -0.034673527
000060 b0 c5 b7 bc 48 bd cf 3d 10 72 df bc e4 28 bc 3d
       -0.022433132 0.101435244 -0.027276069 0.09187487
000070 9c 92 80 bd e8 78 7e 3d 4c de 09 3d b0 0d 28 bd
       -0.062779635 0.062127024 0.033659264 -0.04102868
000080 18 7e fa bc a0 51 22 3c 40 20 ca bb 90 f7 25 bc
       -0.030577704 0.009907156 -0.0061683953 -0.010129824
000090 a0 e5 d7 3c 20 90 cc 3d c8 42 ae 3d cc 43 93 3d
       0.02635461 0.09988427 0.08508831 0.071906656
0000a0 5a 49 f3 bd b0 b0 e2 3c 20 59 f2 3c 60 70 48 bc
       -0.11879225 0.027672142 0.029583514 -0.012233824
0000b0 90 9f 50 bc bc 6d 4f 3d fa 36 e3 3d 38 f7 53 bd
       -0.012733355 0.05064176 0.1109447 -0.051749438
0000c0 30 79 31 3c 94 bf 6c 3d c0 c5 31 bd 18 e9 81 3d
       0.010832116 0.05779989 -0.04340148 0.06343287
0000d0 4a 67 c9 3d cc de cf bd 96 bb 86 bd 7a 5a ea bd
       0.09834154 -0.10149917 -0.06578748 -0.11443038
0000e0 e0 25 a2 bb c8 2a 8f bd 2a c3 91 bd 20 01 dd bb
       -0.0049483627 -0.06990582 -0.07117303 -0.006744519
0000f0 5c b7 92 bd 00 d4 3b 3a 98 77 ed bc 40 56 fe bc
       -0.07163879 0.00071650743 -0.02898769 -0.031046987

fc2.dendrite_module.parent_module.weight f4 [64, 64]
000000 04 42 01 bd a0 96 43 3d c0 81 ab bc 3c 7d 93 3d
       -0.031557098 0.04775107 -0.020935893 0.07201621
000010 d0 b3 2b 3c b4 89 ae 3d 28 12 0c 3d 9c 87 43 3d
       0.010479882 0.085223585 0.034197003 0.04773675
000020 c6 14 cf 3d da 19 b0 3d 34 9d e3 bd 44 28 31 3d
       0.10111384 0.08598681 -0.111139685 0.04325129
000030 3a 5e b2 3d 9c 8a ae bd 90 ba c8 3d 10 12 ec 3c
       0.087093785 -0.085225314 0.09801209 0.028817207
000040 86 fb 97 3d 94 6a 73 bd 5c b6 4a 3d 9c 92 42 bd
       0.07421021 -0.059427813 0.049490318 -0.0475031
000050 98 43 9b 3c b0 81 a6 bc 4c c6 13 3d 6e 2d aa 3d
       0.01895313 -0.020325512 0.036077783 0.08309446
000060 58 c1 84 3d 32 f5 d8 bd 48 39 9e 3c cc 5c 0f bd
       0.0648219 -0.10593642 0.019314423 -0.035000607
000070 ee 25 ab 3d 88 4f e8 3c 28 50 87 bc fe 2f cd 3d
       0.08356844 0.028358236 -0.016517714 0.100189194
000080 d4 29 fa bd 32 61 d4 3d b4 e4 5f bd 10 32 b8 bc
       -0.12215009 0.10370101 -0.054661468 -0.02248481
000090 f0 d7 f9 3d 30 3f 9e bc b8 30 b7 3d bc c5 94 3d
       0.1219939 -0.01931724 0.08944839 0.07264277
0000a0 04 c7 f1 bd 8a d3 db bd 48 02 ce 3d 6a c7 b5 3d
       -0.11805537 -0.10733707 0.10059029 0.08875926
0000b0 ce b3 9c 3d 00 59 e3 3a a4 8a b4 bd b0 3b ab 3d
       0.076514825 0.001734525 -0.08815506 0.08360994
0000c0 3c 94 57 3d 38 3c e9 bc 1e d1 a3 bd 90 17 94 3c
       0.0526316 -0.028471097 -0.0799887 0.018077642
0000d0 50 64 ce bd 9e 78 fc 3d e0 c9 c8 3c 4a c2 84 3d
       -0.10077727 0.123276934 0.024510324 0.0648237
0000e0 1c a0 0a 3d 4e ab ee bd 58 bb 55 3d d2 e3 80 bd
       0.0338441 -0.116537675 0.052180618 -0.06293453
0000f0 b0 c5 a9 3c 1c 0b 1b bd 20 51 e9 3c 40 cb 3b 3c
       0.020724148 -0.03785239 0.028481066 0.011462033
000100 ea 65 91 bd 8c 36 05 bd e6 a4 fb bd 00 2e 64 3a
       -0.07099517 -0.032522723 -0.12287311 0.00087043643
000110 8c ca 19 bd 00 6c 94 bc 54 f1 e9 bd 04 8b d8 3d
       -0.03754668 -0.018117905 -0.11422983 0.1057339
000120 b0 21 91 3c e8 4c 79 bd 14 fb f2 3d c2 f8 fc bd
       0.017716259 -0.06086436 0.118642956 -0.12352134
000130 80 62 83 bd 5c 6a d2 3d 48 72 c3 bc 24 83 9e bd
       -0.06415272 0.10274193 -0.023858204 -0.07739857
000140 90 08 f6 3d 8c 9f d1 3d 56 ff f9 bd d6 94 e8 bd
       0.12013352 0.10235509 -0.122069046 -0.11356513
000150 fa 69 95 3d 50 ca 81 3c 08 61 f3 3c c4 b7 38 3d
       0.07295604 0.01584354 0.029709354 0.045097128
000160 40 c1 03 3c 10 00 02 3d b0 90 22 3c b0 5f a1 bd
       0.00804168 0.03173834 0.0099221915 -0.07879579
000170 b8 e8 d5 3c 30 1d 58 3d b4 63 88 3d de 63 c5 3d
       0.026111946 0.05276221 0.06659642 0.09638189
000180 b0 dc e0 3c dc 60 09 bd ee 76 d2 3d 56 03 a5 bd
       0.027448982 -0.033539638 0.1027659 -0.08057277
000190 9e d2 90 bd 00 43 87 3b 70 4c da bd 50 18 f0 bc
       -0.07071422 0.00412786 -0.106591105 -0.029308468
0001a0 94 77 23 bd f6 fe ad 3d 60 45 eb 3b 58 95 47 3d
       -0.03990896 0.084958956 0.007179901 0.04872641
0001b0 98 de ea 3c 00 2c 85 3d 18 d8 eb 3c ae df c2 bd
       0.028670594 0.06502533 0.028789565 -0.0951532
0001c0 b4 6b c7 bd 50 47 e9 3c 0e 6e da bd 24 bb 72 bd
       -0.097373396 0.028476387 -0.106655225 -0.059260502
0001d0 08 55 16 bd a0 00 d3 3d 66 f7 8a bd 2e 29 c9 bd
       -0.036702186 0.103028536 -0.06785469 -0.098223075
0001e0 14 5a f8 3d 88 9d 8b 3d 5c b3 75 bd 20 d1 bf 3c
       0.12126556 0.06817156 -0.059985504 0.023415148
0001f0 7c 96 04 bd 40 23 4c bb 20 ca fd 3d 20 7e b9 bd
       -0.032370076 -0.003114894 0.12392068 -0.090572596
000200 9c 0d ab 3d 40 2e a2 3d aa c8 80 3d 48 15 cd bc
       0.08352205 0.07918978 0.06288274 -0.025034562
000210 dc 5c e2 bd f4 e5 fa 3d 5e 99 b7 bd 30 be 9b 3c
       -0.11052868 0.12250891 -0.08964799 0.019011587
000220 40 8b 61 bd ea 0d f3 3d 84 d9 1d bd 04 53 51 3d
       -0.05506444 0.11867888 -0.038537517 0.05110456
000230 20 ad cb 3c 90 9c 8b bc 4c 3d 52 3d fe 11 93 3d
       0.024862826 -0.017042428 0.05132799 0.07181166
000240 50 2b d7 bd b8 60 48 3d 7c a0 59 bd 78 b1 cc bc
       -0.10506308 0.048920363 -0.053131565 -0.024986967
000250 7c d3 cb 3d 10 05 4b 3d 3a b4 eb bd 38 25 c0 bd
       0.09952447 0.049565375 -0.11508985 -0.09382099
000260 02 a2 a8 3d 48 81 09 bd 00 25 2f 3b 96 fa e6 bd
       0.082340255 -0.033570558 0.0026724935 -0.11278264
000270 12 8e e8 3d fc e4 83 bd fc 4d c9 3d 34 d9 b0 bd
       0.11355223 -0.0644016 0.098293275 -0.08635178
000280 8c b2 db bd 50 04 97 3c 74 01 a1 bd 46 c1 93 bd
       -0.107274145 0.018434674 -0.07861605 -0.07214598
000290 94 bc a9 bd f8 3d 24 bd 94 8d 64 bd 1c 76 1d bd
       -0.082879215 -0.04009816 -0.055799082 -0.038442716
0002a0 d0 49 88 bc 3c 87 d5 3d f0 c5 6c bd d6 0a b6 3d
       -0.016636759 0.104261845 -0.057805955 0.088887855
0002b0 90 2e f8 bd 48 c2 fb 3d 0c 80 a4 bd 3a f2 d7 3d
       -0.12118256 0.122929156 -0.080322355 0.10544248
0002c0 1c ef 41 3d 42 5e a1 3d c0 a2 67 bb 86 af e9 3d
       0.047347173 0.078793064 -0.003534481 0.114104316
0002d0 56 ab ea 3d 00 92 f5 3c 30 c7 d1 3d f8 b6 fa bd
       0.11458461 0.029976845 0.1024307 -0.1224193
0002e0 40 f9 f0 3d c0 cf 4c 3b f0 25 9e bc b8 6b 3d bd
       0.11766291 0.0031251758 -0.0193052 -0.046245307
0002f0 98 eb be 3d d4 4c 6e bd 98 99 e6 bd 8c 62 b9 bd
       0.0932228 -0.058178738 -0.112597644 -0.090519994
000300 b0 b8 92 3c d4 6a c4 bd b4 21 c2 3d e2 23 e7 3d
       0.017910331 -0.09590688 0.094790846 0.11286141
000310 40 b8 c8 3b ae 71 e6 bd 90 e9 2a bc b2 7c e2 bd
       0.00612548 -0.112521514 -0.010431662 -0.1105894
000320 98 d1 9c bd 5a ee bd bd 44 b0 b8 bd 40 6c 63 3c
       -0.07657164 -0.092739776 -0.09017995 0.013880789
000330 76 a4 80 3d a0 d5 68 bd 70 ce cf bd 5e a4 a2 3d
       0.062813684 -0.056844354 -0.10146797 0.07941507
000340 3c fb 15 bd c0 1b fb bb fc 1b 86 bd 34 24 45 bd
       -0.03661655 -0.00766322 -0.06548306 -0.04813023
000350 c0 9a 47 3c 56 9b d4 bd ac bc ce bd de b9 d6 3d
       0.012182891 -0.103811905 -0.1009458 0.1048467
000360 b0 1f 7e 3c cc c2 e6 3d 30 c7 1a 3c 20 74 48 3c
       0.015510485 0.11267623 0.009446904 0.012234718
000370 60 6b 26 bc f4 3f a2 bd e0 50 9b 3b d2 29 80 bd
       -0.010157436 -0.07922354 0.0047398657 -0.062579766
000380 b0 a9 04 bc d8 c1 4b bd 76 34 b8 3d 64 ec 7d 3d
       -0.008097097 -0.04974541 0.08994381 0.061993018
000390 2a e9 fc bd b4 60 47 3d f6 fd de 3d bc 2b b9 3d
       -0.1234916 0.048676208 0.10888283 0.09041545
0003a0 74 27 49 bd b0 36 dd 3d fa 6c aa bd c2 f0 cc 3d
       -0.04910989 0.108014464 -0.08321567 0.100068584
0003b0 2c bc 80 bd 76 b4 82 3d 30 10 d4 3c 64 97 4b bd
       -0.06285891 0.063820764 0.025886625 -0.049704924
0003c0 a4 bf fd 3d b8 29 8c bd 68 7a f9 bd c4 fa f4 3d
       0.12390068 -0.06843895 -0.1218155 0.11961892
0003d0 40 db 13 3d 40 ac 67 bc f0 73 a6 3c 30 48 ea bc
       0.036097765 -0.014140189 0.020318955 -0.028598875
0003e0 58 f5 2b bd fe 25 f5 bd e2 02 eb 3d 24 39 9c bd
       -0.041982025 -0.11970137 0.11475159 -0.07628086
0003f0 8e 14 bd 3d f4 69 81 3d c0 f5 cf 3d 20 af 96 3c
       0.09232436 0.06319037 0.10154295 0.018394053

fc2.main_module.bias f4 [64]
000000 8e 9a 8e bd 28 c1 aa bc 09 7d 28 3d bd 88 70 3d
       -0.06963073 -0.020844057 0.041134868 0.058724154
000010 c6 7f b7 3d 5b fe cf bc 8c 9f 31 3d 90 58 1e 3c
       0.08959918 -0.02538984 0.043365046 0.00966467
000020 fc 08 57 bd ec 6f 6d bd 28 82 f8 bc 1c 10 9a bd
       -0.052498803 -0.057968065 -0.0303355 -0.07522604
000030 5c 39 e2 3d ad 2e 67 bd 8f 18 b2 3d 75 f3 18 3e
       0.11046097 -0.056440998 0.086960904 0.14936621
000040 0d 59 35 be 80 07 a0 3b fd eb a7 bc 10 1c d3 3c
       -0.17709751 0.0048837066 -0.02049827 0.025770217
000050 eb 95 a1 bd 36 3f ce bd ca 2d 7e 3c d4 05 0e bd
       -0.07889923 -0.1007065 0.015513847 -0.034673527
000060 b0 c5 b7 bc 48 bd cf 3d 20 00 a8 bd 90 0a 18 3d
       -0.022433132 0.101435244 -0.08203149 0.03711945
000070 9c 92 80 bd e8 78 7e 3d 4c de 09 3d 73 2a c4 bd
       -0.062779635 0.062127024 0.033659264 -0.09578409
000080 18 7e fa bc a0 51 22 3c d4 2d 23 3d 90 f7 25 bc
       -0.030577704 0.009907156 0.039838627 -0.010129824
000090 a0 e5 d7 3c 20 90 cc 3d 0e 46 24 3c c1 bd 8f bc
       0.02635461 0.09988427 0.010026468 -0.017546536
0000a0 5a 49 f3 bd b0 b0 e2 3c 01 8c 72 bd 60 70 48 bc
       -0.11879225 0.027672142 -0.05921555 -0.012233824
0000b0 90 9f 50 bc bc 6d 4f 3d fa 36 e3 3d 37 1f da bd
       -0.012733355 0.05064176 0.1109447 -0.10650485
0000c0 30 79 31 3c 94 bf 6c 3d c0 c5 31 bd df 2b 0e 3c
       0.010832116 0.05779989 -0.04340148 0.008677452
0000d0 4a 67 c9 3d 34 01 20 be 96 bb 86 bd 7a 5a ea bd
       0.09834154 -0.15625459 -0.06578748 -0.11443038
0000e0 f7 8b 74 bd 28 7d e9 bc 2a c3 91 bd f0 ca 28 3d
       -0.059703793 -0.028502062 -0.07117303 0.04120916
0000f0 5c b7 92 bd 99 99 fa 3c fe a2 8b 3c 2c b9 af bd
       -0.07163879 0.03059082 0.017045494 -0.085802406

fc2.main_module.weight f4 [64, 64]
000000 ce 45 d8 bd a0 96 43 3d 04 bf c2 bd bd d5 05 bb
       -0.10560189 0.04775107 -0.095090896 -0.0020421587
000010 42 0a 84 bd 24 71 29 3c bc a4 21 bd 76 b8 db bc
       -0.06447269 0.010341916 -0.039463744 -0.026821356
000020 06 80 dc 3c da 19 b0 3d 91 55 3e be 44 28 31 3d
       0.026916515 0.08598681 -0.18587328 0.04325129
000030 3a 5e b2 3d 9c 8a ae bd 90 ba c8 3d 89 fa 39 bd
       0.087093785 -0.085225314 0.09801209 -0.045404945
000040 94 64 11 3b 46 b8 08 be 5c b6 4a 3d 9c 92 42 bd
       0.0022185193 -0.13351545 0.049490318 -0.0475031
000050 96 e5 61 bd b0 81 a6 bc 4c c6 13 3d 6e 2d aa 3d
       -0.05515059 -0.020325512 0.036077783 0.08309446
000060 c7 5e 9f bb 1d 03 38 be 48 39 9e 3c cc 5c 0f bd
       -0.0048635933 -0.17969938 0.019314423 -0.035000607
000070 ee 25 ab 3d 88 4f e8 3c 28 50 87 bc 1a f0 e5 3c
       0.08356844 0.028358236 -0.016517714 0.02806859
000080 d4 29 fa bd 32 61 d4 3d b4 e4 5f bd 10 32 b8 bc
       -0.12215009 0.10370101 -0.054661468 -0.02248481
000090 f0 d7 f9 3d cd 43 c1 bd b8 30 b7 3d 41 f5 36 3a
       0.1219939 -0.0943676 0.08944839 0.00069792947
0000a0 a4 69 46 be 2f e5 39 be c1 78 d6 3c 6a c7 b5 3d
       -0.19376236 -0.18153833 0.026180627 0.08875926
0000b0 ce b3 9c 3d 00 59 e3 3a a4 8a b4 bd cf 5f 1a 3c
       0.076514825 0.001734525 -0.08815506 0.009422257
0000c0 ae 92 b0 bc 38 dd d2 bd 1e d1 a3 bd 90 17 94 3c
       -0.021554317 -0.102961004 -0.0799887 0.018077642
0000d0 ab 68 33 be 9e 78 fc 3d 18 76 4b bd e3 21 19 bc
       -0.17520396 0.123276934 -0.04967317 -0.009346458
0000e0 1c a0 0a 3d 4e ab ee bd 58 bb 55 3d af 45 0c be
       0.0338441 -0.116537675 0.052180618 -0.13698457
0000f0 b0 c5 a9 3c 1c 0b 1b bd 20 51 e9 3c 11 5f 81 bd
       0.020724148 -0.03785239 0.028481066 -0.063169606
000100 ea 65 91 bd 8c 36 05 bd e6 a4 fb bd 00 2e 64 3a
       -0.07099517 -0.032522723 -0.12287311 0.00087043643
000110 8c ca 19 bd 00 6c 94 bc 54 f1 e9 bd 04 8b d8 3d
       -0.03754668 -0.018117905 -0.11422983 0.1057339
000120 b0 21 91 3c e8 4c 79 bd 14 fb f2 3d c2 f8 fc bd
       0.017716259 -0.06086436 0.118642956 -0.12352134
000130 80 62 83 bd 5c 6a d2 3d 48 72 c3 bc 24 83 9e bd
       -0.06415272 0.10274193 -0.023858204 -0.07739857
000140 90 08 f6 3d 8c 9f d1 3d 56 ff f9 bd d6 94 e8 bd
       0.12013352 0.10235509 -0.122069046 -0.11356513
000150 fa 69 95 3d 50 ca 81 3c 08 61 f3 3c c4 b7 38 3d
       0.07295604 0.01584354 0.029709354 0.045097128
000160 40 c1 03 3c 10 00 02 3d b0 90 22 3c b0 5f a1 bd
       0.00804168 0.03173834 0.0099221915 -0.07879579
000170 b8 e8 d5 3c 30 1d 58 3d b4 63 88 3d de 63 c5 3d
       0.026111946 0.05276221 0.06659642 0.09638189
000180 b0 dc e0 3c dc 60 09 bd ee 76 d2 3d 56 03 a5 bd
       0.027448982 -0.033539638 0.1027659 -0.08057277
000190 9e d2 90 bd 00 43 87 3b 70 4c da bd 50 18 f0 bc
       -0.07071422 0.00412786 -0.106591105 -0.029308468
0001a0 94 77 23 bd f6 fe ad 3d 60 45 eb 3b 58 95 47 3d
       -0.03990896 0.084958956 0.007179901 0.04872641
0001b0 98 de ea 3c 00 2c 85 3d 18 d8 eb 3c ae df c2 bd
       0.028670594 0.06502533 0.028789565 -0.0951532
0001c0 b4 6b c7 bd 50 47 e9 3c 0e 6e da bd 24 bb 72 bd
       -0.097373396 0.028476387 -0.106655225 -0.059260502
0001d0 08 55 16 bd a0 00 d3 3d 66 f7 8a bd 2e 29 c9 bd
       -0.036702186 0.103028536 -0.06785469 -0.098223075
0001e0 14 5a f8 3d 88 9d 8b 3d 5c b3 75 bd 20 d1 bf 3c
       0.12126556 0.06817156 -0.059985504 0.023415148
0001f0 7c 96 04 bd 40 23 4c bb 20 ca fd 3d 20 7e b9 bd
       -0.032370076 -0.003114894 0.12392068 -0.090572596
000200 7c 27 22 3e 40 2e a2 3d 5a 58 0c 3e 05 d7 35 3d
       0.15835375 0.07918978 0.13705578 0.04439451
000210 70 3b 4e bd b3 8a 3c 3e 9e e8 d0 bc cd cd b4 3d
       -0.050349653 0.18412285 -0.025501546 0.08828316
000220 88 57 98 3c ea 0d f3 3d bd d2 dd 3c 04 53 51 3d
       0.018596426 0.11867888 0.027078027 0.05110456
000230 20 ad cb 3c 90 9c 8b bc 4c 3d 52 3d 45 87 14 3e
       0.024862826 -0.017042428 0.05132799 0.14504726
000240 01 9b aa bc 36 ea f6 3d 7c a0 59 bd 78 b1 cc bc
       -0.020825865 0.12056391 -0.053131565 -0.024986967
000250 53 35 2c 3e 10 05 4b 3d 3a b4 eb bd 38 25 c0 bd
       0.16817217 0.049565375 -0.11508985 -0.09382099
000260 23 c8 27 3e e1 58 03 3d 00 25 2f 3b 96 fa e6 bd
       0.1638494 0.032067183 0.0026724935 -0.11278264
000270 12 8e e8 3d fc e4 83 bd fc 4d c9 3d ce dd 4c 3c
       0.11355223 -0.0644016 0.098293275 0.012504054
000280 8c b2 db bd 50 04 97 3c 74 01 a1 bd 46 c1 93 bd
       -0.107274145 0.018434674 -0.07861605 -0.07214598
000290 94 bc a9 bd 4a 03 bf 3c 94 8d 64 bd 46 42 28 3c
       -0.082879215 0.023316998 -0.055799082 0.010269707
0002a0 60 82 02 3d f3 52 34 3e d3 fa 55 3c d6 0a b6 3d
       0.031862617 0.17609768 0.013060289 0.088887855
0002b0 90 2e f8 bd 48 c2 fb 3d 0c 80 a4 bd ab 2b 35 3e
       -0.12118256 0.122929156 -0.080322355 0.1769244
0002c0 a0 a6 f2 3d 16 51 17 3e c0 a2 67 bb 86 af e9 3d
       0.118481874 0.14777026 -0.003534481 0.114104316
0002d0 9d 90 3d 3e 00 92 f5 3c 36 5b 34 3e 00 fc 49 bd
       0.18512197 0.029976845 0.17612919 -0.04931259
0002e0 40 f9 f0 3d c0 cf 4c 3b f0 25 9e bc 57 d3 fb 3c
       0.11766291 0.0031251758 -0.0193052 0.030740423
0002f0 98 eb be 3d d4 4c 6e bd 98 99 e6 bd f5 56 c8 bc
       0.0932228 -0.058178738 -0.112597644 -0.024455527
000300 e1 ea 16 bd d4 6a c4 bd 33 fc 23 3d 8c 00 6e 3d
       -0.03684509 -0.09590688 0.040035438 0.05810599
000310 33 30 47 bd a5 4a 2b be cd 80 85 bd 27 50 29 be
       -0.04862995 -0.16727693 -0.065187074 -0.16534482
000320 9b 7a 06 be 5a ee bd bd f0 69 14 be 40 6c 63 3c
       -0.13132708 -0.092739776 -0.14493537 0.013880789
000330 76 a4 80 3d a0 d5 68 bd 70 ce cf bd 06 03 ca 3c
       0.062813684 -0.056844354 -0.10146797 0.024659645
000340 39 21 bb bd b2 aa 7f bd fc 1b 86 bd 34 24 45 bd
       -0.09137196 -0.062418647 -0.06548306 -0.04813023
000350 8a 60 2e bd 56 9b d4 bd ac bc ce bd de b9 d6 3d
       -0.042572536 -0.103811905 -0.1009458 0.1048467
000360 4f bf 20 bd 62 3e 6d 3d 30 c7 1a 3c 20 74 48 3c
       -0.039244946 0.05792082 0.009446904 0.012234718
000370 60 6b 26 bc f4 3f a2 bd e0 50 9b 3b 6d 4d f0 bd
       -0.010157436 -0.07922354 0.0047398657 -0.11733518
000380 b0 a9 04 bc d8 c1 4b bd 76 34 b8 3d 64 ec 7d 3d
       -0.008097097 -0.04974541 0.08994381 0.061993018
000390 2a e9 fc bd 2a 34 c7 bb f6 fd de 3d 41 10 12 3d
       -0.1234916 -0.0060792165 0.10888283 0.035660032
0003a0 55 b7 d4 bd 29 26 5a 3d 4c 48 0d be c2 f0 cc 3d
       -0.1038653 0.05325905 -0.1379711 0.100068584
0003b0 2c bc 80 bd 76 b4 82 3d 30 10 d4 3c 4d ef d5 bd
       -0.06285891 0.063820764 0.025886625 -0.104460336
0003c0 09 9c 8d 3d 53 4d fc bd 68 7a f9 bd c4 fa f4 3d
       0.06914527 -0.12319436 -0.1218155 0.11961892
0003d0 f2 d7 98 bc 40 ac 67 bc 40 0d 0d bd a7 b5 aa bd
       -0.018657658 -0.014140189 -0.034436464 -0.08335429
0003e0 58 f5 2b bd fe 25 f5 bd e2 02 eb 3d 61 2e 06 be
       -0.041982025 -0.11970137 0.11475159 -0.1310363
0003f0 8e 14 bd 3d f4 69 81 3d c0 f5 cf 3d aa ef 14 bd
       0.09232436 0.06319037 0.10154295 -0.036361374

fc3.dendrite_module.parent_module.weight f4 [1, 64]
000000 bc 0b ec bd f4 7a 01 3d e0 7c 6d 3d 44 ca 06 bd
       -0.11525676 0.031611398 0.05798042 -0.03290774
000010 70 4c f4 3c 20 e2 bd bd 96 9b f2 3d 8c 50 1a bd
       0.029821604 -0.092716455 0.11846082 -0.03767447
000020 2c 8a 54 3d 54 0a 50 bd d0 6f 4f 3d ae 8e b1 3d
       0.051889583 -0.0507911 0.050643742 0.08669792
000030 78 9d 38 bd ba 89 a6 3d a0 fe 04 3c ba 3f ae 3d
       -0.04507205 0.08131738 0.008117348 0.085082486
000040 44 e7 b2 bd f0 cd d0 bc 88 d4 98 bc dc 54 ba bd
       -0.08735517 -0.025488824 -0.01865603 -0.09098217
000050 e8 42 fe 3c d8 5a b2 3c 00 1e d5 bb 58 2c f9 bd
       0.031037763 0.021771833 -0.0065038204 -0.12166661
000060 7c bd 76 bd 00 3d 0e 3a e8 c8 fc bd 80 63 f8 ba
       -0.0602393 0.000542596 -0.12343007 -0.0018950552
000070 92 ac eb 3d a2 cb aa 3d a0 0a c5 3d a2 91 da bd
       0.115075245 0.08339621 0.09621167 -0.106723085
000080 c2 17 c4 bd 80 2d 94 3d 68 1d 67 3d 3c 42 b6 3d
       -0.09574844 0.07235241 0.05642453 0.08899352
000090 80 7c 23 bc b2 d9 93 bd d4 3f de bd 68 c5 22 bd
       -0.009978414 -0.072192565 -0.10852018 -0.039739043
0000a0 b2 e0 d3 bd be 19 de bd c2 92 c6 bd f8 3c 47 3d
       -0.103455916 -0.10844754 -0.096959606 0.04864213
0000b0 c6 b8 a0 3d 3c 93 66 bd b8 fe 32 3d f0 a9 71 bc
       0.07847743 -0.056292757 0.04369995 -0.014749989
0000c0 6c c9 10 bd 98 23 e1 bc e8 bf 19 3d 16 47 bd bd
       -0.03534834 -0.027482793 0.03753653 -0.09242074
0000d0 c4 9d 3b bd 20 ee 0c bc 80 c1 d6 3b c4 f6 46 3d
       -0.045804754 -0.008601695 0.0065538287 0.048575178
0000e0 68 99 dc bd b0 5a 3f 3d 3a 4c b9 bd a8 f8 89 3d
       -0.107714474 0.046717346 -0.09047742 0.067368805
0000f0 50 13 4e bc 60 b6 c8 3c 88 95 76 3d 18 4d d1 bc
       -0.012577847 0.024501026 0.060201198 -0.025549456

fc3.main_module.weight f4 [1, 64]
000000 fa d8 6b bd f4 7a 01 3d 45 88 f4 3d ed f9 b2 3c
       -0.05757997 0.031611398 0.11940054 0.02184769
000010 70 4c f4 3c 0a 7d 1b bd 96 9b f2 3d b0 bc f1 3c
       0.029821604 -0.037961043 0.11846082 0.029508919
000020 2c 8a 54 3d 54 0a 50 bd d0 6f 4f 3d ae 8e b1 3d
       0.051889583 -0.0507911 0.050643742 0.08669792
000030 78 9d 38 bd b1 c6 e5 3d fb 46 82 3d 38 08 ec 3d
       -0.04507205 0.11219538 0.06361195 0.11525005
000040 9c f3 9c bc 8e b2 50 3d f5 dc 13 3d dc 54 ba bd
       -0.01915913 0.050951533 0.036099393 -0.09098217
000050 1b e8 90 3d d8 5a b2 3c 79 a3 45 3d 58 2c f9 bd
       0.070755206 0.021771833 0.048251603 -0.12166661
000060 7c bd 76 bd 00 3d 0e 3a 4d a5 8c bd 21 84 58 3d
       -0.0602393 0.000542596 -0.06867466 0.052860383
000070 92 ac eb 3d a2 cb aa 3d a0 0a c5 3d 0c dc 54 bd
       0.115075245 0.08339621 0.09621167 -0.051967666
000080 c2 17 c4 bd 80 2d 94 3d d1 3c c7 3d 3c 42 b6 3d
       -0.09574844 0.07235241 0.09728397 0.08899352
000090 80 7c 23 bc b2 d9 93 bd 11 c9 36 bd 81 42 24 3d
       -0.009978414 -0.072192565 -0.044625346 0.040102486
0000a0 b2 e0 d3 bd be 19 de bd c3 52 d2 bc f8 3c 47 3d
       -0.103455916 -0.10844754 -0.02567423 0.04864213
0000b0 c6 b8 a0 3d 3c 93 66 bd b8 fe 32 3d ba dc 23 3d
       0.07847743 -0.056292757 0.04369995 0.040005423
0000c0 6c c9 10 bd 98 23 e1 bc e8 bf 19 3d f5 46 1a bd
       -0.03534834 -0.027482793 0.03753653 -0.037665326
0000d0 c4 9d 3b bd b3 0b 3d 3d 80 c1 d6 3b c4 f6 46 3d
       -0.045804754 0.046153735 0.0065538287 0.048575178
0000e0 98 eb 58 bd 58 14 df 3d 3a 4c b9 bd b2 a0 f9 3d
       -0.052959055 0.10892552 -0.09047742 0.12188853
0000f0 50 13 4e bc 0a db a4 3d 1e 39 ee 3d 5f 41 ef 3c
       -0.012577847 0.08049591 0.11631988 0.029205976

tracker_string u1 [1390]
000000 64 6f 69 6e 67 5f 70 61 69 2c 54 72 75 65 0a 6e
       100 111 105 110 103 95 112 97 105 44 84 114 117 101 10 110
000010 75 6d 5f 64 65 6e 64 72 69 74 65 73 5f 61 64 64
       117 109 95 100 101 110 100 114 105 116 101 115 95 97 100 100
000020 65 64 2c 30 0a 6e 75 6d 5f 63 79 63 6c 65 73 2c
       101 100 44 48 10 110 117 109 95 99 121 99 108 101 115 44
000030 30 0a 6d 6f 64 65 2c 6e 0a 6e 75 6d 5f 65 70 6f
       48 10 109 111 100 101 44 110 10 110 117 109 95 101 112 111
000040 63 68 73 5f 72 75 6e 2c 30 0a 74 6f 74 61 6c 5f
       99 104 115 95 114 117 110 44 48 10 116 111 116 97 108 95
000050 65 70 6f 63 68 73 5f 72 75 6e 2c 30 0a 65 70 6f
       101 112 111 99 104 115 95 114 117 110 44 48 10 101 112 111
000060 63 68 5f 6c 61 73 74 5f 69 6d 70 72 6f 76 65 64
       99 104 95 108 97 115 116 95 105 109 112 114 111 118 101 100
000070 2c 30 0a 72 75 6e 6e 69 6e 67 5f 61 63 63 75 72
       44 48 10 114 117 110 110 105 110 103 95 97 99 99 117 114
000080 61 63 79 2c 31 36 33 38 2e 34 36 31 37 36 31 33
       97 99 121 44 49 54 51 56 46 52 54 49 55 54 49 51
000090 33 39 37 37 0a 6d 61 78 69 6d 69 7a 69 6e 67 5f
       51 57 55 55 10 109 97 120 105 109 105 122 105 110 103 95
0000a0 73 63 6f 72 65 2c 46 61 6c 73 65 0a 73 77 69 74
       115 99 111 114 101 44 70 97 108 115 101 10 115 119 105 116
0000b0 63 68 5f 6d 6f 64 65 2c 30 0a 6c 61 73 74 5f 73
       99 104 95 109 111 100 101 44 48 10 108 97 115 116 95 115
0000c0 77 69 74 63 68 2c 30 0a 63 75 72 72 65 6e 74 5f
       119 105 116 99 104 44 48 10 99 117 114 114 101 110 116 95
0000d0 62 65 73 74 5f 76 61 6c 69 64 61 74 69 6f 6e 5f
       98 101 115 116 95 118 97 108 105 100 97 116 105 111 110 95
0000e0 73 63 6f 72 65 2c 31 36 33 38 2e 34 36 31 37 36
       115 99 111 114 101 44 49 54 51 56 46 52 54 49 55 54
0000f0 31 33 33 39 37 37 0a 69 6e 69 74 69 61 6c 5f 6c
       49 51 51 57 55 55 10 105 110 105 116 105 97 108 95 108
