forecast_run_1767166219/latest.pt (safetensors, 40254 bytes, 11 tensors)

fc1.dendrite_module.parent_module.bias f4 [64]
000000 b8 08 25 3f 90 72 fc bd 56 46 49 bf 12 70 47 bf
       0.6446643 -0.123265386 -0.7862295 -0.7790538
000010 44 30 be be 40 58 22 bd c0 b1 75 bd 70 73 ad 3e
       -0.371462 -0.039634943 -0.05998397 0.33877134
000020 78 2f 38 be a8 63 15 3e 10 84 86 bd 48 11 38 3e
       -0.17986858 0.14588797 -0.06568158 0.17975342
000030 bc 3a b6 3e cc 16 f0 3e a0 a6 16 bf 42 2c 68 3f
       0.35591686 0.46892393 -0.58848 0.9069253
000040 9c a0 51 3f 7a fe 43 3f 78 19 e4 be f8 21 78 be
       0.81885695 0.76560175 -0.4455068 -0.24231708
000050 5e 22 23 3f 52 1a 7a 3f 30 e4 55 be e0 35 35 3f
       0.63724315 0.9769641 -0.20887828 0.7078533
000060 58 ca 6c 3f 7a fe 3f bf 80 cc 16 bf c0 5e ed be
       0.9249625 -0.74997675 -0.5890579 -0.4636135
000070 40 9d 27 be 36 42 78 bf 20 b3 65 bd c0 11 9e be
       -0.1636858 -0.9697603 -0.05607903 -0.30872917
000080 88 50 e9 be f0 fd d3 3e 7e d2 71 3f 20 d9 25 be
       -0.45569253 0.41404676 0.9446181 -0.16196108
000090 74 a2 0f 3f 0a 37 39 bf 4a 06 4d bf 10 0a 18 bf
       0.5610726 -0.7234961 -0.8008772 -0.59390354
0000a0 50 ca 36 be 80 fd 01 bf ee 51 4b 3f 14 56 48 3f
       -0.17850614 -0.50777435 0.7942189 0.78256345
0000b0 40 dd 75 bd c8 80 52 be 7c 30 71 bf 0e d7 50 3f
       -0.060025454 -0.20556939 -0.94214606 0.8157815
0000c0 6e ff 7b bf ae 80 5c bf d4 ce f3 be 38 0f 43 3e
       -0.9843663 -0.8613385 -0.47618735 0.19048774
0000d0 6a ac 0a bf 6a bb 5a bf 80 4f 0c bd 92 bc 01 3f
       -0.54169333 -0.8544222 -0.034255505 0.5067836
0000e0 58 27 52 be c8 56 05 3e ac af 05 bf 00 c0 b7 3d
       -0.20522821 0.13021386 -0.5222118 0.08972168
0000f0 c4 80 c7 be 90 81 04 bf f4 43 65 3f fa 30 04 3f
       -0.38965428 -0.51760197 0.89556813 0.5163723

fc1.dendrite_module.parent_module.weight f4 [64, 1]
000000 40 bf a4 be 14 02 43 bf f2 d5 28 3f 5a d9 1a bf
       -0.32177162 -0.76175046 0.65951455 -0.604879
000010 30 5b 49 be 80 bf 84 3e 30 8a f8 bd 50 b9 04 3e
       -0.19663692 0.25927353 -0.12135732 0.12961316
000020 10 18 bf be 40 e1 de bc 06 e3 55 bf fa dd 1d bf
       -0.37323046 -0.027207017 -0.83549535 -0.61666834
000030 b8 2c 58 bf c0 99 7c 3d c8 fa 13 3e be 30 38 3f
       -0.84443235 0.061670065 0.14451134 0.71949375
000040 32 50 7a bf 4c 75 14 3f 00 ee 64 bc 9a d1 67 bf
       -0.9777862 0.5799148 -0.013972759 -0.905542
000050 18 f9 12 3e e4 de 99 be 22 11 5f 3f 78 52 12 3f
       0.14352834 -0.30052865 0.8713552 0.5715709
000060 98 d2 f3 3e e4 c5 5f bf 00 a1 c8 bd 50 35 a8 be
       0.47621608 -0.8741133 -0.09796333 -0.32853174
000070 10 6f db bd 40 f3 03 3d d8 6f 44 be 34 65 3f 3f
       -0.10714543 0.032214403 -0.1918329 0.747638
000080 40 01 d7 be 50 64 cc bd 90 16 b2 3d ae 6b 67 bf
       -0.4199314 -0.099800706 0.0869571 -0.9039868
000090 9a 42 03 bf ea 13 00 bf 4c 58 aa 3e ac 51 10 bf
       -0.512735 -0.50030386 0.3327049 -0.5637462
0000a0 4c a2 87 3e f0 cc ee bd 80 05 4b bd 40 95 e8 3d
       0.2649101 -0.116601825 -0.049565792 0.11356592
0000b0 6e ce 60 bf e0 18 a7 bd c0 06 c6 bc 30 bc 86 be
       -0.87814987 -0.081590414 -0.02417314 -0.2631545
0000c0 60 ec 64 3d 48 51 fa be 64 8b 92 be b0 18 62 be
       0.055889487 -0.48890138 -0.28621972 -0.2207973
0000d0 f0 56 44 3f 58 7f 4c bf 00 7c ae 3b 9a ef 7b 3f
       0.76695156 -0.7988181 0.0053248405 0.9841248
0000e0 50 5b 65 bf 40 80 d5 bc 70 f9 28 3f 88 4d 97 3e
       -0.89592457 -0.02606213 0.6600561 0.2955134
0000f0 94 b7 28 bf 24 ef 67 bf 38 b2 72 bf f0 38 b4 bd
       -0.6590512 -0.90599275 -0.9480319 -0.087999225

fc1.main_module.bias f4 [64]
000000 b8 08 25 3f 90 72 fc bd c0 ff 5a bf 12 70 47 bf
       0.6446643 -0.123265386 -0.85546494 -0.7790538
000010 44 30 be be a7 97 a4 bd c0 b1 75 bd 04 81 b2 3e
       -0.371462 -0.08036738 -0.05998397 0.34864056
000020 78 2f 38 be a8 63 15 3e 10 84 86 bd 48 11 38 3e
       -0.17986858 0.14588797 -0.06568158 0.17975342
000030 bc 3a b6 3e dc de df 3e 3c 08 1a bf b2 54 66 3f
       0.35591686 0.43724716 -0.60168815 0.89972985
000040 9c a0 51 3f 1c af 32 3f 78 19 e4 be f8 21 78 be
       0.81885695 0.69798446 -0.4455068 -0.24231708
000050 5c d2 0f 3f 52 1a 7a 3f 31 a7 88 be 4d 1d 29 3f
       0.5618036 0.9769641 -0.26690057 0.66060334
000060 e3 00 68 3f 7a fe 3f bf 80 cc 16 bf c0 5e ed be
       0.90626353 -0.74997675 -0.5890579 -0.4636135
000070 40 9d 27 be 7f 1c 78 bf 20 b3 65 bd c9 15 9a be
       -0.1636858 -0.9691848 -0.05607903 -0.30094746
000080 88 50 e9 be f0 fd d3 3e 0e ee 58 3f 20 d9 25 be
       -0.45569253 0.41404676 0.8473824 -0.16196108
000090 74 a2 0f 3f 0a 37 39 bf e0 46 53 bf 10 0a 18 bf
       0.5610726 -0.7234961 -0.8253002 -0.59390354
0000a0 d1 cb 4f be 80 fd 01 bf ee 51 4b 3f eb 46 2d 3f
       -0.20292594 -0.50777435 0.7942189 0.6768634
0000b0 40 dd 75 bd c8 80 52 be 7c 30 71 bf 0e d7 50 3f
       -0.060025454 -0.20556939 -0.94214606 0.8157815
0000c0 3a 9a 7d bf ae 80 5c bf d4 ce f3 be 38 0f 43 3e
       -0.99063456 -0.8613385 -0.47618735 0.19048774
0000d0 59 96 15 bf 6a bb 5a bf d9 f4 45 bd 86 25 f9 3e
       -0.5843254 -0.8544222 -0.048329208 0.4866144
0000e0 58 27 52 be c8 56 05 3e 61 7e 17 bf f7 b9 31 bc
       -0.20522821 0.13021386 -0.59177214 -0.01084756
0000f0 c4 80 c7 be 90 81 04 bf f4 43 65 3f fa 30 04 3f
       -0.38965428 -0.51760197 0.89556813 0.5163723

fc1.main_module.weight f4 [64, 1]
000000 40 bf a4 be 14 02 43 bf a7 37 19 3f 5a d9 1a bf
       -0.32177162 -0.76175046 0.59850544 -0.604879
000010 30 5b 49 be 68 07 6d 3e 30 8a f8 bd 6e 38 23 3e
       -0.19663692 0.23147357 -0.12135732 0.15939495
000020 10 18 bf be 40 e1 de bc 06 e3 55 bf fa dd 1d bf
       -0.37323046 -0.027207017 -0.83549535 -0.61666834
000030 b8 2c 58 bf 67 90 24 3d ee 4b 17 3e 7c 84 3a 3f
       -0.84443235 0.040176775 0.14775059 0.72858405
000040 32 50 7a bf df 06 05 3f 00 ee 64 bc 9a d1 67 bf
       -0.9777862 0.5196361 -0.013972759 -0.905542
000050 05 7d 9a 3d e4 de 99 be 85 aa 52 3f a3 0b 09 3f
       0.07543377 -0.30052865 0.8229144 0.5353338
000060 28 0c f1 3e e4 c5 5f bf 00 a1 c8 bd 50 35 a8 be
       0.47079587 -0.8741133 -0.09796333 -0.32853174
000070 10 6f db bd ea 32 54 3d d8 6f 44 be 86 47 46 3f
       -0.10714543 0.051806368 -0.1918329 0.77452886
000080 40 01 d7 be 50 64 cc bd f3 1e 8c bb ae 6b 67 bf
       -0.4199314 -0.099800706 -0.0042761504 -0.9039868
000090 9a 42 03 bf ea 13 00 bf 87 a7 a3 3e ac 51 10 bf
       -0.512735 -0.50030386 0.3196375 -0.5637462
0000a0 75 1e 81 3e f0 cc ee bd 80 05 4b bd cf 6b 66 3c
       0.2521855 -0.116601825 -0.049565792 0.0140637895
0000b0 6e ce 60 bf e0 18 a7 bd c0 06 c6 bc 30 bc 86 be
       -0.87814987 -0.081590414 -0.02417314 -0.2631545
0000c0 1d f5 87 3d 48 51 fa be 64 8b 92 be b0 18 62 be
       0.066385485 -0.48890138 -0.28621972 -0.2207973
0000d0 bb 9f 3c 3f 58 7f 4c bf 9c 15 07 3c 76 b8 79 3f
       0.7368123 -0.7988181 0.008244898 0.9754709
0000e0 50 5b 65 bf 40 80 d5 bc d9 12 19 3f d4 2c 4b 3e
       -0.89592457 -0.02606213 0.59794384 0.1984132
0000f0 94 b7 28 bf 24 ef 67 bf 38 b2 72 bf f0 38 b4 bd
       -0.6590512 -0.90599275 -0.9480319 -0.087999225

fc2.dendrite_module.parent_module.bias f4 [64]
000000 90 dc 22 bd 98 3e cc bc 10 72 0a bd 58 c0 e3 3c
       -0.039761126 -0.02493219 -0.033800185 0.027801678
000010 8a 64 c6 3d 3a 69 ad bd 3a ce e6 bd de d4 87 3d
       0.09687145 -0.08467336 -0.11269803 0.06632398
000020 da c5 fc bd 66 8b 95 bd b0 73 6a bd 40 99 58 bd
       -0.12342425 -0.07301979 -0.057239234 -0.052880526
000030 68 5a 0f bd 20 81 af 3c 4c c1 8e bd 20 19 e8 bb
       -0.034998327 0.021423876 -0.06970462 -0.0070830733
000040 0c 5b f5 3d 0c b9 b0 3d 58 fb ab 3d 2a cb f4 bd
       0.119802564 0.08629045 0.083975494 -0.11952813
000050 ec ca b4 bd 2c 14 76 3d 20 aa e7 bd 34 85 cf 3d
       -0.08827767 0.06007783 -0.11311746 0.10132828
000060 68 94 e2 bd 60 b6 d4 3d f8 31 eb bc cc a8 a5 3d
       -0.110634625 0.10386348 -0.02871035 0.08088836
000070 b0 51 7f bd 8e 43 96 bd d0 da cb 3d 9c c6 c2 3d
       -0.062333763 -0.07337104 0.099538445 0.09510538
000080 40 bb 80 3d a2 11 e4 bd b0 5c d5 bc f8 00 93 bc
       0.06285715 -0.11136176 -0.026045173 -0.017944798
000090 78 a1 56 bd a8 0a 13 bd 5e 44 ba 3d e2 7b fe bd
       -0.052400082 -0.035898834 0.09095071 -0.124259725
0000a0 d0 f3 7a bd 04 fe af 3d d2 52 bd 3d 40 29 f6 3b
       -0.061267674 0.085933715 0.09244312 0.0075122416
0000b0 d4 ed 90 3d 48 f6 61 bd f4 98 ec bd 5c 15 85 bd
       0.07076612 -0.055166513 -0.11552611 -0.064982146
0000c0 ba 52 91 3d 38 c0 8b bc b4 56 69 3d d8 83 34 3d
       0.07095857 -0.01705943 0.056967452 0.04407105
0000d0 d0 c8 9a bd 02 40 df 3d a0 be fb bc e8 96 42 3d
       -0.07557833 0.109008804 -0.030730546 0.047507197
0000e0 a8 ba e2 bc b0 c6 67 3c 40 42 b7 3d 9c 14 29 3d
       -0.027676895 0.014146492 0.08948183 0.04127942
0000f0 28 fe c8 bc 86 11 a7 bd 26 8d e8 3d dc 41 aa 3d
       -0.024535254 -0.08157639 0.11355047 0.08313343

fc2.dendrite_module.parent_module.weight f4 [64, 64]
000000 68 ad ba 3d 18 be 8e 3d b2 76 91 3d 48 8b 6e 3d
       0.09115106 0.06969851 0.071027175 0.058238298
000010 e8 3c ff 3d f0 b7 28 3d 46 ab 84 3d c0 f2 68 bd
       0.12462789 0.04119104 0.0647798 -0.05687213
000020 1c a3 20 bd e0 56 82 3b 00 70 73 3a e0 dc 17 3c
       -0.039218053 0.0039776415 0.00092864037 0.009268969
000030 fc 23 f3 3d cc 4c ad bd 1e 60 de bd 66 60 cb 3d
       0.11872098 -0.084619135 -0.10858177 0.09930496
000040 88 58 f6 3d 64 b0 9f 3d d0 f4 9b bc c8 19 7d bd
       0.12028605 0.07797316 -0.019037634 -0.061792165
000050 78 03 a4 3d 40 a5 bc 3c d8 fc a1 3d 00 e0 fc 39
       0.08008474 0.023028016 0.07909554 0.0004823208
000060 da 17 ce bd 60 70 3e bd 0c ee c8 bd 3e 97 fd 3d
       -0.10063143 -0.046493888 -0.09811029 0.12382363
000070 84 aa 8a 3d 20 c2 77 bd 88 2a b7 3d 12 80 e5 3d
       0.067708045 -0.060487866 0.08943659 0.11206068
000080 16 45 97 bd 80 62 80 bb d0 60 d3 3d 56 89 a8 3d
       -0.07386224 -0.003917992 0.103212 0.0822932
000090 5c 5e 86 3d 00 3a 43 3c 98 89 44 bd 8c 80 ed 3d
       0.06560966 0.011915684 -0.047982782 0.11596784
0000a0 30 d4 e4 3c 80 0d 4a bb 20 68 d0 bd d8 ca 04 bd
       0.02793321 -0.00308308 -0.1017611 -0.03242001
0000b0 e4 31 4a 3d 20 12 cd 3b e0 33 0a bc b4 46 34 bd
       0.049363986 0.006258264 -0.0084352195 -0.04401274
0000c0 6c d4 63 3d 36 dc 8f 3d 6a fe 97 3d ec b6 b1 bd
       0.055622503 0.07024424 0.074215725 -0.08677468
0000d0 c0 49 90 bb 2c 9f 15 3d e0 51 9a 3d 8a de a0 bd
       -0.004403323 0.03652875 0.07535148 -0.07854946
0000e0 88 c4 6e 3d d4 4d dd 3d 38 6d c6 bc 50 67 b6 3c
       0.058292896 0.1080586 -0.024222001 0.02226606
0000f0 e0 29 3a 3d b0 15 71 bd 7a 8c b9 bd da 02 94 3d
       0.04545009 -0.058858573 -0.09059997 0.072271064
000100 4c 1a 8d bd 80 d1 88 bc 50 fd ab 3c 10 03 77 3d
       -0.06889781 -0.01670146 0.020994812 0.060305655
000110 a6 64 df 3d d0 3b 20 3c 20 ff c9 bb 64 b8 97 bd
       0.10907869 0.009779885 -0.0061644465 -0.074082166
000120 dc 29 e1 3d 90 b5 0e 3d 70 1a 70 bc ae 42 81 bd
       0.10994312 0.03484112 -0.014654741 -0.06311546
000130 a0 27 fd bb c0 15 d5 3c 62 79 89 3d 58 48 2c 3d
       -0.007725671 0.026011348 0.06712605 0.04206118
000140 30 ee 5c bc e0 5d 80 bc 44 b7 fa bd 0c 36 03 bd
       -0.013484523 -0.015669763 -0.122419864 -0.032033965
000150 22 ee 9d 3d a8 a8 ba 3d 20 48 e7 3d cc 2c 40 bd
       0.07711436 0.091142 0.112930536 -0.04691772
000160 b2 22 bd bd f4 43 03 bd 10 5e 1f 3d 26 f7 b1 3d
       -0.09235133 -0.032047227 0.038908064 0.08689718
000170 2a ab d8 bd 70 dd 27 bd c2 a4 d4 bd 1c 0b ff bd
       -0.10579522 -0.040982664 -0.103829876 -0.12453291
000180 4c b2 aa bd 3a 15 b9 3d 48 fc 7b bd 2e 50 be bd
       -0.08334789 0.09037252 -0.06151989 -0.09292637
000190 70 91 b1 3c e4 b0 13 bd 5c f5 bc bd b4 e3 ee 3d
       0.021675795 -0.036057368 -0.09226486 0.11664525
0001a0 20 69 87 bb 5e c3 bd 3d d6 c2 d7 bd 96 e9 d5 3d
       -0.004132405 0.09265779 -0.10535209 0.104449436
0001b0 f4 84 d7 3d d8 c8 96 bc d0 5b ef 3c 84 bd 30 bd
       0.10523406 -0.018406317 0.029218584 -0.043149486
0001c0 f4 82 e0 bd b6 2b d9 bd c0 05 aa 3b 00 02 ea 39
       -0.10962477 -0.1060404 0.0051886737 0.00044633448
0001d0 f8 b4 e0 3d 3c 35 8a bd 04 6d 98 3d 6c c5 01 3d
       0.10972017 -0.06748435 0.07442668 0.031682417
0001e0 62 0b e3 bd 8e 95 85 3d 84 91 84 bd 50 d6 7c bc
       -0.110861555 0.06522666 -0.064730674 -0.015431955
0001f0 32 bb d9 bd 30 c4 99 3d 2c b7 8e bd c4 95 df 3d
       -0.10631408 0.07508123 -0.06968531 0.109172374
000200 fa 6c cb 3d 10 d8 dc 3c 0c bd d1 bd ce ff c9 3d
       0.09932895 0.026958495 -0.10241136 0.09863244
000210 98 f6 72 bd f4 58 00 bd 96 21 d0 3d 58 4b a4 3d
       -0.0593172 -0.031334832 0.10162656 0.08022183
000220 f8 24 3d bd 86 47 b0 bd 8c 51 90 3d 3a ee e5 3d
       -0.046177834 -0.08607392 0.07046804 0.11227079
000230 e0 ae e2 bc a0 f3 83 3c f4 36 2b 3d b8 21 4b 3d
       -0.027671278 0.01610738 0.041800454 0.049592704
000240 88 47 39 bd f0 12 b0 bd 1e e2 be 3d 78 7f 9b 3c
       -0.045234233 -0.08597362 0.09320472 0.01898168
000250 0c e9 05 bd 34 62 ad 3d 32 ee a1 bd b8 9e b8 3d
       -0.032692954 0.084659964 -0.0790676 0.09014648
000260 20 7d 2e 3d 6e 38 ef bd 74 54 bb 3d de 5b dd bd
       0.042599797 -0.11680685 0.091469675 -0.10808538
000270 e0 5d 81 3c f8 8c fc 3d d4 b6 65 bd 60 43 10 bc
       0.015791833 0.12331575 -0.05608256 -0.008805126
000280 1c f2 70 3d 70 8e bc bd 90 72 37 bd 3e 3c ae bd
       0.058824643 -0.09206855 -0.04478699 -0.08507584
000290 f0 8a 52 3d d0 7b 99 3c 88 59 cb bd 9a 89 a5 bd
       0.051402032 0.018735796 -0.09929186 -0.08082886
0002a0 80 65 95 3d 4c 2a 20 bd 90 67 e2 bd 80 10 6b bd
       0.0729475 -0.039102837 -0.11054909 -0.057388783
0002b0 d8 01 f5 bd 4c 30 3e 3d 38 e9 d9 3d 7c bd da 3d
       -0.11963242 0.04643278 0.10640186 0.106806725
0002c0 f4 c3 7b bd 40 78 fd bc 90 88 c4 3c d6 76 94 3d
       -0.061466172 -0.030941129 0.0239909 0.07249229
0002d0 c0 bc 83 3c 30 0f b3 bc ca 77 f4 bd 00 65 50 bb
       0.016081214 -0.021857828 -0.119369105 -0.0031798482
0002e0 c0 12 97 bc 90 a6 11 bc 90 30 73 3d b0 63 e9 bc
       -0.018441558 -0.008889809 0.059372485 -0.028489918
0002f0 2c 1b aa bd ac f4 88 bd 50 3a 05 bc 68 9f b3 bd
       -0.08305964 -0.066872925 -0.008131579 -0.08770639
000300 34 39 74 3d 04 7d 53 bd 96 24 af 3d 68 54 05 bd
       0.059624866 -0.051632896 0.085519 -0.0325512
000310 fc ad 4d bd 6a 66 b0 bd 6a a4 d7 3d e4 f1 72 bd
       -0.050214753 -0.08613284 0.10529406 -0.059312716
000320 22 e4 df bd ec 94 46 bd 2c e7 94 3d 62 c3 8b 3d
       -0.10932185 -0.048481867 0.07270655 0.06824376
000330 50 55 f9 3c 82 16 e0 3d d0 91 fc bc c4 ef a8 bd
       0.030436188 0.10941793 -0.030831248 -0.08248857
000340 50 38 f0 3c 00 82 1f bd 10 de fa bd 60 2d 60 3d
       0.029323727 -0.038942337 -0.12249386 0.054730773
000350 9e 4c 94 bd e0 66 12 bd 78 45 2c 3d d2 4d fc 3d
       -0.07241176 -0.03574264 0.042058438 0.123195305
000360 48 49 c0 bc 60 e5 cb bd 20 16 d2 bc 3c 8e 00 bd
       -0.023472443 -0.09955859 -0.025645316 -0.031385645
000370 08 b6 95 3c e0 a2 e6 bb 66 1a bf 3d 58 78 a0 bd
       0.018275276 -0.007038459 0.09331207 -0.07835454
000380 6c 3f 65 3d 90 89 43 3c bc 64 94 bd 40 5c 43 bd
       0.055968687 0.011934653 -0.07245776 -0.0476954
000390 d0 ac 8c 3c 34 b2 62 bd 38 e1 24 3d aa e4 93 3d
       0.017172247 -0.05534573 0.040253848 0.072213486
0003a0 20 72 c1 3b d0 1c f2 3c e8 79 c9 3c 5a 73 fc bd
       0.0059034973 0.029554754 0.024594262 -0.12326689
0003b0 b2 7f de 3d 60 ff cf bd c0 0b 67 3c be 53 8b 3d
       0.108642 -0.10156131 0.0141019225 0.06803082
0003c0 8c 28 60 3d bc fd 2f bd fc 15 5c bd 6a b7 e4 bd
       0.05472617 -0.04296659 -0.053731903 -0.11167796
0003d0 c4 d1 88 3d f0 49 5e bc 1a ee f4 bd fe 15 9d bd
       0.066806346 -0.013567433 -0.11959477 -0.0767021
0003e0 d8 eb ad bd 9c 4f 8d 3d 32 ed c5 bd 20 7b 33 3d
       -0.08492249 0.0689995 -0.09664382 0.043818593
0003f0 3a f1 ae bd 1a 7b f1 3d fc 55 b9 bd 98 80 bd 3c
       -0.08542104 0.11791058 -0.09049603 0.023132607

fc2.main_module.bias f4 [64]
000000 d8 95 c7 bd 42 33 a3 bd 10 72 0a bd 58 c0 e3 3c
       -0.09745377 -0.07968761 -0.033800185 0.027801678
000010 8a 64 c6 3d 6c c6 0e be ef 12 99 bd de d4 87 3d
       0.09687145 -0.1394288 -0.074743144 0.06632398
000020 cf 6c 2e be c5 be 15 be b0 73 6a bd 3b 70 dc bd
       -0.17033695 -0.14623554 -0.057239234 -0.10763594
000030 68 5a 0f bd 20 81 af 3c d1 35 ab bd 20 19 e8 bb
       -0.034998327 0.021423876 -0.08359874 -0.0070830733
000040 c8 fd 11 3e 55 b6 01 3e e1 77 fd 3d 63 77 32 be
       0.14256966 0.1266721 0.12376381 -0.17428355
000050 ec ca b4 bd 2c 14 76 3d de e6 2b be 34 85 cf 3d
       -0.08827767 0.06007783 -0.16787288 0.10132828
000060 68 94 e2 bd 8d b6 88 3c c6 55 f4 bd 86 a7 f7 3d
       -0.110634625 0.01668861 -0.119304225 0.120924994
000070 e1 0b af bc 8e 43 96 bd d0 da cb 3d 9c c6 c2 3d
       -0.021367969 -0.07337104 0.099538445 0.09510538
000080 40 bb 80 3d a2 11 e4 bd 58 87 ac bd f8 00 93 bc
       0.06285715 -0.11136176 -0.08424252 -0.017944798
000090 78 a1 56 bd a8 0a 13 bd 82 41 14 3d 2e f7 b9 bd
       -0.052400082 -0.035898834 0.036195286 -0.09080349
0000a0 77 a6 d5 bc 9e 4a fb 3d 37 5f 95 3c 19 a0 1d 3d
       -0.026080353 0.122700915 0.018233879 0.03848276
0000b0 8d 00 e5 bb bf 1e e1 bd f9 e9 f7 bd 21 1e 9d bd
       -0.006988591 -0.109921925 -0.121051736 -0.07671762
0000c0 ba 52 91 3d 02 7f b4 bd f3 86 c3 3d d8 83 34 3d
       0.07095857 -0.08813287 0.09547224 0.04407105
0000d0 c7 00 0d be 02 40 df 3d 7f 6f 85 3a e8 96 42 3d
       -0.13769828 0.109008804 0.0010180323 0.047507197
0000e0 46 d2 a8 bd 0e 45 76 bd 40 42 b7 3d 9c 14 29 3d
       -0.082432315 -0.06012445 0.08948183 0.04127942
0000f0 d5 2c 18 3b 82 b1 38 bd 26 8d e8 3d bb c3 f6 3d
       0.0023220081 -0.04509116 0.11355047 0.120490514

fc2.main_module.weight f4 [64, 64]
000000 68 ad ba 3d 18 be 8e 3d 49 9d 85 3c 48 8b 6e 3d
       0.09115106 0.06969851 0.016310351 0.058238298
000010 e8 3c ff 3d e9 c9 7d bc 46 ab 84 3d b5 88 e7 bd
       0.12462789 -0.015490034 0.0647798 -0.11305372
000020 1c a3 20 bd e0 56 82 3b 00 70 73 3a e0 dc 17 3c
       -0.039218053 0.0039776415 0.00092864037 0.009268969
000030 fc 23 f3 3d 4b 77 10 be 18 80 28 be c6 97 36 3d
       0.11872098 -0.14108007 -0.16455114 0.044578336
000040 88 58 f6 3d b0 eb bb 3c d0 f4 9b bc c8 19 7d bd
       0.12028605 0.022939533 -0.019037634 -0.061792165
000050 99 f7 bc 3c 40 a5 bc 3c d7 bb c7 3c a0 99 60 bd
       0.023067283 0.023028016 0.024381561 -0.05483401
000060 90 5a 1f be 60 70 3e bd 0c ee c8 bd 3e 97 fd 3d
       -0.1556189 -0.046493888 -0.09811029 0.12382363
000070 84 aa 8a 3d da 84 ed bd 88 2a b7 3d 3c 2d 6b 3d
       0.067708045 -0.11597605 0.08943659 0.057416186
000080 16 45 97 bd 80 62 80 bb f5 1c 3f 3d 56 89 a8 3d
       -0.07386224 -0.003917992 0.046658475 0.0822932
000090 5c 5e 86 3d 00 3a 43 3c 34 23 d3 bd 8c 80 ed 3d
       0.06560966 0.011915684 -0.10309449 0.11596784
0000a0 b0 f0 e0 bc 80 0d 4a bb 20 68 d0 bd 8d a4 b2 bd
       -0.027458519 -0.00308308 -0.1017611 -0.08722792
0000b0 e4 31 4a 3d 20 12 cd 3b e0 33 0a bc b4 46 34 bd
       0.049363986 0.006258264 -0.0084352195 -0.04401274
0000c0 95 7a a3 ba 36 dc 8f 3d 6a fe 97 3d ec b6 b1 bd
       -0.0012472445 0.07024424 0.074215725 -0.08677468
0000d0 9d f5 72 bd 2c 9f 15 3d b6 ac e8 3c 81 42 08 be
       -0.059316266 0.03652875 0.028402667 -0.13306619
0000e0 88 c4 6e 3d d4 4d dd 3d 83 ee a1 bd a6 be 05 bd
       0.058292896 0.1080586 -0.079068206 -0.03265252
0000f0 e0 29 3a 3d b0 15 71 bd 7a 8c b9 bd da 02 94 3d
       0.04545009 -0.058858573 -0.09059997 0.072271064
000100 4c 1a 8d bd 80 d1 88 bc 90 48 0a bd 10 03 77 3d
       -0.06889781 -0.01670146 -0.033760607 0.060305655
000110 a6 64 df 3d 44 38 38 bd 20 ff c9 bb 00 ee 03 be
       0.10907869 -0.044975534 -0.0061644465 -0.12883759
000120 dc 29 e1 3d 90 b5 0e 3d 70 1a 70 bc ae 42 81 bd
       0.10994312 0.03484112 -0.014654741 -0.06311546
000130 a0 27 fd bb b4 78 eb bc 26 ae 4a 3c 86 fb 4f bc
       -0.007725671 -0.02874408 0.012370622 -0.012694245
000140 30 ee 5c bc 14 3b 90 bd 44 b7 fa bd 0c 36 03 bd
       -0.013484523 -0.07042518 -0.122419864 -0.032033965
000150 13 2a b7 3c a8 a8 ba 3d 09 49 6e 3d 01 3a d0 bd
       0.02235893 0.091142 0.05817512 -0.10167313
000160 26 a3 16 be f4 43 03 bd 10 5e 1f 3d 26 f7 b1 3d
       -0.14710674 -0.032047227 0.038908064 0.08689718
000170 2a ab d8 bd 53 12 c4 bd c2 a4 d4 bd 5d 97 37 be
       -0.10579522 -0.095738076 -0.103829876 -0.17928834
000180 4c b2 aa bd 3a 15 b9 3d bf 21 ee bd 2e 50 be bd
       -0.08334789 0.09037252 -0.1162753 -0.09292637
000190 70 91 b1 3c e4 b0 13 bd 7b 8c 16 be b4 e3 ee 3d
       0.021675795 -0.036057368 -0.14702027 0.11664525
0001a0 60 34 71 bd 5e c3 bd 3d d6 c2 d7 bd f4 8b 4b 3d
       -0.05888784 0.09265779 -0.10535209 0.049694017
0001b0 f4 84 d7 3d d8 c8 96 bc d0 5b ef 3c 84 bd 30 bd
       0.10523406 -0.018406317 0.029218584 -0.043149486
0001c0 48 53 28 be b6 2b d9 bd c0 05 aa 3b 00 02 ea 39
       -0.1643802 -0.1060404 0.0051886737 0.00044633448
0001d0 b7 22 61 3d 3c 35 8a bd 9d 25 a1 3c 9d 03 bd bc
       0.054964747 -0.06748435 0.019671256 -0.023073012
0001e0 62 0b e3 bd 8e 95 85 3d 1f b5 f4 bd 66 be 8f bd
       -0.110861555 0.06522666 -0.119486086 -0.070187375
0001f0 32 bb d9 bd 30 c4 99 3d 2c b7 8e bd c4 95 df 3d
       -0.10631408 0.07508123 -0.06968531 0.109172374
000200 fa 6c cb 3d 10 d8 dc 3c 0c bd d1 bd ce ff c9 3d
       0.09932895 0.026958495 -0.10241136 0.09863244
000210 98 f6 72 bd f4 58 00 bd 96 21 d0 3d 58 4b a4 3d
       -0.0593172 -0.031334832 0.10162656 0.08022183
000220 f8 24 3d bd 86 47 b0 bd 8c 51 90 3d 3a ee e5 3d
       -0.046177834 -0.08607392 0.07046804 0.11227079
000230 e0 ae e2 bc a0 f3 83 3c f4 36 2b 3d b8 21 4b 3d
       -0.027671278 0.01610738 0.041800454 0.049592704
000240 88 47 39 bd f0 12 b0 bd 1e e2 be 3d 78 7f 9b 3c
       -0.045234233 -0.08597362 0.09320472 0.01898168
000250 0c e9 05 bd 34 62 ad 3d 32 ee a1 bd b8 9e b8 3d
       -0.032692954 0.084659964 -0.0790676 0.09014648
000260 20 7d 2e 3d 6e 38 ef bd 74 54 bb 3d de 5b dd bd
       0.042599797 -0.11680685 0.091469675 -0.10808538
000270 e0 5d 81 3c f8 8c fc 3d d4 b6 65 bd 60 43 10 bc
       0.015791833 0.12331575 -0.05608256 -0.008805126
000280 1c f2 70 3d 70 8e bc bd 90 72 37 bd 3e 3c ae bd
       0.058824643 -0.09206855 -0.04478699 -0.08507584
000290 f0 8a 52 3d d0 7b 99 3c 88 59 cb bd 9a 89 a5 bd
       0.051402032 0.018735796 -0.09929186 -0.08082886
0002a0 80 65 95 3d 4c 2a 20 bd 90 67 e2 bd 80 10 6b bd
       0.0729475 -0.039102837 -0.11054909 -0.057388783
0002b0 d8 01 f5 bd 4c 30 3e 3d 38 e9 d9 3d 7c bd da 3d
       -0.11963242 0.04643278 0.10640186 0.106806725
0002c0 f4 c3 7b bd 40 78 fd bc 90 88 c4 3c d6 76 94 3d
       -0.061466172 -0.030941129 0.0239909 0.07249229
0002d0 c0 bc 83 3c 30 0f b3 bc ca 77 f4 bd 00 65 50 bb
       0.016081214 -0.021857828 -0.119369105 -0.0031798482
0002e0 c0 12 97 bc 90 a6 11 bc 90 30 73 3d b0 63 e9 bc
       -0.018441558 -0.008889809 0.059372485 -0.028489918
0002f0 2c 1b aa bd ac f4 88 bd 50 3a 05 bc 68 9f b3 bd
       -0.08305964 -0.066872925 -0.008131579 -0.08770639
000300 34 39 74 3d 04 7d 53 bd 96 24 af 3d 68 54 05 bd
       0.059624866 -0.051632896 0.085519 -0.0325512
000310 fc ad 4d bd 6a 66 b0 bd 6a a4 d7 3d e4 f1 72 bd
       -0.050214753 -0.08613284 0.10529406 -0.059312716
000320 22 e4 df bd ec 94 46 bd 2c e7 94 3d 62 c3 8b 3d
       -0.10932185 -0.048481867 0.07270655 0.06824376
000330 50 55 f9 3c 82 16 e0 3d d0 91 fc bc c4 ef a8 bd
       0.030436188 0.10941793 -0.030831248 -0.08248857
000340 50 38 f0 3c 00 82 1f bd 10 de fa bd 60 2d 60 3d
       0.029323727 -0.038942337 -0.12249386 0.054730773
000350 9e 4c 94 bd e0 66 12 bd 78 45 2c 3d d2 4d fc 3d
       -0.07241176 -0.03574264 0.042058438 0.123195305
000360 48 49 c0 bc 60 e5 cb bd 20 16 d2 bc 3c 8e 00 bd
       -0.023472443 -0.09955859 -0.025645316 -0.031385645
000370 08 b6 95 3c e0 a2 e6 bb 66 1a bf 3d 58 78 a0 bd
       0.018275276 -0.007038459 0.09331207 -0.07835454
000380 6c 3f 65 3d 90 89 43 3c bc 64 94 bd 40 5c 43 bd
       0.055968687 0.011934653 -0.07245776 -0.0476954
000390 d0 ac 8c 3c 34 b2 62 bd 38 e1 24 3d aa e4 93 3d
       0.017172247 -0.05534573 0.040253848 0.072213486
0003a0 20 72 c1 3b d0 1c f2 3c e8 79 c9 3c 5a 73 fc bd
       0.0059034973 0.029554754 0.024594262 -0.12326689
0003b0 b2 7f de 3d 60 ff cf bd c0 0b 67 3c be 53 8b 3d
       0.108642 -0.10156131 0.0141019225 0.06803082
0003c0 8c 28 60 3d bc fd 2f bd fc 15 5c bd 6a b7 e4 bd
       0.05472617 -0.04296659 -0.053731903 -0.11167796
0003d0 c4 d1 88 3d f0 49 5e bc 1a ee f4 bd fe 15 9d bd
       0.066806346 -0.013567433 -0.11959477 -0.0767021
0003e0 d8 eb ad bd 9c 4f 8d 3d 32 ed c5 bd 20 7b 33 3d
       -0.08492249 0.0689995 -0.09664382 0.043818593
0003f0 3a f1 ae bd 1a 7b f1 3d fc 55 b9 bd 98 80 bd 3c
       -0.08542104 0.11791058 -0.09049603 0.023132607

fc3.dendrite_module.parent_module.weight f4 [1, 64]
000000 a0 9b 06 bc 18 a2 fa bd 64 5e 63 bd 98 a7 d5 bc
       -0.008215815 -0.12237948 -0.05550994 -0.026080891
000010 58 94 d1 bd d4 84 12 bd c4 7b b4 3d 78 f1 1d bd
       -0.102333724 -0.035771206 0.08812669 -0.03856036
000020 6c a7 8f 3d e4 0b 5a bd 94 1a d7 bd d8 bf d5 bc
       0.07014355 -0.053233996 -0.10503116 -0.026092455
000030 2c cf 8c bd f4 6f 6c 3d 00 a1 01 bc e0 f0 d4 bd
       -0.068754524 0.057723954 -0.007911921 -0.10397506
000040 68 6c 0f 3d cc 25 ea 3d 30 eb dd 3d c8 30 a0 bd
       0.035015494 0.114329904 0.10835874 -0.07821804
000050 66 e0 9d bd 0e f6 95 bd 08 f9 a7 bd e0 54 e2 3c
       -0.07708816 -0.07322322 -0.08201796 0.027628362
000060 3c 87 51 bd e0 30 e7 bd d0 8f 38 bc 24 31 dc 3d
       -0.05115436 -0.11288619 -0.011264756 0.1075156
000070 38 91 d6 3d a6 25 c8 3d 00 49 b6 bd 90 8d 05 bc
       0.10476917 0.09772806 -0.089006424 -0.008151427
000080 bc cc ff bd 98 3d 12 bd 80 24 37 bc 70 90 ba bc
       -0.12490222 -0.03570327 -0.011178136 -0.022773951
000090 d4 ff b9 bd ea a8 a8 3d bc 76 21 bd 5e 93 88 3d
       -0.090819985 0.08235343 -0.039419875 0.06668733
0000a0 ce c6 99 3d e6 85 ac 3d 44 7a e0 bd fc 22 63 3d
       0.07508622 0.084239766 -0.1096082 0.055453286
0000b0 40 59 e5 bc ac 7e bc bd 60 69 d5 3b 40 dd 6f 3b
       -0.02799666 -0.09203848 0.006512806 0.003660038
0000c0 cc dc db bd 00 87 72 bb 94 8e c4 3d 24 5f 7e bd
       -0.10735473 -0.0037006736 0.09597507 -0.062102452
0000d0 58 c3 97 bc a0 45 54 3c 84 f6 63 3d e0 38 34 3d
       -0.018525764 0.012956053 0.055655017 0.043999553
0000e0 88 b0 2c bd 2e 65 f2 bd 20 be 64 3d 9e f2 b0 3d
       -0.04216054 -0.11835705 0.05584538 0.086400256
0000f0 38 2f 34 3d 0c 3b a9 3d 3a 1b d1 3d 28 26 a6 3d
       0.043990344 0.082632154 0.10210271 0.081127465

fc3.main_module.weight f4 [1, 64]
000000 c3 2a 6f 3d 7d 7e 8a bd 64 5e 63 bd 98 a7 d5 bc
       0.05839039 -0.06762407 -0.05550994 -0.026080891
000010 58 94 d1 bd ca 84 9b 3c bc bd bc 3d 78 f1 1d bd
       -0.102333724 0.018984217 0.092158765 -0.03856036
000020 76 ad 20 3b 05 bc aa 3b 94 1a d7 bd 9a ce ea 3c
       0.0024517453 0.005210402 -0.10503116 0.028662968
000030 2c cf 8c bd f4 6f 6c 3d 8f 01 6c 3d e0 f0 d4 bd
       -0.068754524 0.057723954 0.057618674 -0.10397506
000040 3d 62 8b 3d d8 e9 0c 3e 6e b7 07 3e ab 34 c0 bc
       0.06805847 0.1376108 0.13253567 -0.023462614
000050 66 e0 9d bd 0e f6 95 bd ad 55 df bc e0 54 e2 3c
       -0.07708816 -0.07322322 -0.027262533 0.027628362
000060 3c 87 51 bd 84 8a 2d bd 82 95 86 3d f4 00 ec 3d
       -0.05115436 -0.042368427 0.06571485 0.11523619
000070 05 ed c9 3d a6 25 c8 3d 00 49 b6 bd 90 8d 05 bc
       0.09859661 0.09772806 -0.089006424 -0.008151427
000080 bc cc ff bd 98 3d 12 bd ee fb 59 3d 70 90 ba bc
       -0.12490222 -0.03570327 0.053218774 -0.022773951
000090 d4 ff b9 bd ea a8 a8 3d f4 41 7b 3c 86 9a b1 3d
       -0.090819985 0.08235343 0.015335549 0.08672051
0000a0 e7 9b c1 3d a6 98 e6 3d 88 6f 3d bd 93 a2 c6 3d
       0.09453564 0.11259584 -0.046248943 0.09698977
0000b0 e7 12 4f 3d 1f b6 18 bd fa 43 6d 3c d2 de 31 3c
       0.050555136 -0.03728306 0.014481539 0.010856347
0000c0 cc dc db bd 01 52 37 3d 39 9b e0 3d 24 5f 7e bd
       -0.10735473 0.04475594 0.10967106 -0.062102452
0000d0 02 b7 72 3d a0 45 54 3c f5 e4 60 3d e0 38 34 3d
       0.05925656 0.012956053 0.05490585 0.043999553
0000e0 c7 5a 4e 3c 78 46 7d bd 20 be 64 3d 9e f2 b0 3d
       0.012594885 -0.061834782 0.05584538 0.086400256
0000f0 60 76 62 3d 94 30 d1 3d 3a 1b d1 3d 05 04 a3 3d
       0.055288672 0.10214344 0.10210271 0.07959751

tracker_string u1 [1402]
000000 64 6f 69 6e 67 5f 70 61 69 2c 54 72 75 65 0a 6e
       100 111 105 110 103 95 112 97 105 44 84 114 117 101 10 110
000010 75 6d 5f 64 65 6e 64 72 69 74 65 73 5f 61 64 64
       117 109 95 100 101 110 100 114 105 116 101 115 95 97 100 100
000020 65 64 2c 30 0a 6e 75 6d 5f 63 79 63 6c 65 73 2c
       101 100 44 48 10 110 117 109 95 99 121 99 108 101 115 44
000030 30 0a 6d 6f 64 65 2c 6e 0a 6e 75 6d 5f 65 70 6f
       48 10 109 111 100 101 44 110 10 110 117 109 95 101 112 111
000040 63 68 73 5f 72 75 6e 2c 30 0a 74 6f 74 61 6c 5f
       99 104 115 95 114 117 110 44 48 10 116 111 116 97 108 95
000050 65 70 6f 63 68 73 5f 72 75 6e 2c 30 0a 65 70 6f
       101 112 111 99 104 115 95 114 117 110 44 48 10 101 112 111
000060 63 68 5f 6c 61 73 74 5f 69 6d 70 72 6f 76 65 64
       99 104 95 108 97 115 116 95 105 109 112 114 111 118 101 100
000070 2c 30 0a 72 75 6e 6e 69 6e 67 5f 61 63 63 75 72
       44 48 10 114 117 110 110 105 110 103 95 97 99 99 117 114
000080 61 63 79 2c 31 33 30 36 2e 37 35 36 33 38 34 30
       97 99 121 44 49 51 48 54 46 55 53 54 51 56 52 48
000090 37 33 33 39 32 32 0a 6d 61 78 69 6d 69 7a 69 6e
       55 51 51 57 50 50 10 109 97 120 105 109 105 122 105 110
0000a0 67 5f 73 63 6f 72 65 2c 46 61 6c 73 65 0a 73 77
       103 95 115 99 111 114 101 44 70 97 108 115 101 10 115 119
0000b0 69 74 63 68 5f 6d 6f 64 65 2c 30 0a 6c 61 73 74
       105 116 99 104 95 109 111 100 101 44 48 10 108 97 115 116
0000c0 5f 73 77 69 74 63 68 2c 30 0a 63 75 72 72 65 6e
       95 115 119 105 116 99 104 44 48 10 99 117 114 114 101 110
0000d0 74 5f 62 65 73 74 5f 76 61 6c 69 64 61 74 69 6f
       116 95 98 101 115 116 95 118 97 108 105 100 97 116 105 111
0000e0 6e 5f 73 63 6f 72 65 2c 31 33 30 36 2e 37 35 36
       110 95 115 99 111 114 101 44 49 51 48 54 46 55 53 54
0000f0 33 38 34 30 37 33 33 39 32 32 0a 69 6e 69 74 69
       51 56 52 48 55 51 51 57 50 50 10 105 110 105 116 105
