backend/forecast_run_1767084484/best_model_beforeSwitch_0.pt (safetensors, 40254 bytes, 11 tensors)

fc1.dendrite_module.parent_module.bias f4 [64]
000000 d0 98 d6 be 74 cf 20 bf 7c 48 07 3f 40 be a8 3c
       -0.41913462 -0.6281655 0.5284498 0.02059853
000010 90 d6 87 3e 40 7c c2 bd f0 1d 7a 3f e6 b6 34 3f
       0.26530886 -0.09496355 0.9770193 0.7059158
000020 e6 f7 23 3f a0 ae d0 3e c8 33 ee 3e e8 4a 1c 3e
       0.6405014 0.40758228 0.4652388 0.1526295
000030 b0 33 c2 3d 04 4e 91 3e b8 81 b9 be 2c e8 6f bf
       0.09482515 0.28379834 -0.3623178 -0.9371364
000040 28 a8 0d be 18 87 f6 be 20 61 bb be 4e fb 24 bf
       -0.13833678 -0.48149943 -0.36597538 -0.6444596
000050 f0 b1 15 3e b0 49 9c be e8 81 16 be b0 84 ef 3e
       0.14618659 -0.3052497 -0.14697993 0.4678092
000060 80 6a 28 3d e0 b7 c8 3d 80 45 28 3f 38 6f ef 3e
       0.04111719 0.098006964 0.6573105 0.4676454
000070 10 46 3a 3f 4c 4c 69 3f c0 5a c8 3c 4c c2 6d 3f
       0.72763157 0.91132045 0.024457335 0.928746
000080 d4 52 73 bf 80 6b b2 3e 30 cd 25 be 94 0f 62 bf
       -0.9504826 0.3484764 -0.16191554 -0.8830502
000090 68 2f 7c bf 74 26 40 bf 96 0a 1d bf 40 f5 7b 3f
       -0.98509836 -0.75058675 -0.6134428 0.98421097
0000a0 a4 b7 21 3f 74 ac 61 3f 50 2c d5 bd e0 42 35 3e
       0.6317084 0.8815377 -0.104088426 0.17701292
0000b0 88 cd 69 be 08 54 05 be dc bd 26 bf 20 df 25 bf
       -0.2283231 -0.13020337 -0.6513345 -0.64793587
0000c0 00 33 f7 3d 84 aa 34 3f 00 32 c2 bd 30 c6 c5 be
       0.12070274 0.70572686 -0.09482193 -0.38627768
0000d0 82 26 0b bf ee ae 3b 3f 26 94 58 3f 88 9f 60 3f
       -0.54355633 0.73313797 0.84601057 0.87743425
0000e0 22 2c 49 3f 7a 7f 47 bf 10 91 bb 3d a0 52 98 3d
       0.78582966 -0.7792889 0.09158528 0.074376345
0000f0 18 07 bf be 42 50 7e bf c0 39 3e 3e 50 62 cb be
       -0.373101 -0.99341214 0.18576717 -0.39723444

fc1.dendrite_module.parent_module.weight f4 [64, 1]
000000 06 95 3c 3f 1a 8a 03 3f f8 ca 1c 3e 50 00 95 be
       0.7366489 0.513826 0.15311801 -0.291018
000010 84 90 5a bf 08 c9 c4 be 40 e3 24 3e c0 9e bc bc
       -0.85376763 -0.38434625 0.16102314 -0.023024917
000020 40 3a d0 be 22 c0 53 bf 78 4d f9 3e 00 55 8b bd
       -0.4066944 -0.82715046 0.48691916 -0.06803322
000030 04 12 06 3f b6 46 0b bf 90 7e 69 be 52 3c 22 3f
       0.5237124 -0.5440477 -0.22802186 0.6337329
000040 78 e7 21 3f 12 2b 5e 3f 78 98 b8 3e 58 c9 36 bf
       0.6324382 0.8678447 0.36053824 -0.71400976
000050 a4 6e 75 bf 80 f8 05 be a8 eb 4b be 3c 2e 27 3f
       -0.9587195 -0.13083076 -0.19914114 0.65304923
000060 1e 01 5f bf 38 98 74 3f 80 ae e0 3e ee 29 2a 3f
       -0.8711108 0.9554477 0.43883133 0.6647023
000070 94 1b 09 3f e8 77 4a 3e dc 7e 83 3e ac 6e fc be
       0.53557706 0.19772303 0.25682724 -0.49303186
000080 a0 ea f5 3e 1c ad 1e bf 0e 03 50 3f ea 69 41 3f
       0.48030567 -0.61982894 0.8125466 0.7555224
000090 38 d3 51 be 60 6d 91 3d 36 58 02 3f 4e 00 51 bf
       -0.2049073 0.0710094 0.5091585 -0.8164109
0000a0 92 97 1a 3f 54 2c fb be 06 c2 21 bf 80 8f 8d bd
       0.6038753 -0.49057257 -0.6318668 -0.06912136
0000b0 46 61 34 bf c0 43 60 3e cc 58 90 be 92 c9 6e 3f
       -0.7046093 0.21900845 -0.28192747 0.9327632
0000c0 88 f0 96 be 4a 2b 07 3f 98 f4 00 be 22 54 25 3f
       -0.29480386 0.5280043 -0.12593305 0.645815
0000d0 04 80 d1 3e 98 11 7f bf 40 ad a9 3d fa 53 7f 3f
       0.4091798 -0.9963622 0.08284998 0.99737513
0000e0 5a 1f 37 3f 96 3a 25 3f 10 f7 84 be 18 46 db 3e
       0.71532214 0.6454252 -0.25969744 0.42826915
0000f0 00 83 44 bf 30 f2 9c 3d ca 89 18 bf 56 8d 16 3f
       -0.7676239 0.07663381 -0.5958525 0.5880941

fc1.main_module.bias f4 [64]
000000 88 4c d2 be 05 aa 20 bf ab b3 08 3f 40 be a8 3c
       -0.41074014 -0.6275943 0.5339915 0.02059853
000010 90 d6 87 3e 40 7c c2 bd f6 37 80 3f e6 b6 34 3f
       0.26530886 -0.09496355 1.0017078 0.7059158
000020 e6 f7 23 3f a0 ae d0 3e 73 d1 f7 3e e8 4a 1c 3e
       0.6405014 0.40758228 0.48401985 0.1526295
000030 ff f3 9e 3d 04 4e 91 3e b8 81 b9 be d8 58 71 bf
       0.07761382 0.28379834 -0.3623178 -0.9427619
000040 d2 42 27 be 6c bb 0c bf db b0 e2 be 4e fb 24 bf
       -0.16334084 -0.54973483 -0.44275555 -0.6444596
000050 f0 b1 15 3e b0 49 9c be e8 81 16 be 83 6c ef 3e
       0.14618659 -0.3052497 -0.14697993 0.46762475
000060 80 6a 28 3d 86 94 44 3d 37 d6 0c 3f d9 39 b8 3e
       0.04111719 0.047993205 0.55014366 0.35981634
000070 ec 15 23 3f f4 0f 68 3f 58 f0 14 3d 4c c2 6d 3f
       0.63705325 0.9064934 0.036362022 0.928746
000080 84 64 7f bf 80 6b b2 3e 54 75 81 be 40 a1 60 bf
       -0.9976275 0.3484764 -0.25284827 -0.8774605
000090 68 2f 7c bf ba 91 5b bf b9 dd 3e bf 40 f5 7b 3f
       -0.98509836 -0.85769236 -0.7455707 0.98421097
0000a0 e5 b5 0a 3f 74 ac 61 3f 50 2c d5 bd e0 42 35 3e
       0.541838 0.8815377 -0.104088426 0.17701292
0000b0 88 cd 69 be b8 ac 08 be dc bd 26 bf 86 d9 27 bf
       -0.2283231 -0.13347137 -0.6513345 -0.6556629
0000c0 00 33 f7 3d 74 a1 31 3f 00 32 c2 bd 1f a1 ee be
       0.12070274 0.6938698 -0.09482193 -0.466073
0000d0 89 aa 25 bf ee ae 3b 3f 97 69 57 3f a0 65 46 3f
       -0.6471334 0.73313797 0.8414549 0.7749882
0000e0 fa d3 30 3f 44 ef 65 bf 10 91 bb 3d 4a e9 a9 bc
       0.6907345 -0.89818215 0.09158528 -0.020741124
0000f0 18 07 bf be b1 39 85 bf c0 39 3e 3e 16 c8 ca be
       -0.373101 -1.0408231 0.18576717 -0.39605778

fc1.main_module.weight f4 [64, 1]
000000 8d cd 40 3f 99 4b 06 3f 69 71 2b 3e 50 00 95 be
       0.75313646 0.524591 0.16742481 -0.291018
000010 84 90 5a bf 08 c9 c4 be 4b 02 48 3e c0 9e bc bc
       -0.85376763 -0.38434625 0.19532125 -0.023024917
000020 40 3a d0 be 22 c0 53 bf 6c ed 03 3f 00 55 8b bd
       -0.4066944 -0.82715046 0.5153415 -0.06803322
000030 ea d4 02 3f b6 46 0b bf 90 7e 69 be d0 7b 22 3f
       0.5110613 -0.5440477 -0.22802186 0.6347017
000040 ca 8d 1c 3f 12 08 4d 3f 16 ec 90 3e 58 c9 36 bf
       0.6115385 0.8009044 0.2830512 -0.71400976
000050 a4 6e 75 bf 80 f8 05 be a8 eb 4b be b7 2a 29 3f
       -0.9587195 -0.13083076 -0.19914114 0.660808
000060 1e 01 5f bf 11 1f 68 3f ca 76 ab 3e c5 2a 10 3f
       -0.8711108 0.90672404 0.33489066 0.5631526
000070 cd 53 e4 3e 5a 75 4b 3e 4e 44 8e 3e ac 6e fc be
       0.44595185 0.19868985 0.27786487 -0.49303186
000080 fc 36 df 3e 1c ad 1e bf d9 29 3a 3f 8e ff 44 3f
       0.43596637 -0.61982894 0.72720104 0.76952446
000090 38 d3 51 be 1e df d2 bc 4b 61 c1 3e 4e 00 51 bf
       -0.2049073 -0.025741156 0.3776954 -0.8164109
0000a0 e5 12 05 3f 54 2c fb be 06 c2 21 bf 80 8f 8d bd
       0.51981956 -0.49057257 -0.6318668 -0.06912136
0000b0 46 61 34 bf 38 c5 62 3e cc 58 90 be 88 08 6e 3f
       -0.7046093 0.22145545 -0.28192747 0.9298177
0000c0 88 f0 96 be ad 1d 05 3f 98 f4 00 be 6e 02 12 3f
       -0.29480386 0.51998407 -0.12593305 0.5703496
0000d0 e3 8f 9f 3e 98 11 7f bf 45 d8 b2 3d 2a b4 64 3f
       0.31164464 -0.9963622 0.087326564 0.8933741
0000e0 28 27 20 3f b5 ac 07 3f 10 f7 84 be d5 68 ad 3e
       0.6255975 0.52997905 -0.25969744 0.33869043
0000f0 00 83 44 bf d9 aa e7 3c ca 89 18 bf 5a 9d 18 3f
       -0.7676239 0.028279709 -0.5958525 0.596151

fc2.dendrite_module.parent_module.bias f4 [64]
000000 c6 4d e2 bd 20 84 c7 bd ac 59 e2 bd dc 00 d9 3d
       -0.1104999 -0.09741998 -0.1105226 0.10595867
000010 28 5d de bd 1a 54 80 3d cc 7a 12 3d b0 12 d4 bd
       -0.10857612 0.06266041 0.03576164 -0.10355127
000020 fe d2 ae 3d f4 75 68 bd 6c 5a e2 bd c0 e6 3e 3d
       0.08536337 -0.056753114 -0.11052403 0.04660678
000030 aa 71 c0 bd 68 1e 7c 3d 0c 4c 05 bd a4 df 44 bd
       -0.0939668 0.061552435 -0.032543227 -0.048064843
000040 02 ce e6 bd 10 07 bc bc 34 75 79 3d 90 f5 5b 3c
       -0.112697616 -0.022952586 0.06090279 0.013425246
000050 6e 52 cb bd 8c 73 b9 bd 1c 94 aa bd 00 ae 4e 3d
       -0.099278316 -0.09055242 -0.08329031 0.050458908
000060 62 bf a8 bd 50 c0 05 3d fc 86 04 bd 08 98 87 3c
       -0.082396284 0.032654107 -0.032355294 0.016551986
000070 c8 8d b9 bc 80 5a ec 3d 90 83 31 bd f4 ae 6c bd
       -0.022650614 0.11540699 -0.04333836 -0.057784036
000080 78 fe d4 3c fc 7c ed bd 70 67 34 bd be 61 ce 3d
       0.026000246 -0.115961045 -0.04404396 0.100772366
000090 f8 d4 a5 bd 84 d8 8a 3d d4 3f 27 bd 10 a2 e0 bd
       -0.08097261 0.06779578 -0.040832356 -0.10968411
0000a0 5c 91 02 bd 1c cb f1 3d 0c d7 e9 bd 9c da 93 3d
       -0.031876907 0.11806318 -0.1141797 0.07219431
0000b0 0c 1b ae bd bc f5 9f 3d 6e 94 de 3d b8 8d c5 3c
       -0.085012525 0.07810542 0.108681545 0.024115428
0000c0 4c cd ac 3d d8 d9 e2 bc b4 f7 dc bd 80 5d ab bd
       0.08437595 -0.027691767 -0.10789433 -0.08367443
0000d0 1c 22 26 bd 5e 4d 9d bd 2c eb 32 bd 50 02 89 bd
       -0.040559873 -0.07680772 -0.04368131 -0.06689894
0000e0 90 64 e6 3c 00 fa 08 3d 12 d2 d8 bd 30 5a fe 3c
       0.028124124 0.033441544 -0.10586943 0.031048864
0000f0 f8 97 df bd 42 09 ca 3d f0 8a 8e 3d 60 02 a8 bc
       -0.109176576 0.09865047 0.06960094 -0.020508945

fc2.dendrite_module.parent_module.weight f4 [64, 64]
000000 ac f4 11 3d b8 8e 1f bd 80 3b 4d bc 88 32 26 bd
       0.035633728 -0.038954467 -0.012526393 -0.040575534
000010 70 41 2c bd e2 88 95 bd 8c 32 a8 3d 3c 1b 66 3d
       -0.042054594 -0.07301499 0.08212766 0.056178316
000020 84 57 ef bd 88 c9 be 3d dc e0 e0 bd 42 4a db bd
       -0.11686614 0.09315783 -0.109803885 -0.10707523
000030 5e b2 8f 3d f4 d0 e0 bd c8 d3 1e bd 30 a0 06 bd
       0.07016443 -0.10977355 -0.03877619 -0.03286761
000040 80 d1 1a bd 2a 45 ce bd 6c 63 d8 bd 6c f5 51 3d
       -0.03779745 -0.10071786 -0.10565838 0.051259443
000050 a6 30 b9 3d f8 34 b8 3d 80 e8 c6 3a f4 14 7a 3d
       0.09042482 0.08994478 0.0015175492 0.06105514
000060 d0 81 e2 3d 28 a2 c2 bd 16 2b a2 bd 26 84 de 3d
       0.11059916 -0.09503585 -0.07918374 0.10865049
000070 40 d9 fd bb 98 91 39 bd d4 32 3b bd 52 63 ad bd
       -0.0077468455 -0.045304865 -0.04570277 -0.084662095
000080 c0 c1 a7 3b 48 22 ed 3d 88 ea 63 3d 50 19 2f 3c
       0.0051195323 0.11578804 0.05564359 0.010687187
000090 58 3f 1b 3d 9c d6 03 3d d8 7a a4 3d 38 db f8 bd
       0.037902206 0.03218709 0.08031243 -0.12151188
0000a0 7e 66 82 bd ec 5b dc 3d 94 8d 98 bd 36 73 ed 3d
       -0.06367205 0.1075972 -0.07448879 0.1159424
0000b0 38 70 be 3d 08 8f da 3c 40 ef 26 3d d8 f0 9b bd
       0.09298748 0.02667953 0.04075551 -0.07614297
0000c0 7c 8f 58 3d 30 4a 2d bd 8c f1 2d 3d 00 12 8f 3b
       0.052871212 -0.04230708 0.042466685 0.0043661594
0000d0 0c 65 bb bd 60 e2 97 3c 5c d3 17 bd d8 ac e5 bd
       -0.091501325 0.018540561 -0.037066802 -0.11214608
0000e0 c0 06 f7 bd 68 fd 71 bd d8 1d 4a 3d 42 3b 86 3d
       -0.12061834 -0.059079558 0.049344867 0.06554271
0000f0 b8 8d d8 3c a8 0c 3d bd 24 73 97 bd dc 81 e1 3d
       0.026434764 -0.046154648 -0.07395008 0.11011097
000100 f8 ef ce bc 68 f0 ff 3d 72 58 9d 3d 50 6e 96 bd
       -0.02526091 0.12497026 0.07682885 -0.07345259
000110 6c 9d 29 3d 5c f8 0d 3d a4 5d c7 3d 10 7e 5d 3d
       0.041409895 0.034660682 0.097346574 0.0540753
000120 22 73 92 3d ba 36 c2 3d 34 92 41 bd 40 98 5f 3d
       0.07150866 0.094830945 -0.04725857 0.054588556
000130 48 03 75 bd a6 11 e8 3d ea 38 c2 bd 82 40 88 3d
       -0.059817582 0.11331491 -0.09483512 0.06652929
000140 34 3e 0b bd 12 96 fc bd 90 c7 d9 bd 58 34 cf 3c
       -0.03399487 -0.12333311 -0.10633767 0.025293514
000150 20 ea 6a bd 40 55 06 bc 80 1d 8b ba 30 6c be bc
       -0.057352185 -0.008199036 -0.001061365 -0.023244947
000160 72 66 84 bd f8 21 88 3d 9c 79 22 bd dc d3 17 3d
       -0.064648524 0.06647104 -0.039666757 0.03706728
000170 90 1b d8 3c 08 69 74 bd 90 9b 06 bc 40 54 45 3c
       0.02638033 -0.059670478 -0.0082158 0.012044013
000180 52 15 cd 3d 80 ab e2 3a 26 98 c1 bd 88 53 9f bc
       0.10013832 0.0017293543 -0.09452848 -0.01944901
000190 5a 8e b9 3d 40 75 4c bb f8 e5 66 bd fa c7 a3 3d
       0.090603545 -0.0031197816 -0.05637166 0.07997127
0001a0 00 ef 8e ba f8 34 00 bd e4 09 94 3d 40 4c 53 bd
       -0.0010904968 -0.031300515 0.07228449 -0.05158639
0001b0 e0 06 f6 bb 00 68 f0 39 28 1a 8c bd c2 a6 8e bd
       -0.007508144 0.00045853853 -0.068409264 -0.069654
0001c0 50 bb 9e bd 1e b8 b8 bd 00 46 ed bc a8 52 a9 bd
       -0.07750571 -0.090194926 -0.028964043 -0.082677186
0001d0 88 55 6b bd 38 61 a0 bd b8 77 50 bd 3c 80 7d bd
       -0.057454616 -0.07831043 -0.050895423 -0.061889872
0001e0 cc 26 51 bd ee fd f9 bd 90 ce b1 bc c8 f1 c8 3d
       -0.05106239 -0.12206636 -0.021704942 0.09811741
0001f0 7a 32 f9 bd 1e 77 b0 bd da 1a 8d bd dc c6 51 bd
       -0.12167831 -0.0861647 -0.06889887 -0.051215038
000200 aa b9 ab bd 98 6f 60 3d ac 4b ea 3d 50 3a e2 bc
       -0.08385022 0.054793924 0.114402145 -0.027615696
000210 b2 eb d5 3d b8 e2 13 bd f2 5d 82 3d 20 6c 91 3b
       0.10445346 -0.036104888 0.06365575 0.0044379383
000220 90 50 94 bd a8 42 b3 bd 0c 0e 06 3d d8 d0 ee bc
       -0.072419286 -0.08752948 0.03272824 -0.029152319
000230 e0 4b ad 3c d0 80 11 bc 7a c1 ec bd 10 b2 34 3c
       0.021154344 -0.008880809 -0.1156034 0.0110287815
000240 94 8c 57 bd e6 d4 99 3d b4 26 23 bd 3e 45 c3 3d
       -0.0526243 0.0751131 -0.039831832 0.09534691
000250 3e 3b 92 3d c0 9a 9f bb c4 b7 56 bd a8 af 53 bd
       0.07140206 -0.0048707426 -0.052421346 -0.05168119
000260 7c 9d 5d 3d 3a a7 e0 3d 5c 05 3c bd 24 9a 7f bd
       0.054105267 0.10969396 -0.04590355 -0.06240286
000270 60 08 ed bb 50 a5 9e 3d a4 d0 e8 3d b8 85 62 3d
       -0.0072336644 0.077463746 0.1136792 0.055303305
000280 3c 4b ca 3d 82 e4 ed bd f6 32 d0 bd 10 67 c7 bc
       0.09877631 -0.1161585 -0.1016597 -0.024341136
000290 10 d1 22 3d b2 c0 dd bd ec 3d c3 3d 50 6e 74 bc
       0.03975016 -0.10827769 0.09533295 -0.014918879
0002a0 20 5d 8e bb 38 3b c4 bd 7c 84 75 bd 50 55 ba 3c
       -0.0043445975 -0.095816076 -0.0599408 0.022745758
0002b0 78 71 b2 bd 84 ed e4 3d 26 e8 e6 bd c8 5e 52 3d
       -0.08713049 0.11178115 -0.112747476 0.05135992
0002c0 b0 bc d0 bc c8 b5 2f 3d a8 3b 91 3c fc 03 d5 3d
       -0.025480598 0.04289797 0.017728642 0.104011506
0002d0 e6 26 cd 3d fc 97 81 3d 30 92 06 3c 4c 7d 55 bd
       0.10017185 0.06327817 0.008213565 -0.052121446
0002e0 c4 8c 22 bd 40 f9 0e bc 80 fb 08 3c 90 a0 a4 3c
       -0.039685026 -0.008726418 0.0083607435 0.020096093
0002f0 90 4e 94 3d f0 48 f4 3d 60 01 55 3c d4 69 d8 3d
       0.07241547 0.11927974 0.013000816 0.1056706
000300 40 f1 72 bd 4a 3b da bd 48 1c fd bd a0 1d e4 bb
       -0.059312105 -0.1065584 -0.1235891 -0.0069615394
000310 90 c4 80 3d 8c 96 8d bd d0 d1 c5 bc d8 c7 71 3d
       0.06287491 -0.0691348 -0.024147898 0.059028476
000320 00 20 4d b9 78 4d 08 bd a2 61 81 3d a0 9c 8f bb
       -0.00019562244 -0.033277005 0.0631745 -0.004382685
000330 4e 07 a7 3d dc 62 bd 3d ae 6f c6 bd 90 65 b8 bd
       0.0815569 0.092473716 -0.0968927 -0.090037465
000340 00 98 d5 3b d0 35 9c 3c c0 83 6f bb 74 8a 02 bd
       0.006518364 0.019068629 -0.0036547035 -0.03187032
000350 00 9b 38 3d 20 6e ca 3c f8 52 b1 3d ca fd 95 3d
       0.045069695 0.024710715 0.08658403 0.07323797
000360 1a 50 8d bd d2 13 f7 3d 6c 5a 73 bd 88 b6 9a bd
       -0.06900044 0.12064327 -0.059412405 -0.07554346
000370 a0 40 ac 3c 0c 7a 0b bd 84 5c a7 3d 50 81 29 bd
       0.02102691 -0.03405194 0.08171943 -0.041383088
000380 c0 cc d4 bb 70 47 5b 3c f8 8d fb bd 0e 22 ed 3d
       -0.0064941347 0.013383731 -0.12282938 0.11578761
000390 50 79 09 bc cc 8d 83 3d 8c c7 c9 bd 34 87 54 bd
       -0.00839074 0.0642353 -0.09852514 -0.051886752
0003a0 0e 0c 9b 3d 0a 01 cd 3d 00 07 45 bb ac 86 f5 3d
       0.075706586 0.10009964 -0.0030063987 0.11988577
0003b0 34 7c 6e bd c8 1f e5 3d 34 a5 e7 3d 66 df fc bd
       -0.058223918 0.111877024 0.11310807 -0.12347297
0003c0 5c 7f 0c 3d 14 bb e6 bd 00 a2 24 bb 50 2d ee bd
       0.034301147 -0.11266151 -0.0025120974 -0.116297364
0003d0 aa d3 c2 bd 96 09 b7 bd 52 5a cd 3d 78 25 2f bd
       -0.09513028 -0.08937375 0.10026993 -0.042760342
0003e0 84 d2 2b bd 90 21 55 3c 00 0b 5a 3d ac be e6 3d
       -0.04194881 0.01300849 0.053233147 0.112668365
0003f0 80 11 67 bb 90 16 6e 3c 24 d4 a1 3d 88 ef e3 3d
       -0.0035258234 0.0145317465 0.07901791 0.11129671

fc2.main_module.bias f4 [64]
000000 c6 4d e2 bd 20 84 c7 bd c1 4c 90 bd dc 00 d9 3d
       -0.1104999 -0.09741998 -0.0704589 0.10595867
000010 97 b4 d0 bd 71 b0 b1 3d cc 7a 12 3d b0 12 d4 bd
       -0.10190695 0.08676232 0.03576164 -0.10355127
000020 fe d2 ae 3d da 43 45 bd b3 17 96 bd df ef d3 bc
       0.08536337 -0.04816041 -0.07328739 -0.025871215
000030 a2 4a 18 be 68 1e 7c 3d 0c 4c 05 bd a4 df 44 bd
       -0.1487222 0.061552435 -0.032543227 -0.048064843
000040 02 ce e6 bd 10 07 bc bc 90 b2 b9 3d 90 f5 5b 3c
       -0.112697616 -0.022952586 0.09067261 0.013425246
000050 6e 52 cb bd 7a 64 b1 bd 7b 2c 52 bd d3 c9 8c bb
       -0.099278316 -0.086617425 -0.05131195 -0.0042965203
000060 62 bf a8 bd 38 5f 30 3d fc 86 04 bd 5a 17 31 3d
       -0.082396284 0.043059558 -0.032355294 0.04323516
000070 ee 4b 95 3c 80 5a ec 3d a6 71 42 bc f4 ae 6c bd
       0.018224683 0.11540699 -0.011867916 -0.057784036
000080 d2 fa 0a 3d fc 7c ed bd 70 67 34 bd be 61 ce 3d
       0.033930607 -0.115961045 -0.04404396 0.100772366
000090 e7 ef 1e be 84 d8 8a 3d d4 3f 27 bd b5 46 46 be
       -0.15521203 0.06779578 -0.040832356 -0.1936291
0000a0 5c 91 02 bd 20 24 3e 3d 0c d7 e9 bd 9c da 93 3d
       -0.031876907 0.04642117 -0.1141797 0.07219431
0000b0 0c 1b ae bd bc f5 9f 3d a2 e1 5c 3d 79 64 88 3d
       -0.085012525 0.07810542 0.053926118 0.06659789
0000c0 4c cd ac 3d d8 d9 e2 bc b4 f7 dc bd 8f c0 0d be
       0.08437595 -0.027691767 -0.10789433 -0.13842987
0000d0 b8 c4 f9 bd 7e b8 06 be a9 4c f1 bd 50 02 89 bd
       -0.12195724 -0.13156316 -0.117822 -0.06689894
0000e0 e4 29 da bc 4d da 25 bd 12 d2 d8 bd 30 5a fe 3c
       -0.026631303 -0.04049139 -0.10586943 0.031048864
0000f0 f8 97 df bd b4 57 f8 3d 54 cb 3a bc 54 34 2b 3b
       -0.109176576 0.12126103 -0.011401016 0.002612372

fc2.main_module.weight f4 [64, 64]
000000 ac f4 11 3d b8 8e 1f bd 80 3b 4d bc 88 32 26 bd
       0.035633728 -0.038954467 -0.012526393 -0.040575534
000010 70 41 2c bd e2 88 95 bd 8c 32 a8 3d 3c 1b 66 3d
       -0.042054594 -0.07301499 0.08212766 0.056178316
000020 84 57 ef bd 88 c9 be 3d dc e0 e0 bd 42 4a db bd
       -0.11686614 0.09315783 -0.109803885 -0.10707523
000030 5e b2 8f 3d f4 d0 e0 bd c8 d3 1e bd 30 a0 06 bd
       0.07016443 -0.10977355 -0.03877619 -0.03286761
000040 80 d1 1a bd 2a 45 ce bd 6c 63 d8 bd 6c f5 51 3d
       -0.03779745 -0.10071786 -0.10565838 0.051259443
000050 a6 30 b9 3d f8 34 b8 3d 80 e8 c6 3a f4 14 7a 3d
       0.09042482 0.08994478 0.0015175492 0.06105514
000060 d0 81 e2 3d 28 a2 c2 bd 16 2b a2 bd 26 84 de 3d
       0.11059916 -0.09503585 -0.07918374 0.10865049
000070 40 d9 fd bb 98 91 39 bd d4 32 3b bd 52 63 ad bd
       -0.0077468455 -0.045304865 -0.04570277 -0.084662095
000080 c0 c1 a7 3b 48 22 ed 3d 88 ea 63 3d 50 19 2f 3c
       0.0051195323 0.11578804 0.05564359 0.010687187
000090 58 3f 1b 3d 9c d6 03 3d d8 7a a4 3d 38 db f8 bd
       0.037902206 0.03218709 0.08031243 -0.12151188
0000a0 7e 66 82 bd ec 5b dc 3d 94 8d 98 bd 36 73 ed 3d
       -0.06367205 0.1075972 -0.07448879 0.1159424
0000b0 38 70 be 3d 08 8f da 3c 40 ef 26 3d d8 f0 9b bd
       0.09298748 0.02667953 0.04075551 -0.07614297
0000c0 7c 8f 58 3d 30 4a 2d bd 8c f1 2d 3d 00 12 8f 3b
       0.052871212 -0.04230708 0.042466685 0.0043661594
0000d0 0c 65 bb bd 60 e2 97 3c 5c d3 17 bd d8 ac e5 bd
       -0.091501325 0.018540561 -0.037066802 -0.11214608
0000e0 c0 06 f7 bd 68 fd 71 bd d8 1d 4a 3d 42 3b 86 3d
       -0.12061834 -0.059079558 0.049344867 0.06554271
0000f0 b8 8d d8 3c a8 0c 3d bd 24 73 97 bd dc 81 e1 3d
       0.026434764 -0.046154648 -0.07395008 0.11011097
000100 f8 ef ce bc 68 f0 ff 3d 72 58 9d 3d 50 6e 96 bd
       -0.02526091 0.12497026 0.07682885 -0.07345259
000110 6c 9d 29 3d 5c f8 0d 3d a4 5d c7 3d 10 7e 5d 3d
       0.041409895 0.034660682 0.097346574 0.0540753
000120 22 73 92 3d ba 36 c2 3d 34 92 41 bd 40 98 5f 3d
       0.07150866 0.094830945 -0.04725857 0.054588556
000130 48 03 75 bd a6 11 e8 3d ea 38 c2 bd 82 40 88 3d
       -0.059817582 0.11331491 -0.09483512 0.06652929
000140 34 3e 0b bd 12 96 fc bd 90 c7 d9 bd 58 34 cf 3c
       -0.03399487 -0.12333311 -0.10633767 0.025293514
000150 20 ea 6a bd 40 55 06 bc 80 1d 8b ba 30 6c be bc
       -0.057352185 -0.008199036 -0.001061365 -0.023244947
000160 72 66 84 bd f8 21 88 3d 9c 79 22 bd dc d3 17 3d
       -0.064648524 0.06647104 -0.039666757 0.03706728
000170 90 1b d8 3c 08 69 74 bd 90 9b 06 bc 40 54 45 3c
       0.02638033 -0.059670478 -0.0082158 0.012044013
000180 52 15 cd 3d 80 ab e2 3a 26 98 c1 bd 88 53 9f bc
       0.10013832 0.0017293543 -0.09452848 -0.01944901
000190 5a 8e b9 3d 40 75 4c bb f8 e5 66 bd fa c7 a3 3d
       0.090603545 -0.0031197816 -0.05637166 0.07997127
0001a0 00 ef 8e ba f8 34 00 bd e4 09 94 3d 40 4c 53 bd
       -0.0010904968 -0.031300515 0.07228449 -0.05158639
0001b0 e0 06 f6 bb 00 68 f0 39 28 1a 8c bd c2 a6 8e bd
       -0.007508144 0.00045853853 -0.068409264 -0.069654
0001c0 50 bb 9e bd 1e b8 b8 bd 00 46 ed bc a8 52 a9 bd
       -0.07750571 -0.090194926 -0.028964043 -0.082677186
0001d0 88 55 6b bd 38 61 a0 bd b8 77 50 bd 3c 80 7d bd
       -0.057454616 -0.07831043 -0.050895423 -0.061889872
0001e0 cc 26 51 bd ee fd f9 bd 90 ce b1 bc c8 f1 c8 3d
       -0.05106239 -0.12206636 -0.021704942 0.09811741
0001f0 7a 32 f9 bd 1e 77 b0 bd da 1a 8d bd dc c6 51 bd
       -0.12167831 -0.0861647 -0.06889887 -0.051215038
000200 62 94 1f bd 8f 4d cb 3d 6e bf 1c 3e 50 3a e2 bc
       -0.03895987 0.099269025 0.153074 -0.027615696
000210 b2 eb d5 3d b8 e2 13 bd f4 7e d3 3d 20 6c 91 3b
       0.10445346 -0.036104888 0.10326949 0.0044379383
000220 90 50 94 bd a8 42 b3 bd 5a 49 9d 3d d8 d0 ee bc
       -0.072419286 -0.08752948 0.07680006 -0.029152319
000230 d4 05 86 3d d0 80 11 bc 7a c1 ec bd b1 c4 64 3d
       0.065440804 -0.008880809 -0.1156034 0.055851642
000240 35 b5 01 bc 5a 50 f9 3d 46 d9 cc 3b 3e 45 c3 3d
       -0.007916738 0.12173529 0.006251487 0.09534691
000250 3e 3b 92 3d c0 9a 9f bb c4 b7 56 bd 99 27 e7 bb
       0.07140206 -0.0048707426 -0.052421346 -0.007054281
000260 7c 9d 5d 3d ae 53 1f 3e 46 03 0c 3b 72 0f 6e bc
       0.054105267 0.15559265 0.0021364256 -0.01453005
000270 e1 5c 23 3d 5e 9a f0 3d 0e 62 1f 3e b8 85 62 3d
       0.039883498 0.11748193 0.15564749 0.055303305
000280 3c 86 13 3e 82 e4 ed bd 90 e9 5c bd d1 50 a9 3c
       0.14406675 -0.1161585 -0.05393368 0.02066842
000290 10 d1 22 3d 73 91 24 bd 32 a5 13 3e 50 6e 74 bc
       0.03975016 -0.040177774 0.14418486 -0.014918879
0002a0 76 f1 32 3d 38 3b c4 bd 7c 84 75 bd 50 55 ba 3c
       0.043687306 -0.095816076 -0.0599408 0.022745758
0002b0 78 71 b2 bd 7c 11 1c 3e 26 e8 e6 bd 87 e3 c5 3d
       -0.08713049 0.15241045 -0.112747476 0.09662538
0002c0 b0 bc d0 bc 7a 1d b2 3d a8 3b 91 3c 06 41 1b 3e
       -0.025480598 0.086970285 0.017728642 0.15161523
0002d0 34 b5 18 3e fc 97 81 3d 5e 83 2a 3d 63 67 a3 bb
       0.14912874 0.06327817 0.041629188 -0.00498669
0002e0 41 72 07 3c 92 be 20 3d 80 fb 08 3c 5c 72 8d 3d
       0.008266986 0.039244242 0.0083607435 0.06906578
0002f0 90 4e 94 3d 46 a4 20 3e 60 01 55 3c 73 a0 19 3e
       0.07241547 0.15687665 0.013000816 0.15002613
000300 40 f1 72 bd 4a 3b da bd 48 1c fd bd a0 1d e4 bb
       -0.059312105 -0.1065584 -0.1235891 -0.0069615394
000310 90 c4 80 3d 8c 96 8d bd d0 d1 c5 bc d8 c7 71 3d
       0.06287491 -0.0691348 -0.024147898 0.059028476
000320 00 20 4d b9 78 4d 08 bd a2 61 81 3d a0 9c 8f bb
       -0.00019562244 -0.033277005 0.0631745 -0.004382685
000330 4e 07 a7 3d dc 62 bd 3d ae 6f c6 bd 90 65 b8 bd
       0.0815569 0.092473716 -0.0968927 -0.090037465
000340 00 98 d5 3b d0 35 9c 3c c0 83 6f bb 74 8a 02 bd
       0.006518364 0.019068629 -0.0036547035 -0.03187032
000350 00 9b 38 3d 20 6e ca 3c f8 52 b1 3d ca fd 95 3d
       0.045069695 0.024710715 0.08658403 0.07323797
000360 1a 50 8d bd d2 13 f7 3d 6c 5a 73 bd 88 b6 9a bd
       -0.06900044 0.12064327 -0.059412405 -0.07554346
000370 a0 40 ac 3c 0c 7a 0b bd 84 5c a7 3d 50 81 29 bd
       0.02102691 -0.03405194 0.08171943 -0.041383088
000380 c0 cc d4 bb 70 47 5b 3c f8 8d fb bd 0e 22 ed 3d
       -0.0064941347 0.013383731 -0.12282938 0.11578761
000390 50 79 09 bc cc 8d 83 3d 8c c7 c9 bd 34 87 54 bd
       -0.00839074 0.0642353 -0.09852514 -0.051886752
0003a0 0e 0c 9b 3d 0a 01 cd 3d 00 07 45 bb ac 86 f5 3d
       0.075706586 0.10009964 -0.0030063987 0.11988577
0003b0 34 7c 6e bd c8 1f e5 3d 34 a5 e7 3d 66 df fc bd
       -0.058223918 0.111877024 0.11310807 -0.12347297
0003c0 5c 7f 0c 3d 14 bb e6 bd 00 a2 24 bb 50 2d ee bd
       0.034301147 -0.11266151 -0.0025120974 -0.116297364
0003d0 aa d3 c2 bd 96 09 b7 bd 52 5a cd 3d 78 25 2f bd
       -0.09513028 -0.08937375 0.10026993 -0.042760342
0003e0 84 d2 2b bd 90 21 55 3c 00 0b 5a 3d ac be e6 3d
       -0.04194881 0.01300849 0.053233147 0.112668365
0003f0 80 11 67 bb 90 16 6e 3c 24 d4 a1 3d 88 ef e3 3d
       -0.0035258234 0.0145317465 0.07901791 0.11129671

fc3.dendrite_module.parent_module.weight f4 [1, 64]
000000 28 2c 52 3d 7e ac a2 3d 8a 22 bf 3d 58 00 ba 3d
       0.051311642 0.079430565 0.0933276 0.09082097
000010 50 62 84 3c 34 57 17 3d e4 6f 56 3d 24 b8 00 bd
       0.01616016 0.036948398 0.0523528 -0.03142561
000020 1c a3 9c 3d f0 4f 8d 3c f6 b9 a4 3d d4 77 23 bd
       0.07648298 0.017250031 0.08043282 -0.0399092
000030 68 dd 5d bd cc c3 2c 3d da c3 b8 3d f8 91 74 3d
       -0.054166228 0.042178914 0.09021731 0.05970952
000040 90 f6 da bc 52 70 cc bd 68 fd 4c 3d 9a fc e1 3d
       -0.026728898 -0.09982361 0.050046355 0.11034508
000050 e8 e5 c0 bd 00 78 6d 3c 30 f8 68 3d 54 dc 16 bd
       -0.09418851 0.014493942 0.056877315 -0.036831215
000060 78 86 c5 bd e8 a5 90 3c 1c ab 74 bd 90 8e 2b 3d
       -0.096447885 0.017657235 -0.059733495 0.041884005
000070 a8 c4 dc 3d 18 62 b7 bc 9c f4 60 3d 10 a6 bc bc
       0.10779697 -0.022385642 0.054920778 -0.023028404
000080 80 6c 94 3c 66 d4 d1 bd 6c a8 e6 bd 2c 0d 64 bd
       0.018118143 -0.1024559 -0.11262593 -0.055676624
000090 ca f2 e2 bd d8 3f 13 3d 76 37 d2 3d a6 c8 95 bd
       -0.110814646 0.035949558 0.102644846 -0.07313661
0000a0 20 9f d8 3b d8 76 03 bd 20 eb b9 3d 4c 02 cb 3d
       0.006610766 -0.03209576 0.0907805 0.099125475
0000b0 40 fc 6b bb 10 f6 77 bc c6 e8 fa bd bc 86 ff 3d
       -0.0036008507 -0.015134349 -0.12251429 0.124768704
0000c0 ae ae a8 3d 10 ce 04 3c 04 8f d8 3d 74 cc e1 bd
       0.082364425 0.00810577 0.10574153 -0.110253245
0000d0 44 b3 89 bd 10 a8 d7 bd de 05 cb bd b8 6d 57 3d
       -0.06723645 -0.10530102 -0.099132285 0.05259487
0000e0 00 14 d1 bd fa 42 a7 bd ec 1d a7 3d ac 57 c8 bd
       -0.10208893 -0.08167072 0.08160004 -0.09782347
0000f0 e8 bb 7d bd 10 92 e1 3c 38 73 79 bd c0 08 f4 3c
       -0.06194678 0.027535468 -0.060900897 0.029789329

fc3.main_module.weight f4 [1, 64]
000000 28 2c 52 3d 7e ac a2 3d 8e d3 e7 3d 58 00 ba 3d
       0.051311642 0.079430565 0.11319648 0.09082097
000010 27 12 80 3c 4b 70 bc 3c e4 6f 56 3d 24 b8 00 bd
       0.015633656 0.023002764 0.0523528 -0.03142561
000020 1c a3 9c 3d 59 ca a0 3c 7a b3 9a 3d f9 0f 92 3c
       0.07648298 0.019627737 0.07553764 0.017829882
000030 8c 74 1a 3a cc c3 2c 3d da c3 b8 3d f8 91 74 3d
       0.00058920006 0.042178914 0.09021731 0.05970952
000040 90 f6 da bc 52 70 cc bd a6 bd 52 3d 9a fc e1 3d
       -0.026728898 -0.09982361 0.051450394 0.11034508
000050 e8 e5 c0 bd 08 10 32 3c 59 4f 4e 3d ce d5 92 3c
       -0.09418851 0.01086808 0.05036864 0.017924216
000060 78 86 c5 bd ba 54 d8 3c 1c ab 74 bd 65 49 ef 3c
       -0.096447885 0.026407588 -0.059733495 0.029209802
000070 9f f2 d0 3d 18 62 b7 bc 55 05 71 3d 10 a6 bc bc
       0.10202526 -0.022385642 0.058842976 -0.023028404
000080 8b 99 07 3c 66 d4 d1 bd 6c a8 e6 bd 2c 0d 64 bd
       0.008276354 -0.1024559 -0.11262593 -0.055676624
000090 4a ec 30 bd d8 3f 13 3d 76 37 d2 3d 88 07 73 3b
       -0.043194093 0.035949558 0.102644846 0.0037083346
0000a0 20 9f d8 3b a7 70 03 3d 20 eb b9 3d 4c 02 cb 3d
       0.006610766 0.032089856 0.0907805 0.099125475
0000b0 40 fc 6b bb 10 f6 77 bc 2b c5 8a bd e5 67 0b 3e
       -0.0036008507 -0.015134349 -0.06775888 0.13613851
0000c0 ae ae a8 3d 10 ce 04 3c 04 8f d8 3d b0 51 63 bd
       0.082364425 0.00810577 0.10574153 -0.055497825
0000d0 24 f4 10 3b e8 08 4f bd cb fc 06 bd b8 6d 57 3d
       0.0022118175 -0.050545603 -0.032955926 0.05259487
0000e0 c8 e0 41 bd 5d eb ca bc ec 1d a7 3d ac 57 c8 bd
       -0.04733351 -0.024770433 0.08160004 -0.09782347
0000f0 e8 bb 7d bd 4d 70 5b 3d c2 bf 06 3c 11 a9 53 3d
       -0.06194678 0.053573895 0.00822443 0.051674906

tracker_string u1 [1402]
000000 64 6f 69 6e 67 5f 70 61 69 2c 54 72 75 65 0a 6e
       100 111 105 110 103 95 112 97 105 44 84 114 117 101 10 110
000010 75 6d 5f 64 65 6e 64 72 69 74 65 73 5f 61 64 64
       117 109 95 100 101 110 100 114 105 116 101 115 95 97 100 100
000020 65 64 2c 30 0a 6e 75 6d 5f 63 79 63 6c 65 73 2c
       101 100 44 48 10 110 117 109 95 99 121 99 108 101 115 44
000030 30 0a 6d 6f 64 65 2c 6e 0a 6e 75 6d 5f 65 70 6f
       48 10 109 111 100 101 44 110 10 110 117 109 95 101 112 111
000040 63 68 73 5f 72 75 6e 2c 30 0a 74 6f 74 61 6c 5f
       99 104 115 95 114 117 110 44 48 10 116 111 116 97 108 95
000050 65 70 6f 63 68 73 5f 72 75 6e 2c 30 0a 65 70 6f
       101 112 111 99 104 115 95 114 117 110 44 48 10 101 112 111
000060 63 68 5f 6c 61 73 74 5f 69 6d 70 72 6f 76 65 64
       99 104 95 108 97 115 116 95 105 109 112 114 111 118 101 100
000070 2c 30 0a 72 75 6e 6e 69 6e 67 5f 61 63 63 75 72
       44 48 10 114 117 110 110 105 110 103 95 97 99 99 117 114
000080 61 63 79 2c 31 36 32 32 2e 33 36 32 30 34 35 36
       97 99 121 44 49 54 50 50 46 51 54 50 48 52 53 54
000090 30 39 34 33 32 37 0a 6d 61 78 69 6d 69 7a 69 6e
       48 57 52 51 50 55 10 109 97 120 105 109 105 122 105 110
0000a0 67 5f 73 63 6f 72 65 2c 46 61 6c 73 65 0a 73 77
       103 95 115 99 111 114 101 44 70 97 108 115 101 10 115 119
0000b0 69 74 63 68 5f 6d 6f 64 65 2c 30 0a 6c 61 73 74
       105 116 99 104 95 109 111 100 101 44 48 10 108 97 115 116
0000c0 5f 73 77 69 74 63 68 2c 30 0a 63 75 72 72 65 6e
       95 115 119 105 116 99 104 44 48 10 99 117 114 114 101 110
0000d0 74 5f 62 65 73 74 5f 76 61 6c 69 64 61 74 69 6f
       116 95 98 101 115 116 95 118 97 108 105 100 97 116 105 111
0000e0 6e 5f 73 63 6f 72 65 2c 31 36 32 32 2e 33 36 32
       110 95 115 99 111 114 101 44 49 54 50 50 46 51 54 50
0000f0 30 34 35 36 30 39 34 33 32 37 0a 69 6e 69 74 69
       48 52 53 54 48 57 52 51 50 55 10 105 110 105 116 105
