backend/forecast_run_1767084196/latest.pt (safetensors, 40248 bytes, 11 tensors)

fc1.dendrite_module.parent_module.bias f4 [64]
00000000: 6e5b 3abf 4485 4a3f 0cd8 13bf 0050 c8b9
00000010: 8004 233c 9a38 603f 684f de3e 8436 f63e
00000020: ae7c 33bf 1e04 5abf ac67 1d3f f81c 6a3f
00000030: 8019 893e 70d0 07bf 8e98 0c3f 7896 02bf
00000040: 8059 bf3d de97 1ebf 50e8 94be a041 fc3d
00000050: c42c 883e 2c7b 233f 028d 773f 5469 e1be
00000060: eee3 5c3f c497 b83e e4a3 72bf b09e 6abe
00000070: 3066 3fbe 1850 0a3f 0067 46bf 3cfe febe
00000080: 601c 31bf 8a3f 59bf 240e 89be 2092 fc3e
00000090: bc7f b1be 3a15 57bf 406e 833e 78b2 16be
000000a0: cc9a 7bbf c8bb 2fbf 32d6 3b3f 42bd 41bf
000000b0: 20e1 163e b0ca dcbe 28e8 92be a6bc 3dbf
000000c0: 102c 74be a2b2 41bf f295 613f b0b2 07bf
000000d0: 08b4 3abf 5cd2 4cbf 9cb1 0b3f b8b9 7b3f
000000e0: 42f9 303f 3611 60bf 0810 613e 18a9 6a3f
000000f0: 02df 473f c0ad 13bf a8f5 4e3e 50fc 25be
-0.7279576 0.791096 -0.57751536 -0.00038206577 0.009949803 0.8758637 0.43419957 0.48088467
-0.7011212 -0.8516253 0.61486316 0.9145045 0.26777267 -0.53052425 0.5492028 -0.5101085
0.09343243 -0.6195048 -0.2908349 0.123172045 0.26596653 0.6385982 0.96699536 -0.4402567
0.86285293 0.36053288 -0.9478133 -0.22912097 -0.18691325 0.54028463 -0.77500916 -0.4980334
-0.6918392 -0.8486258 -0.267686 0.49330235 -0.34667766 -0.84016764 0.25670052 -0.14716518
-0.98283076 -0.68645906 0.7337371 -0.7567941 0.14734316 -0.43123388 -0.28692746 -0.7411598
-0.23844934 -0.756632 0.88119423 -0.5300703 -0.72930956 -0.8000848 0.54567885 0.9833026
0.6913034 -0.8752626 0.21978772 0.91664267 0.7807466 -0.57686996 0.20210898 -0.16209531

fc1.dendrite_module.parent_module.weight f4 [64, 1]
00000000: b644 173f f08b f33d 0e23 323f 20fb b43d
00000010: 0c1a 42bf 3815 38bf 6e7c 19bf ec67 313f
00000020: cca0 0fbf 0a09 38bf ac90 c53e 50ad 0c3f
00000030: 00c0 a4bd 7c0a 1ebf 8c89 10bf 2066 4fbf
00000040: e091 283f 6c31 47bf cc4c 6a3f 4453 56bf
00000050: e289 463f a876 683f 1a2a 0abf 50c4 383f
00000060: 947c 4a3f 7079 aebd f622 2dbf 2473 a33e
00000070: 60d8 b53d 5092 723e 5038 e73d 50ee 56bf
00000080: 603f aebd a0c7 663e 90c0 38be 5492 8abe
00000090: 9876 0fbf 78a5 c8be 6091 8a3d 70ed a53e
000000a0: 60a5 7cbf b657 30bf 70fa 57be 8290 153f
000000b0: 1c14 6bbf 9acd 42bf 50f4 0ebe 1c5f 54bf
000000c0: 48b1 b1be 68af e5be 34fa 8cbe 8204 023f
000000d0: 20ef 6dbf 9402 9d3e ee1d 503f 0a2a 6e3f
000000e0: f871 20be 0691 48bf 829c 1fbf ac51 77bf
000000f0: c49b c5be 8250 563f b8af 1abf 1c34 eebe
0.5908922 0.11891925 0.6958474 0.08836961 -0.75820994 -0.7190738 -0.5995549 0.692992
-0.5610473 -0.7188879 0.38586938 0.54951954 -0.080444336 -0.6173475 -0.5645988 -0.81015205
0.6584759 -0.77809787 0.9152343 -0.83720803 0.7755414 0.90806055 -0.5397049 0.7217455
0.7909634 -0.08519256 -0.6763147 0.31923783 0.08879161 0.23688626 0.11290038 -0.83957386
-0.085081816 0.22537088 -0.18042207 -0.27064764 -0.56040335 -0.39188743 0.06766009 0.32407713
-0.9868984 -0.68883836 -0.21091628 0.58423626 -0.9182756 -0.76094973 -0.13960385 -0.82957625
-0.34705567 -0.44860387 -0.2753464 0.5078813 -0.92943 0.3066603 0.8129567 0.93032897
-0.15668476 -0.7834629 -0.62348187 -0.96608996 -0.38595402 0.83716595 -0.60424376 -0.4652413

fc1.main_module.bias f4 [64]
00000000: bc70 3abf 8dc9 493f 5240 1abf 4a2d 15bd
00000010: 8004 233c 9a38 603f 684f de3e d992 f03e
00000020: ae7c 33bf 1e04 5abf 16d2 1b3f 9f0b 663f
00000030: 8019 893e 70d0 07bf 8e98 0c3f 7896 02bf
00000040: 895e ef3d de97 1ebf 62c0 adbe a041 fc3d
00000050: e0cd 823e 78df 253f 028d 773f 4558 dbbe
00000060: 6ebb 4b3f c497 b83e e4a3 72bf 7158 5ebe
00000070: 684d 7dbe b466 0f3f 514c 5cbf 3cfe febe
00000080: 601c 31bf e238 64bf 240e 89be 2092 fc3e
00000090: bc7f b1be 3a15 57bf e3d0 223e 976e 0ebe
000000a0: cc9a 7bbf c8bb 2fbf 32d6 3b3f b248 56bf
000000b0: 20e1 163e b0ca dcbe 28e8 92be a6bc 3dbf
000000c0: 102c 74be a2b2 41bf f295 613f dc64 05bf
000000d0: 08b4 3abf 0e96 4fbf ecf9 0e3f 26c3 7d3f
000000e0: 42f9 303f 3611 60bf 0810 613e 18a9 6a3f
000000f0: 02df 473f 3c57 14bf a8f5 4e3e 50fc 25be
-0.7282827 0.7882317 -0.60254395 -0.036420144 0.009949803 0.8758637 0.43419957 0.46987036
-0.7011212 -0.8516253 0.6086744 0.8986148 0.26777267 -0.53052425 0.5492028 -0.5101085
0.11687953 -0.6195048 -0.3393584 0.123172045 0.25547695 0.6479411 0.96699536 -0.42840782
0.7958287 0.36053288 -0.9478133 -0.21713425 -0.2473656 0.5601609 -0.8605395 -0.4980334
-0.6918392 -0.89149296 -0.267686 0.49330235 -0.34667766 -0.84016764 0.15899996 -0.13909374
-0.98283076 -0.68645906 0.7337371 -0.83704674 0.14734316 -0.43123388 -0.28692746 -0.7411598
-0.23844934 -0.756632 0.88119423 -0.52107024 -0.72930956 -0.8108834 0.558501 0.991259
0.6913034 -0.8752626 0.21978772 0.91664267 0.7807466 -0.5794561 0.20210898 -0.16209531

fc1.main_module.weight f4 [64, 1]
00000000: 9edf 163f d6ac ed3d e13c 2c3f 502f 143d
00000010: 0c1a 42bf 3815 38bf 6e7c 19bf bdd0 2b3f
00000020: cca0 0fbf 0a09 38bf 5a03 ba3e 25c0 063f
00000030: 00c0 a4bd 7c0a 1ebf 8c89 10bf 2066 4fbf
00000040: 5ff0 2b3f 6c31 47bf 32d3 593f 4453 56bf
00000050: ba5f 423f 4664 683f 1a2a 0abf 77e9 393f
00000060: 0162 353f 7079 aebd f622 2dbf 9f8c a63e
00000070: 753e 593c 488a 7f3e 2eb8 813c 50ee 56bf
00000080: 603f aebd 4c16 2f3e 90c0 38be 5492 8abe
00000090: 9876 0fbf 78a5 c8be 2450 e4bc 17ff a73e
000000a0: 60a5 7cbf b657 30bf 70fa 57be 69ab fc3e
000000b0: 1c14 6bbf 9acd 42bf 50f4 0ebe 1c5f 54bf
000000c0: 48b1 b1be 68af e5be 34fa 8cbe c118 043f
000000d0: 20ef 6dbf 224c 973e 30f1 513f d825 6d3f
000000e0: f871 20be 0691 48bf 829c 1fbf ac51 77bf
000000f0: c49b c5be ce2a 543f b8af 1abf 1c34 eebe
0.5893496 0.116052315 0.67280394 0.036177933 -0.75820994 -0.7190738 -0.5995549 0.67115384
-0.5610473 -0.7188879 0.36330682 0.5263694 -0.080444336 -0.6173475 -0.5645988 -0.81015205
0.6716365 -0.77809787 0.85087883 -0.83720803 0.7592732 0.90778005 -0.5397049 0.72621864
0.7085267 -0.08519256 -0.6763147 0.3252916 0.01325952 0.24955094 0.015834894 -0.83957386
-0.085081816 0.1709835 -0.18042207 -0.27064764 -0.56040335 -0.39188743 -0.027870245 0.32811806
-0.9868984 -0.68883836 -0.21091628 0.49349526 -0.9182756 -0.76094973 -0.13960385 -0.82957625
-0.34705567 -0.44860387 -0.2753464 0.5160027 -0.92943 0.29550272 0.8200865 0.9263587
-0.15668476 -0.7834629 -0.62348187 -0.96608996 -0.38595402 0.82877815 -0.60424376 -0.4652413

fc2.dendrite_module.parent_module.bias f4 [64]
00000000: 2875 2cbd 109f 7a3c 485d af3c 00eb dbbd
00000010: 9000 c33c f8d4 88bd 861c 8c3d 40de d8bc
00000020: 283d e7bd 5058 a93d 7014 693d 14ef 13bd
00000030: 940e 5c3d 8810 153d 98be b9bc 924f fa3d
00000040: c44f b8bd 706b 0d3c 400b 59bb 02f2 b7bd
00000050: 9228 843d c662 ccbd 4e96 a83d 40a3 9cbb
00000060: cac8 943d e0eb 863d d074 3f3c 0010 ab3d
00000070: 7cdc d1bd b84e 88bc d817 2f3d 406c f43c
00000080: dca3 033d c01f dd3c 70ff 323c 6a12 c1bd
00000090: f453 f6bd 1cdc e93d ee15 8a3d 20d4 f5bc
000000a0: 58da d63c b84b c1bc fcbb 2bbd b49a 56bd
000000b0: 408b 533d aaea e0bd 40d1 81bd e45b 36bd
000000c0: 8cfc babd 1258 e03d 20c9 a1bb 6afc a5bd
000000d0: 601e a9bd b6ce 9c3d fc57 c5bd 9c37 d1bd
000000e0: d064 bebc 5a3a 81bd b0b9 ff3d c093 e2bc
000000f0: 44e0 c23d 9044 87bd baf6 adbd 601e 84bc
-0.042103916 0.0152967125 0.021406785 -0.10738182 0.02380398 -0.066812456 0.06841378 -0.026473165
-0.112909615 0.082687974 0.056904256 -0.036116675 0.05372484 0.03639272 -0.02267389 0.12222208
-0.08999589 0.008631572 -0.0033118278 -0.08981706 0.06453051 -0.09979777 0.08231793 -0.004780203
0.0726486 0.06587958 0.011685565 0.08352661 -0.10247132 -0.016639099 0.04274735 0.029836774
0.03213869 0.026992679 0.010925159 -0.0942734 -0.120277315 0.11418936 0.06742464 -0.030008376
0.026227161 -0.023595676 -0.041927323 -0.05239363 0.05164647 -0.109822586 -0.063387394 -0.044521227
-0.09130201 0.10954298 -0.004937306 -0.08104785 -0.08257747 0.076566145 -0.09635922 -0.10215685
-0.02324143 -0.06309958 0.12486589 -0.027658343 0.095154315 -0.06604874 -0.08494325 -0.016127765

fc2.dendrite_module.parent_module.weight f4 [64, 64]
00000000: 68d6 8e3d 3287 adbd d440 87bd a02e febb
00000010: f011 64bd 0250 9f3d 3071 0d3d 6a2f d53d
00000020: 688c ee3c 6037 fa3d 88c3 45bd 8860 f9bc
00000030: d428 513d c0a5 d03b 9048 86bd c869 22bd
00000040: b498 f1bd a842 51bd 1884 8cbd f487 1dbd
00000050: bc84 f2bd 8648 ee3d c4f4 043d e0be 6d3c
00000060: 3c70 f93d b2fd d93d 0045 63bc 7e9b f3bd
00000070: 2a75 b73d b870 d8bd 38f4 893d e8c2 d1bd
00000080: 1462 983d f836 d53c 389a 10bd e048 61bd
00000090: 1037 443d 3497 f4bd 0425 7a3d 307c 9ebd
000000a0: 5890 a3bc cccb a23d a015 e83b 048d 3fbd
000000b0: aa2e aabd f0f1 f63d 0416 d7bd 7282 d2bd
000000c0: 14b7 39bd 3abb cc3d 5c2e afbd 141b 993d
000000d0: 3ac1 babd f2be 913d 94b5 ea3d b20c c23d
000000e0: 0044 c7bd 40a4 ddbb c078 d43c 00d6 79ba
000000f0: 9c7f 133d 10c5 a93d 8251 8bbd 2077 883d
00000100: 1a17 80bd cc95 1f3d 2cf5 80bd 10a4 6c3d
00000110: d246 af3d 8019 babb 1844 a5bd b6df f8bd
00000120: e4b9 513d 8443 ab3d c04d 153c 7cb2 cdbd
00000130: 4659 dd3d 6080 81bb f0e5 b2bd c0c8 dcbd
00000140: 9c94 e1bd 149a 1c3d 4c95 acbd b2f8 ad3d
00000150: c883 e13c a8c8 323d 6001 ef3b 7c86 0bbd
00000160: 1434 a73d ba12 ea3d b615 fa3d 6a73 e13d
00000170: 98e9 853d f029 99bd f4c9 97bd 501b a4bc
00000180: d0ae afbd 32ba 82bd 2cee 00bd cce4 39bd
00000190: 68ea 6bbd 700a e8bc 08cd 55bd 1eb9 ff3d
000001a0: 503c f6bc 9239 f13d 4822 a3bd 90a4 2c3d
000001b0: d486 c5bd 1052 5dbd 5806 cfbd 961c a03d
000001c0: 9cf3 ba3d 6ca6 6c3d 18c1 5bbd faec ba3d
000001d0: bc09 95bd 70e1 843d ecdf 083d a447 d63d
000001e0: 4cd2 e43d 508e 5cbd 7cc5 0dbd 2cd0 b0bd
000001f0: a0cd 9a3b d6a2 f23d e473 6b3d de7b cc3d
00000200: b4ba 4a3d f872 2ebd 6a39 a63d ccc5 21bd
00000210: 38d2 783d 681a 8d3c 002f 7bbb d42d 57bd
00000220: b057 453c 0034 e5ba 68d4 31bd baed 94bd
00000230: 006a 0e3a 0c82 363d 105c 8e3d e0af c2bd
00000240: 4016 9c3d 3075 4bbc e294 a4bd ea6d a1bd
00000250: e8ee d93d 7ef8 b23d fa88 81bd 1803 f9bd
00000260: aea3 ec3d 6c58 f33d 64d1 79bd 80b9 8fbb
00000270: 58f7 afbd feb3 83bd 88f9 9bbd 5807 2d3d
00000280: b801 2abd b0ef d93d b8f8 813d 2029 09bd
00000290: 2030 733d e460 72bd ca8a ecbd 68ec a4bc
000002a0: 1a37 f03d 3888 bf3d ae90 f83d 30aa 4f3c
000002b0: 40a5 7cbd d85e fabc 00fe d1bc 8659 dcbd
000002c0: 8e0f d73d f02f 623d a0f8 37bc 502c 2fbc
000002d0: 727f a23d acce 8d3d 105a 43bc b49b a43d
000002e0: f840 b6bd 44fb 86bd 6052 adbd bab4 c2bd
000002f0: 40c1 41bd 0063 cf3b 0c4c 11bd 340c a63d
00000300: 480c 84bc 4033 4a3b d03d eb3c 78a1 33bd
00000310: 32a5 93bd b02e 51bc 40fc b93c 5015 d1bc
00000320: e407 87bd 30c0 003c 445d e6bd 2883 b03d
00000330: 00e0 0638 3cce 2d3d 70da 30bc fccb f73d
00000340: 1c19 483d 3083 0f3c c834 a6bc 642f 87bd
00000350: e8e1 b2bc eea9 e83d b40a 8ebd c654 d9bd
00000360: c6da fdbd 2880 9fbd 0809 0a3d 3869 e3bc
00000370: 20e8 713d 94da cf3d 8660 833d 8ca2 8dbd
00000380: 5427 3f3d 98aa 15bd 086d 8cbd c45e 453d
00000390: 72f7 e93d 1a00 ce3d 28cc cf3d 4a80 dbbd
000003a0: 9ebc c53d d843 cc3c 5edb 9a3d 460d f9bd
000003b0: 500a fa3d e07d a23d 20c6 643c 44db 123d
000003c0: 3eee e13d 1c7d df3d 50e8 42bd d60e 983d
000003d0: e07b 763d 3c3f b03d 3a69 81bd 88e1 6cbd
000003e0: a0d6 073c 28a0 b3bc 3069 27bc 3094 2e3d
000003f0: b4cc 043d d076 b8bc ca3b b8bd 8077 40bb
0.069744885 -0.08473052 -0.06604162 -0.007757023 -0.05568117 0.07778932 0.034531772 0.10409434
0.029119685 0.12217593 -0.048282176 -0.030441537 0.051064327 0.006367415 -0.06556809 -0.039651662
-0.11796704 -0.05108896 -0.068611324 -0.038459733 -0.11841723 0.116349265 0.03245999 0.01451084
0.1217961 0.10644092 -0.013871431 -0.11894892 0.08957894 -0.105683744 0.06736034 -0.102422535
0.07440582 0.026027188 -0.035303324 -0.05500114 0.047904074 -0.11942902 0.061070457 -0.07738531
-0.01996629 0.079490274 0.007082656 -0.046765342 -0.08309682 0.12057865 -0.10502246 -0.10278787
-0.045340613 0.09996648 -0.08553764 0.07475868 -0.09118886 0.07116498 0.114604145 0.09475078
-0.09729767 -0.006763965 0.025936484 -0.00095304847 0.03601037 0.0828954 -0.06802656 0.06663346
-0.06254406 0.038961217 -0.06296763 0.05777365 0.0855843 -0.0056793094 -0.080696285 -0.121520445
0.05120267 0.08362487 0.009112775 -0.10043809 0.10808043 -0.003952071 -0.08735263 -0.107804775
-0.11014673 0.038232878 -0.084269136 0.084947005 0.027528659 0.043648392 0.007293865 -0.0340638
0.0816423 0.11429353 0.12211172 0.110083416 0.06538695 -0.07478702 -0.074115664 -0.020032555
-0.08578265 -0.0638317 -0.03147714 -0.045384213 -0.057596594 -0.02832529 -0.052197486 0.1248648
-0.030058056 0.11778559 -0.07965523 0.042149127 -0.09644857 -0.05403334 -0.10108632 0.07817952
0.09128496 0.0577759 -0.053650945 0.09127231 -0.07277247 0.06488311 0.033416674 0.10462883
0.111729234 -0.053846657 -0.034612164 -0.08633456 0.0047242194 0.11847465 0.05748357 0.09984563
0.04949446 -0.04259011 0.081164196 -0.039495274 0.060747355 0.017224506 -0.0038327575 -0.05253394
0.012044832 -0.0017486811 -0.043415457 -0.07271905 0.00054326653 0.044557616 0.06951153 -0.09506202
0.07621431 -0.012418076 -0.0803621 -0.078822926 0.10641271 0.087388024 -0.06324954 -0.12158793
0.11554657 0.118820995 -0.060990706 -0.004386127 -0.08592099 -0.06430815 -0.07615954 0.04224333
-0.041505545 0.1064142 0.063462675 -0.033486485 0.059372067 -0.059174433 -0.115499094 -0.020132259
0.1172926 0.093521535 0.121369705 0.012674853 -0.061681032 -0.030562803 -0.025633812 -0.10759263
0.10501014 0.055221498 -0.01122871 -0.010691717 0.079344645 0.06924185 -0.011923328 0.080375105
-0.088991106 -0.06590894 -0.084629774 -0.09507127 -0.04730344 0.0063289404 -0.035472915 0.08107796
-0.016119137 0.0030853301 0.028715998 -0.04385516 -0.07209243 -0.012767479 0.02270329 -0.025522858
-0.06593302 0.007858321 -0.11248258 0.08618766 3.2156706e-05 0.04243301 -0.010794267 0.12099454
0.04885207 0.008759305 -0.02028884 -0.06600836 -0.021836236 0.113605365 -0.06935635 -0.106118724
-0.12395243 -0.07788116 0.03370002 -0.027760133 0.059059262 0.10149112 0.06414895 -0.06915769
0.046668366 -0.036539644 -0.068567336 0.04818608 0.114241496 0.10058613 0.101463616 -0.107178286
0.096551165 0.024934694 0.07561372 -0.12160735 0.12208998 0.07934165 0.013963252 0.03585364
0.11031769 0.109125346 -0.04758483 0.07424705 0.06017673 0.08605811 -0.063188985 -0.05783227
0.008290917 -0.021926954 -0.01021795 0.04262179 0.032421783 -0.022517592 -0.08995779 -0.0029368103

fc2.main_module.bias f4 [64]
00000000: 6f8f d8bb 8d99 373d 69b8 4d3d 00eb dbbd
00000010: 7ac8 6b3d 4584 2ebd 6d2b c83d 40de d8bc
00000020: 283d e7bd ddd7 d43d 7014 693d 14ef 13bd
00000030: ec21 673d 9436 04bd 98be b9bc 924f fa3d
00000040: cbbc 48bd 706b 0d3c 400b 59bb 02f2 b7bd
00000050: 18f8 d73d e13e 2bbe 4e96 a83d 45f6 173d
00000060: 7c17 df3d e0eb 863d d074 3f3c 0010 ab3d
00000070: 7cdc d1bd 4937 92bd d817 2f3d db15 813d
00000080: dca3 033d e149 393d 853f 4a3d 6b04 66bd
00000090: f6b9 3ebe 1cdc e93d 8692 4f3c 20d4 f5bc
000000a0: 58da d63c 52bf 753c 03f4 28bc b49a 56bd
000000b0: 408b 533d aaea e0bd 40d1 81bd fa10 623d
000000c0: 0499 46bd 1258 e03d 32d5 fc3c 6afc a5bd
000000d0: 601e a9bd b6ce 9c3d cbbd 1abe 9cad 20be
000000e0: d064 bebc 5a3a 81bd f673 1e3e c093 e2bc
000000f0: ea70 0b3e 9044 87bd baf6 adbd 601e 84bc
-0.0066088955 0.04482417 0.050224695 -0.10738182 0.057564236 -0.04260661 0.09773908 -0.026473165
-0.112909615 0.10392735 0.056904256 -0.036116675 0.056428835 -0.032278612 -0.02267389 0.12222208
-0.049008172 0.008631572 -0.0033118278 -0.08981706 0.10545367 -0.16723205 0.08231793 0.037100095
0.10893151 0.06587958 0.011685565 0.08352661 -0.10247132 -0.07139451 0.04274735 0.06302997
0.03213869 0.045236472 0.049376983 -0.056156557 -0.18625626 0.11418936 0.012669211 -0.030008376
0.026227161 0.014999228 -0.010312083 -0.05239363 0.05164647 -0.109822586 -0.063387394 0.05519197
-0.04848577 0.10954298 0.030863378 -0.08104785 -0.08257747 0.076566145 -0.15111463 -0.15691227
-0.02324143 -0.06309958 0.15473923 -0.027658343 0.13617292 -0.06604874 -0.08494325 -0.016127765

fc2.main_module.weight f4 [64, 64]
00000000: 8e01 c53d 9687 84bd 2185 21bd 2e2e 383c
00000010: f011 64bd 0250 9f3d 3071 0d3d 53fb 053e
00000020: 688c ee3c 6037 fa3d 7933 bcbc eb0a 89bb
00000030: d428 513d c0a5 d03b 9048 86bd c869 22bd
00000040: 7495 babd a842 51bd e8d3 26bd f487 1dbd
00000050: 4c59 bbbd ac15 133e c4f4 043d 597f 293d
00000060: deb3 193e b2fd d93d 0045 63bc 005f c0bd
00000070: 5011 e63d dcde a6bd 7c88 c13d e8c2 d1bd
00000080: 1462 983d eab6 4e3d 389a 10bd e048 61bd
00000090: 1037 443d 3497 f4bd 3cf7 bc3d 5121 56bd
000000a0: 5890 a3bc cccb a23d a015 e83b e0ab 98bc
000000b0: aa2e aabd f0f1 f63d 0416 d7bd 7282 d2bd
000000c0: 14b7 39bd 3abb cc3d 5c2e afbd ad06 cf3d
000000d0: 3ac1 babd 6c70 c33d 203c 113e 42ff f93d
000000e0: 0044 c7bd 40a4 ddbb c078 d43c 00d6 79ba
000000f0: 9c7f 133d 9c10 e13d 8251 8bbd 2077 883d
00000100: 495e 20bd 9fe5 643d 9a51 21bd c188 9a3d
00000110: d246 af3d 8019 babb 1844 a5bd da54 c8bd
00000120: e4b9 513d 8443 ab3d 18ef 003d 6329 9ebd
00000130: 4659 dd3d 6080 81bb f0e5 b2bd c0c8 dcbd
00000140: 84f7 b0bd 149a 1c3d 9b05 73bd b2f8 ad3d
00000150: fe83 523d 3de3 8a3d 6001 ef3b 1e6e 28bc
00000160: 5a32 db3d ba12 ea3d b615 fa3d ca36 073e
00000170: c676 b33d e728 5cbd b5a2 41bd 501b a4bc
00000180: d0ae afbd 44e7 2abd 2cee 00bd cce4 39bd
00000190: 68ea 6bbd 700a e8bc f426 acbc 506f 163e
000001a0: 503c f6bc 9239 f13d 4822 a3bd 7c5a 8a3d
000001b0: d486 c5bd 1052 5dbd 5806 cfbd 961c a03d
000001c0: 9cf3 ba3d 6ca6 6c3d 18c1 5bbd e480 ea3d
000001d0: bc09 95bd e99c b03d 9686 6b3d 71eb 033e
000001e0: 4cd2 e43d 508e 5cbd 7cc5 0dbd 2cd0 b0bd
000001f0: a0cd 9a3b 2ed4 113e e473 6b3d de7b cc3d
00000200: 86ce 903d 1432 e5bc 8f0a d23d b37a ccbc
00000210: 38d2 783d 681a 8d3c 002f 7bbb 7601 febc
00000220: b057 453c 0034 e5ba 5cf9 bebc 7ac0 53bd
00000230: 006a 0e3a 0c82 363d 105c 8e3d e0af c2bd
00000240: 2e52 c83d 3075 4bbc d7ed 6bbd ea6d a1bd
00000250: 5332 033e b31c e03d fa88 81bd e6b6 ccbd
00000260: f717 0e3e 6c58 f33d 64d1 79bd 9288 7b3c
00000270: 8240 89bd ad3b 3abd 4c23 57bd 5807 2d3d
00000280: b801 2abd 7400 013e b8f8 813d 2029 09bd
00000290: 2030 733d e460 72bd 54e0 b2bd 9237 a0b9
000002a0: 1a37 f03d 3888 bf3d ae90 f83d 0ebf 123d
000002b0: 40a5 7cbd d85e fabc 00fe d1bc 8659 dcbd
000002c0: 8e0f d73d f02f 623d a0f8 37bc edf0 293c
000002d0: 727f a23d abd0 b43d 9287 243c 92d0 d13d
000002e0: f840 b6bd 44fb 86bd 6052 adbd bab4 c2bd
000002f0: 40c1 41bd 513e e63c 0c4c 11bd 340c a63d
00000300: 480c 84bc 4033 4a3b d03d eb3c 78a1 33bd
00000310: 32a5 93bd b02e 51bc 40fc b93c 5015 d1bc
00000320: e407 87bd 30c0 003c 445d e6bd 2883 b03d
00000330: 00e0 0638 3cce 2d3d 70da 30bc fccb f73d
00000340: 1c19 483d 3083 0f3c c834 a6bc 642f 87bd
00000350: e8e1 b2bc eea9 e83d b40a 8ebd c654 d9bd
00000360: c6da fdbd 2880 9fbd 0809 0a3d 3869 e3bc
00000370: 20e8 713d 94da cf3d 8660 833d 8ca2 8dbd
00000380: 5427 3f3d 98aa 15bd 086d 8cbd c45e 453d
00000390: 72f7 e93d 1a00 ce3d 28cc cf3d 4a80 dbbd
000003a0: 9ebc c53d d843 cc3c 5edb 9a3d 460d f9bd
000003b0: 500a fa3d e07d a23d 20c6 643c 44db 123d
000003c0: 3eee e13d 1c7d df3d 50e8 42bd d60e 983d
000003d0: e07b 763d 3c3f b03d 3a69 81bd 88e1 6cbd
000003e0: a0d6 073c 28a0 b3bc 3069 27bc 3094 2e3d
000003f0: b4cc 043d d076 b8bc ca3b b8bd 8077 40bb
0.09619437 -0.064711735 -0.039433602 0.011241479 -0.05568117 0.07778932 0.034531772 0.13084154
0.029119685 0.12217593 -0.022973763 -0.0041822097 0.051064327 0.006367415 -0.06556809 -0.039651662
-0.09110537 -0.05108896 -0.040729433 -0.038459733 -0.091478914 0.14363736 0.03245999 0.041381214
0.1501002 0.10644092 -0.013871431 -0.0939312 0.11233771 -0.08147976 0.094498605 -0.102422535
0.07440582 0.05046741 -0.035303324 -0.05500114 0.047904074 -0.11942902 0.09226844 -0.052277867
-0.01996629 0.079490274 0.007082656 -0.018636644 -0.08309682 0.12057865 -0.10502246 -0.10278787
-0.045340613 0.09996648 -0.08553764 0.10108695 -0.09118886 0.09542927 0.14183092 0.1220689
-0.09729767 -0.006763965 0.025936484 -0.00095304847 0.03601037 0.10989496 -0.06802656 0.06663346
-0.039152417 0.055883046 -0.039384462 0.07545615 0.0855843 -0.0056793094 -0.080696285 -0.09781809
0.05120267 0.08362487 0.031478018 -0.07722738 0.10808043 -0.003952071 -0.08735263 -0.107804775
-0.0864096 0.038232878 -0.059331518 0.084947005 0.05139541 0.067816235 0.007293865 -0.01028016
0.10702963 0.11429353 0.12211172 0.13204494 0.087628886 -0.053749945 -0.04727431 -0.020032555
-0.08578265 -0.04172446 -0.03147714 -0.045384213 -0.057596594 -0.02832529 -0.021014668 0.146909
-0.030058056 0.11778559 -0.07965523 0.0675554 -0.09644857 -0.05403334 -0.10108632 0.07817952
0.09128496 0.0577759 -0.053650945 0.11450365 -0.07277247 0.08623678 0.057501398 0.12882783
0.111729234 -0.053846657 -0.034612164 -0.08633456 0.0047242194 0.14241096 0.05748357 0.09984563
0.07070641 -0.02797798 0.1025592 -0.024960851 0.060747355 0.017224506 -0.0038327575 -0.031006556
0.012044832 -0.0017486811 -0.023312263 -0.05169723 0.00054326653 0.044557616 0.06951153 -0.09506202
0.097812995 -0.012418076 -0.05759987 -0.078822926 0.12812166 0.10942974 -0.06324954 -0.099958226
0.1387633 0.118820995 -0.060990706 0.015352385 -0.06701757 -0.045467068 -0.052523896 0.04224333
-0.041505545 0.12597829 0.063462675 -0.033486485 0.059372067 -0.059174433 -0.087341934 -0.0003055898
0.1172926 0.093521535 0.121369705 0.035826735 -0.061681032 -0.030562803 -0.025633812 -0.10759263
0.10501014 0.055221498 -0.01122871 0.010372383 0.079344645 0.08828863 0.010042088 0.1024486
-0.088991106 -0.06590894 -0.084629774 -0.09507127 -0.04730344 0.028105887 -0.035472915 0.08107796
-0.016119137 0.0030853301 0.028715998 -0.04385516 -0.07209243 -0.012767479 0.02270329 -0.025522858
-0.06593302 0.007858321 -0.11248258 0.08618766 3.2156706e-05 0.04243301 -0.010794267 0.12099454
0.04885207 0.008759305 -0.02028884 -0.06600836 -0.021836236 0.113605365 -0.06935635 -0.106118724
-0.12395243 -0.07788116 0.03370002 -0.027760133 0.059059262 0.10149112 0.06414895 -0.06915769
0.046668366 -0.036539644 -0.068567336 0.04818608 0.114241496 0.10058613 0.101463616 -0.107178286
0.096551165 0.024934694 0.07561372 -0.12160735 0.12208998 0.07934165 0.013963252 0.03585364
0.11031769 0.109125346 -0.04758483 0.07424705 0.06017673 0.08605811 -0.063188985 -0.05783227
0.008290917 -0.021926954 -0.01021795 0.04262179 0.032421783 -0.022517592 -0.08995779 -0.0029368103

fc3.dendrite_module.parent_module.weight f4 [1, 64]
00000000: 28d1 8e3d ea02 843d 8079 4b3d d21d acbd
00000010: 2cba 603d 60d2 7d3d 3ed9 863d 60b0 3cbc
00000020: 18cb f8bd 0a07 bcbd 24d4 87bd 6875 07bd
00000030: 2875 bc3c aeb8 afbd ec2d 3d3d 02d4 9a3d
00000040: 32e2 d23d 10fd 31bd 7cdf d3bd 4026 5abc
00000050: 0cf6 c83d 108f 39bd a04e 6d3d 1601 d43d
00000060: 004f a93d fa1e eebd ea9a 97bd 603a a93c
00000070: cc0d 5ebd 989c 70bd b059 783d f4d4 493d
00000080: 9002 6f3d a8c0 473d fc08 b73d d20d da3d
00000090: 54f5 44bd 00fa fcbd aab2 b4bd 20d5 c6bd
000000a0: dc5a edbd c20b 983d d0e4 5b3d 98b2 183d
000000b0: 38cb 313d 2cc3 19bd 00d0 67bc dec8 b03d
000000c0: fcbc dd3d c075 74bc accd a33d 2c27 8e3d
000000d0: 0057 abbc 1884 c2bc 8495 1abd 9c8d ecbd
000000e0: 6083 043c 844f 283d 6025 4b3d ce2e dc3d
000000f0: 0a2e e63d f089 933c 1878 fc3d 4c8a 6fbd
0.06973487 0.06445868 0.04967642 -0.08404125 0.054865047 0.061968207 0.065844044 -0.01151666
-0.12148112 -0.0918103 -0.066322595 -0.03307095 0.023005083 -0.08580147 0.046186373 0.075599685
0.102970496 -0.04345423 -0.10345361 -0.013314784 0.09812555 -0.04530245 0.05793631 0.103517696
0.08267021 -0.11627002 -0.074025944 0.020657718 -0.054212376 -0.05874309 0.060632408 0.049275354
0.058352053 0.048767716 0.089372605 0.10647167 -0.048085526 -0.12352371 -0.0882314 -0.09708619
-0.11589596 0.074241176 0.05368501 0.037279695 0.043406695 -0.037539646 -0.014148712 0.086320624
0.108270615 -0.014920652 0.07998213 0.06941065 -0.020915508 -0.023744628 -0.037740245 -0.11550447
0.008087963 0.041091457 0.04959619 0.10751115 0.1123925 0.01801011 0.123275936 -0.0584815

fc3.main_module.weight f4 [1, 64]
00000000: 2320 a13d e95c 6c3d 4608 613d d21d acbd
00000010: 1031 8d3d ab93 153d 3fe1 673d 60b0 3cbc
00000020: 18cb f8bd df27 babd 24d4 87bd 6875 07bd
00000030: 97b0 303c 06c1 f5bc ec2d 3d3d 02d4 9a3d
00000040: c206 ef3d 10fd 31bd 7cdf d3bd 4026 5abc
00000050: de6b ea3d 9d61 393c a04e 6d3d 3fd3 f73d
00000060: 006c b23d fa1e eebd ea9a 97bd 603a a93c
00000070: cc0d 5ebd fcaa 82bb b059 783d 5815 883d
00000080: 9002 6f3d 8e23 cd3c e24f c93d 2696 d43d
00000090: 4837 853c 00fa fcbd 1b1e 09bd 20d5 c6bd
000000a0: dc5a edbd 8250 bc3d 193f 813d 98b2 183d
000000b0: 38cb 313d 2cc3 19bd 00d0 67bc 8bbd 373e
000000c0: 8d02 043e c075 74bc bb04 ab3d 2c27 8e3d
000000d0: 0057 abbc 1884 c2bc 6a63 8b3c 01d4 78bd
000000e0: 6083 043c 844f 283d 7ea1 673d ce2e dc3d
000000f0: 5041 fb3d f089 933c 1878 fc3d 4c8a 6fbd
0.07867458 0.057705794 0.05493953 -0.08404125 0.068941236 0.03651778 0.056611296 -0.01151666
-0.12148112 -0.09089636 -0.066322595 -0.03307095 0.01078429 -0.029999267 0.046186373 0.075599685
0.11671211 -0.04345423 -0.10345361 -0.013314784 0.11446355 0.011314777 0.05793631 0.12100839
0.087120056 -0.11627002 -0.074025944 0.020657718 -0.054212376 -0.003987668 0.060632408 0.06644696
0.058352053 0.025041368 0.098296896 0.10380201 0.016261712 -0.12352371 -0.033475976 -0.09708619
-0.11589596 0.09195043 0.06310863 0.037279695 0.043406695 -0.037539646 -0.014148712 0.17943399
0.12891598 -0.014920652 0.08350512 0.06941065 -0.020915508 -0.023744628 0.017015178 -0.060749058
0.008087963 0.041091457 0.056550495 0.10751115 0.12268317 0.01801011 0.123275936 -0.0584815

tracker_string u1 [1396]
00000000: 646f 696e 675f 7061 692c 5472 7565 0a6e
00000010: 756d 5f64 656e 6472 6974 6573 5f61 6464
00000020: 6564 2c30 0a6e 756d 5f63 7963 6c65 732c
00000030: 300a 6d6f 6465 2c6e 0a6e 756d 5f65 706f
00000040: 6368 735f 7275 6e2c 300a 746f 7461 6c5f
00000050: 6570 6f63 6873 5f72 756e 2c30 0a65 706f
00000060: 6368 5f6c 6173 745f 696d 7072 6f76 6564
00000070: 2c30 0a72 756e 6e69 6e67 5f61 6363 7572
00000080: 6163 792c 3539 342e 3334 3733 3337 3034
00000090: 3839 3836 370a 6d61 7869 6d69 7a69 6e67
000000a0: 5f73 636f 7265 2c46 616c 7365 0a73 7769
000000b0: 7463 685f 6d6f 6465 2c30 0a6c 6173 745f
000000c0: 7377 6974 6368 2c30 0a63 7572 7265 6e74
000000d0: 5f62 6573 745f 7661 6c69 6461 7469 6f6e
000000e0: 5f73 636f 7265 2c35 3934 2e33 3437 3333
000000f0: 3730 3438 3938 3637 0a69 6e69 7469 616c
100 111 105 110 103 95 112 97
105 44 84 114 117 101 10 110
117 109 95 100 101 110 100 114
105 116 101 115 95 97 100 100
101 100 44 48 10 110 117 109
95 99 121 99 108 101 115 44
48 10 109 111 100 101 44 110
10 110 117 109 95 101 112 111
99 104 115 95 114 117 110 44
48 10 116 111 116 97 108 95
101 112 111 99 104 115 95 114
117 110 44 48 10 101 112 111
99 104 95 108 97 115 116 95
105 109 112 114 111 118 101 100
44 48 10 114 117 110 110 105
110 103 95 97 99 99 117 114
97 99 121 44 53 57 52 46
51 52 55 51 51 55 48 52
56 57 56 54 55 10 109 97
120 105 109 105 122 105 110 103
95 115 99 111 114 101 44 70
97 108 115 101 10 115 119 105
116 99 104 95 109 111 100 101
44 48 10 108 97 115 116 95
115 119 105 116 99 104 44 48
10 99 117 114 114 101 110 116
95 98 101 115 116 95 118 97
108 105 100 97 116 105 111 110
95 115 99 111 114 101 44 53
57 52 46 51 52 55 51 51
55 48 52 56 57 56 54 55
10 105 110 105 116 105 97 108
