backend/forecast_run_1767084258/beforeSwitch_0.pt (safetensors, 40248 bytes, 11 tensors)

fc1.dendrite_module.parent_module.bias f4 [64]
0	0xbd8f9d10	-0.07012379
1	0x3e4a7da8	0.19774497
2	0xbf5f125e	-0.871374
3	0xbf7c9844	-0.9866984
4	0xbca8b980	-0.020596266
5	0xbeffeb8c	-0.49984396
6	0x3f0e9638	0.55697966
7	0x3edc9248	0.43080354
8	0xbf57de0a	-0.8432318
9	0x3f2eb334	0.6824219
10	0xbf487e34	-0.7831757
11	0x3f0dbc0c	0.5536506
12	0xbf05c1ca	-0.52248824
13	0x3f49edf2	0.788787
14	0xbf1c916c	-0.61159396
15	0xbcb65f80	-0.022262335
16	0xbd88b140	-0.06674433
17	0x3f4014f6	0.75031984
18	0x3f74df18	0.95652914
19	0xbd4f8300	-0.05066204
20	0x3f7e1150	0.99245167
21	0x3f320f9c	0.6955507
22	0x3f6d28b6	0.92640245
23	0xbf195934	-0.5990174
24	0x3ef7ac84	0.48373806
25	0xbf70b29a	-0.94022524
26	0x3f2f453a	0.68465006
27	0xbed8a610	-0.42314196
28	0xbf5569b6	-0.8336443
29	0x3d115880	0.03548479
30	0x3eb42f60	0.35192394
31	0xbf31a6c2	-0.6939508
32	0x3ed2cca0	0.4117174
33	0x3f7c9f78	0.9868083
34	0xbefdb0a8	-0.4954884
35	0xbf0bf0e6	-0.54664457
36	0x3f5ca3a4	0.86187196
37	0x3f3e0c54	0.7423756
38	0x3e44f3c8	0.1923362
39	0x3f679828	0.90466547
40	0x3e14ab00	0.14518356
41	0xbf417c02	-0.75579846
42	0x3d34e240	0.04416108
43	0x3f6491fe	0.89285266
44	0xbe87acd8	-0.26499057
45	0x3e224258	0.1584562
46	0xbf1698a2	-0.5882665
47	0x3f3e9e52	0.7446033
48	0x3f250182	0.64455426
49	0xbf043e7e	-0.51657856
50	0x3f79cb7c	0.9757612
51	0x3e433718	0.19063985
52	0xbdf9d630	-0.12199056
53	0xbf5c9bbe	-0.86175144
54	0xbf6248c2	-0.8839227
55	0xbdaf6590	-0.085642934
56	0x3f27cd36	0.655475
57	0xbf327e02	-0.6972352
58	0xbec492c4	-0.38393223
59	0xbf4a1a62	-0.78946507
60	0xbec75cf4	-0.38938105
61	0x3f1fcab6	0.6241869
62	0x3ed2415c	0.4106549
63	0xbeef0f60	-0.46691418

fc1.dendrite_module.parent_module.weight f4 [64, 1]
0	0x3f7d61b8	0.9897723
1	0xbf67bac2	-0.90519345
2	0x3f393e9c	0.7236116
3	0x3c8a18c0	0.016857505
4	0x3ecad700	0.39617157
5	0xbf144ba0	-0.57927895
6	0xbe878388	-0.26467538
7	0x3e176848	0.14785874
8	0xbdb80a00	-0.08986282
9	0xbd8ab150	-0.06772101
10	0xbe024c60	-0.12724447
11	0xbe357ba0	-0.1772294
12	0x3f010cca	0.5041014
13	0x3f6460c6	0.89210165
14	0xbddb8410	-0.10718548
15	0xbf5fcd4c	-0.87422633
16	0x3f2da1d2	0.67825043
17	0x3e077c38	0.1323098
18	0xbf536a9c	-0.8258455
19	0xbf59edbc	-0.8512838
20	0x3d629e20	0.05532658
21	0x3f32e134	0.6987488
22	0x3f4ab0e2	0.7917615
23	0xbf525ee4	-0.8217604
24	0x3ead0898	0.3379562
25	0x3ed3eba8	0.4139073
26	0xbf2a2a42	-0.6647073
27	0x3eb98394	0.362332
28	0x3ec8da9c	0.39229286
29	0xbe8ba32c	-0.27272928
30	0x3f1e671a	0.6187607
31	0xbf390d5a	-0.72286
32	0xbf2464e8	-0.6421647
33	0x3e3142d8	0.17310655
34	0x3e714c30	0.2356422
35	0xbe6dcad0	-0.23221898
36	0x3f626392	0.8843318
37	0xbf072232	-0.5278655
38	0x3f08bb6a	0.5341097
39	0x3f3798ac	0.71717334
40	0x3e118980	0.14212608
41	0x3ecc8650	0.39946222
42	0xbd01c700	-0.03168392
43	0x3e9a82e8	0.30178
44	0x3f1278a0	0.5721531
45	0x3f3c5a46	0.73575246
46	0x3ec1a908	0.37824273
47	0x3f0e8e48	0.55685854
48	0xbf1c1452	-0.60968506
49	0x3f78a57c	0.9712751
50	0x3f39d342	0.7258798
51	0xbeea8c58	-0.458102
52	0x3f1efb20	0.62101936
53	0x3c943fc0	0.018096805
54	0xbf345f84	-0.70458245
55	0xbea4078c	-0.32037008
56	0x3f48af24	0.78392243
57	0x3e67a1d8	0.22620332
58	0x3ea9ad2c	0.33139932
59	0xbd04d820	-0.032432675
60	0xbe7e71e0	-0.24848127
61	0x3f13cc4a	0.57733595
62	0x3eb1e334	0.34743655
63	0x3e243a40	0.16037846

fc1.main_module.bias f4 [64]
0	0xbd87c60d	-0.06629572
1	0x3e4a7da8	0.19774497
2	0xbf6ca67c	-0.92441535
3	0xbf7e5457	-0.9934744
4	0xbd420c49	-0.047374997
5	0xbeffeb8c	-0.49984396
6	0x3f0e9638	0.55697966
7	0x3eac06ca	0.3359893
8	0xbf57de0a	-0.8432318
9	0x3f2eb334	0.6824219
10	0xbf487e34	-0.7831757
11	0x3f0dbc0c	0.5536506
12	0xbf1db344	-0.6160166
13	0x3f329d9f	0.6977176
14	0xbf1c916c	-0.61159396
15	0xbcb65f80	-0.022262335
16	0xbd8d037a	-0.06885429
17	0x3f3ccb93	0.7374813
18	0x3f74df18	0.95652914
19	0xbd4f8300	-0.05066204
20	0x3f5b8df1	0.8576346
21	0x3f245961	0.6419888
22	0x3f6c732b	0.9236323
23	0xbf195934	-0.5990174
24	0x3eca8b82	0.3955956
25	0xbf6b1484	-0.9182818
26	0x3f2f453a	0.68465006
27	0xbed4cc1b	-0.4156197
28	0xbf57c803	-0.8428957
29	0x3d115880	0.03548479
30	0x3eacdf9b	0.33764347
31	0xbf31a6c2	-0.6939508
32	0x3ed2cca0	0.4117174
33	0x3f65f366	0.8982452
34	0xbf12f7af	-0.57409185
35	0xbf0bf0e6	-0.54664457
36	0x3f4b9679	0.7952648
37	0x3f3e0c54	0.7423756
38	0x3dc5088b	0.0962077
39	0x3f539a3e	0.8265723
40	0x3dfdc15a	0.123903945
41	0xbf596774	-0.8492348
42	0x3d34e240	0.04416108
43	0x3f50d3f2	0.815734
44	0xbeb3b875	-0.35101667
45	0x3d98b71c	0.074568
46	0xbf196875	-0.59925014
47	0x3f25c803	0.6475832
48	0x3f250182	0.64455426
49	0xbefefc10	-0.49801683
50	0x3f7cc793	0.98742026
51	0x3e433718	0.19063985
52	0xbe0985df	-0.13429974
53	0xbf663943	-0.89931124
54	0xbf6248c2	-0.8839227
55	0xbdaf6590	-0.085642934
56	0x3f1ef382	0.62090313
57	0xbf327d47	-0.6972241
58	0xbee636eb	-0.44963774
59	0xbf4a1a62	-0.78946507
60	0xbec75cf4	-0.38938105
61	0x3f11fa0c	0.57022166
62	0x3ed247fa	0.4107054
63	0xbef8dfe3	-0.48608312

fc1.main_module.weight f4 [64, 1]
0	0x3f7e46ef	0.99326986
1	0xbf67bac2	-0.90519345
2	0x3f298a6c	0.6622684
3	0x3ce13834	0.02749262
4	0x3ebab7a5	0.36468235
5	0xbf144ba0	-0.57927895
6	0xbe878388	-0.26467538
7	0x3d459795	0.048240263
8	0xbdb80a00	-0.08986282
9	0xbd8ab150	-0.06772101
10	0xbe024c60	-0.12724447
11	0xbe357ba0	-0.1772294
12	0x3ed3e00a	0.41381866
13	0x3f4d77c0	0.8026085
14	0xbddb8410	-0.10718548
15	0xbf5fcd4c	-0.87422633
16	0x3f2cc32b	0.674853
17	0x3df6c4f8	0.120492876
18	0xbf536a9c	-0.8258455
19	0xbf59edbc	-0.8512838
20	0xbda09b27	-0.07842093
21	0x3f23e8f9	0.64027363
22	0x3f4a3cfc	0.78999305
23	0xbf525ee4	-0.8217604
24	0x3e7c9bd0	0.24668813
25	0x3ee12ebf	0.43980977
26	0xbf2a2a42	-0.6647073
27	0x3ebf1aff	0.37325284
28	0x3ec2d108	0.38050103
29	0xbe8ba32c	-0.27272928
30	0x3f19b99f	0.6004886
31	0xbf390d5a	-0.72286
32	0xbf2464e8	-0.6421647
33	0x3da6e680	0.08149433
34	0x3e184146	0.1486865
35	0xbe6dcad0	-0.23221898
36	0x3f4fa381	0.8110886
37	0xbf072232	-0.5278655
38	0x3ede1c1a	0.43380815
39	0x3f24e276	0.6440805
40	0x3df356d7	0.11881798
41	0x3e9d8713	0.30767116
42	0xbd01c700	-0.03168392
43	0x3e67406a	0.22583166
44	0x3ef6409a	0.48096162
45	0x3f263eab	0.64939374
46	0x3eba8c05	0.3643495
47	0x3ee7f8a0	0.45306873
48	0xbf1c1452	-0.60968506
49	0x3f7e1a1a	0.9925858
50	0x3f3dea11	0.7418528
51	0xbeea8c58	-0.458102
52	0x3f1b5b0f	0.6068582
53	0xbc2a6a8a	-0.010401377
54	0xbf345f84	-0.70458245
55	0xbea4078c	-0.32037008
56	0x3f3e8755	0.7442525
57	0x3e70734f	0.23481487
58	0x3e83712a	0.25672275
59	0xbd04d820	-0.032432675
60	0xbe7e71e0	-0.24848127
61	0x3f0463ec	0.5171497
62	0x3eb281db	0.34864697
63	0x3e11533d	0.14191909

fc2.dendrite_module.parent_module.bias f4 [64]
0	0x3d61c334	0.0551178
1	0x3d5183f0	0.051151216
2	0x3df951de	0.12173818
3	0x3d0d4ca0	0.034496903
4	0xbdc79740	-0.097456455
5	0x3d5921dc	0.053010806
6	0x3b617000	0.0034399033
7	0x3cf7f188	0.030266538
8	0xbd860406	-0.06543736
9	0xbd36e2a8	-0.04464975
10	0x3d51e498	0.051243395
11	0x3d2a7b78	0.041621655
12	0x3dfef220	0.124485254
13	0xbbfbd020	-0.0076847225
14	0x3d50b9a8	0.050958306
15	0xbd4ed030	-0.05049151
16	0x3d8072a2	0.062718645
17	0xbd44f47c	-0.04808472
18	0xbddb5846	-0.10710196
19	0x3d9d3bc0	0.07677412
20	0x3dba8106	0.091066405
21	0xbdc1f6c4	-0.09470895
22	0xbdeb2154	-0.11480966
23	0x3d54bcd0	0.051937878
24	0x3da85cae	0.08220802
25	0x3df4b5de	0.11948751
26	0x3dd0e3be	0.101996884
27	0x3da1abe6	0.07894115
28	0x3d789e14	0.06069763
29	0x3d934ce6	0.071924016
30	0x3ddbe0ba	0.107362226
31	0x3c5779c0	0.013151586
32	0xbdce399e	-0.10069583
33	0x3d0efbac	0.03490798
34	0x3d917ce8	0.07103902
35	0xbd26c658	-0.0407165
36	0xbda1e69a	-0.07905312
37	0x3caf4180	0.021393538
38	0x3d9a6bf2	0.0754012
39	0x3d9accd0	0.07558596
40	0xbdfabcc4	-0.122430354
41	0x3df4dabe	0.11955784
42	0xbcac8150	-0.021057755
43	0x3d9b3c6c	0.07579884
44	0x3d979b96	0.074027225
45	0xbdd799f2	-0.105274096
46	0x3d9378a6	0.07200746
47	0x3d65a99c	0.056069955
48	0xbbd0ebc0	-0.00637576
49	0xbdc721e8	-0.09723264
50	0xbdbd9f6c	-0.09258923
51	0xbd492e4c	-0.049116418
52	0x3d20d328	0.039263874
53	0xbc87afe8	-0.01656337
54	0x3da86546	0.082224414
55	0x3d98b2be	0.07455967
56	0xbdaff934	-0.085924536
57	0xbbb8b0a0	-0.0056362897
58	0x3d9fcc1a	0.07802601
59	0x3c943eb0	0.018096298
60	0xbc9abda8	-0.018889263
61	0xbcdbba20	-0.02682215
62	0xbda6f99c	-0.08153078
63	0xbdda3860	-0.10655284

fc2.dendrite_module.parent_module.weight f4 [64, 64]
0	0xbdf9fe7c	-0.12206742
1	0x3c6210c0	0.013797939
2	0xbdd686d6	-0.10474937
3	0xbdb0e2c0	-0.08636999
4	0x3c27e6d0	0.010247901
5	0xbd4b0324	-0.049563542
6	0xbdeac6a0	-0.11463666
7	0xbcdba7f0	-0.026813477
8	0x3d32a1d0	0.043611348
9	0x3dd624ac	0.10456213
10	0x3db5c2e6	0.088750646
11	0xbdc26c9a	-0.0949337
12	0x3d1cfd60	0.038327575
13	0x3d8a8626	0.06763868
14	0x3cb23250	0.021752506
15	0x3c580fb0	0.013187334
16	0x3daec938	0.08534473
17	0x3d752be8	0.059856325
18	0xbde08c38	-0.109642446
19	0x3d037b18	0.032099813
20	0x3caa13d8	0.020761415
21	0x3de0e276	0.10980694
22	0xbdc72dce	-0.097255334
23	0xbdc2e528	-0.09516364
24	0x3c805678	0.015666232
25	0xbd483f64	-0.04888858
26	0xbd2c7240	-0.042101145
27	0x3d487794	0.048942164
28	0x3d85517c	0.065096825
29	0x3d9d0a40	0.07667971
30	0xbd1c45d8	-0.038152546
31	0xbcf6bf98	-0.030120656
32	0xbcb224d0	-0.02174607
33	0xbd00861c	-0.031377897
34	0xbdcd35d6	-0.10020034
35	0xbd4ab11c	-0.04948531
36	0x3dbfc4ce	0.093637094
37	0x3d8bf8b8	0.06834549
38	0x3dfa5ee2	0.12225129
39	0xbdcffa00	-0.101551056
40	0xbdaee880	-0.085404396
41	0x3dd3998c	0.10332021
42	0x3dc1c1b8	0.09460777
43	0xbd2f2c2c	-0.042766735
44	0xbc5b5e70	-0.013389215
45	0x3df8ee8e	0.12154876
46	0x3cec4df8	0.028845772
47	0xbc3d69f0	-0.011560902
48	0xbdf2ee76	-0.11861889
49	0xbd9cf778	-0.076643884
50	0x3df4d554	0.119547516
51	0xbdc29a0a	-0.09502037
52	0x3cc168d0	0.023609549
53	0xbb69c340	-0.0035669357
54	0x3ce05c88	0.027387872
55	0xbdb6bffa	-0.089233354
56	0x3d233534	0.03984566
57	0xbd0c09d4	-0.03418906
58	0x3ae30d80	0.0017322749
59	0xbcb87928	-0.02251871
60	0x3d34e214	0.044160917
61	0x3ccbcb78	0.024877295
62	0x3daef976	0.08543675
63	0x3df19862	0.11796643
64	0x3dc96c6a	0.098351315
65	0xbcf875f8	-0.03032969
66	0xbb586840	-0.0033021122
67	0x3da41084	0.080109626
68	0x3d25adc0	0.040448904
69	0xbdb16378	-0.0866155
70	0x3dc15ed2	0.09441914
71	0x3d52e840	0.051491022
72	0x3da457d2	0.08024563
73	0x3de1ba92	0.110219136
74	0xbdc71468	-0.09720689
75	0xbdcd153c	-0.10013816
76	0x3d1507fc	0.036384568
77	0x3d9a3b8c	0.07530889
78	0xbd4b8690	-0.049688876
79	0x3da2759c	0.079325885
80	0xbbca7980	-0.0061790347
81	0x3d8e7932	0.0695671
82	0x3d3a2a00	0.04545021
83	0x3d8be860	0.068314314
84	0xbc8b4d80	-0.017004728
85	0x3d1fd870	0.03902477
86	0x3dceb27e	0.100926384
87	0xbcaafbe8	-0.020872071
88	0xbde34f42	-0.110991016
89	0xbd89efd0	-0.06735194
90	0x3da696c8	0.08134228
91	0x3d2597ac	0.04042785
92	0x3dde61e2	0.108585134
93	0xbd90a6a0	-0.07063031
94	0x3df7a34e	0.12091695
95	0xbd34e738	-0.04416582
96	0xbc17fa30	-0.009275958
97	0xbab62380	-0.0013896078
98	0xbd0c70c0	-0.034287214
99	0xbdcc2cbc	-0.0996947
100	0x3d7bf578	0.061513394
101	0x3ccce678	0.02501224
102	0xbdde45f2	-0.10853185
103	0x3df4b63a	0.119488195
104	0x3c15b120	0.009136468
105	0xbbf8f4e0	-0.0075975507
106	0x3cdbe4b8	0.02684246
107	0xbd9a167c	-0.0752382
108	0xbdb87188	-0.09006029
109	0xbdd44d6c	-0.103663296
110	0x3dea694e	0.114458665
111	0xbb29dd80	-0.0025919378
112	0xbc233c40	-0.009963095
113	0xbdb02b68	-0.08602029
114	0x3ca8cf80	0.020606756
115	0x3ddc3ad6	0.107534096
116	0x3dedd898	0.116135776
117	0xbd0ddbf4	-0.03463359
118	0xbd1b9394	-0.03798254
119	0xbda32028	-0.07965118
120	0xbc7ef6e0	-0.015561789
121	0x3ac39680	0.0014922172
122	0xbd4d350c	-0.050099418
123	0xbd347fb0	-0.044067085
124	0x3c60a840	0.013711989
125	0x3d941e64	0.07232359
126	0x3dcf73a6	0.1012948
127	0xbdc590ae	-0.09646736
128	0xbaefed80	-0.0018305033
129	0xbdfdccbc	-0.123925656
130	0x3dd0752e	0.101786
131	0xbca1c468	-0.019746974
132	0xbcafb338	-0.021447763
133	0x3dcfde46	0.10149817
134	0x3daa1dc0	0.083064556
135	0x3d8658be	0.06559895
136	0xbd29c6e4	-0.041449443
137	0x3d83d236	0.06436579
138	0xbd122be4	-0.03568639
139	0xbd9196e6	-0.0710886
140	0x3c0d0270	0.008606538
141	0xbd9e63c0	-0.077338696
142	0xbd32a1f8	-0.043611497
143	0xbd8b416e	-0.06799589
144	0x3d8e3aa0	0.069447756
145	0xbc27d3a0	-0.010243326
146	0x3d514194	0.05108793
147	0xbdfca0e0	-0.12335372
148	0x3d5c01e8	0.053712755
149	0x3cf380e8	0.029724553
150	0xbdde7eea	-0.10864051
151	0x3dc426f2	0.09577741
152	0xbcdb2bd8	-0.026754305
153	0xbdff31fe	-0.12460707
154	0x3c4ead70	0.012614593
155	0xbdc66932	-0.09688033
156	0x3d98ef20	0.074674845
157	0x3cdd4928	0.027012423
158	0x3de2e68e	0.11079131
159	0xbd910140	-0.070803165
160	0xbdccc59e	-0.0999863
161	0x3c8589b0	0.016301006
162	0x3dd9ecf8	0.10640901
163	0x3c4cc0a0	0.012497097
164	0xbc03f180	-0.008053184
165	0x3dd76dd6	0.105189964
166	0x3df0455e	0.11731981
167	0x3ca735d0	0.020411402
168	0x3c2e7230	0.010647342
169	0x3cf5bdf8	0.02999781
170	0x3ddcff6a	0.10790904
171	0x3d0d21a0	0.034455895
172	0x3dc3e174	0.09564486
173	0x3d02e750	0.031958878
174	0x3da09730	0.07841337
175	0xbcb0c7f8	-0.021579728
176	0x3d7b8efc	0.061415657
177	0x3aa5c180	0.0012646168
178	0xbc210c80	-0.00982964
179	0xbc048a20	-0.008089572
180	0xbd832b4e	-0.06404744
181	0xbcb84220	-0.022492468
182	0xbd11d59c	-0.035604104
183	0x3dc847de	0.097793326
184	0x3cc390f8	0.023872837
185	0xbd145764	-0.036216155
186	0x3dc452d8	0.09586114
187	0xbdd49f1e	-0.10381912
188	0xbd1442f8	-0.03619668
189	0x3dd66622	0.10468699
190	0x3dc7b750	0.09751761
191	0xbd02d18c	-0.03193812
192	0x3db70f76	0.08938496
193	0x3da5f498	0.08103293
194	0xbc857f70	-0.016296118
195	0x3deb041e	0.11475395
196	0xbd299fb0	-0.041412055
197	0x3dffde80	0.124936104
198	0x3cb65d40	0.022261262
199	0xbdbf6db6	-0.093470976
200	0x3c7c5570	0.015401229
201	0x3c81d490	0.015848428
202	0x3cb305a8	0.021853283
203	0x3cff1288	0.031136766
204	0xbca3e738	-0.020007715
205	0x3da61682	0.08109762
206	0x3cb77ce8	0.022398427
207	0x3d10b1bc	0.03532575
208	0x3dee1dca	0.116267756
209	0x3dfa269a	0.12214394
210	0x3de40454	0.11133638
211	0x3da49540	0.0803628
212	0xbca2ccb0	-0.019872993
213	0xbb81ae00	-0.00395751
214	0x3c996c70	0.018728465
215	0x3d4338a4	0.04766144
216	0xbd38dd7c	-0.0451331
217	0xbd1f2374	-0.03885217
218	0x3dede0ec	0.11615166
219	0x3c01a420	0.007912666
220	0x3cd14670	0.025546283
221	0xbd2e2f64	-0.042525664
222	0x3cd09ca0	0.02546531
223	0xbd2653b0	-0.040607154
224	0xbd83821e	-0.06421302
225	0xbc3efd30	-0.011657044
226	0x3de273aa	0.110572174
227	0x3d70bc94	0.058773592
228	0xbce5ad28	-0.028036669
229	0xbd8c1a56	-0.06840961
230	0x3bf25700	0.007395625
231	0xbb977b40	-0.004622847
232	0x3b7f2900	0.003893435
233	0x3c8e7458	0.017389461
234	0x3da1fd82	0.07909681
235	0xbc910780	-0.017703772
236	0xbce10310	-0.02746728
237	0x3dc4636c	0.09589276
238	0x3d1bdb94	0.038051203
239	0xbdb9e8c6	-0.09077601
240	0x3c6ccbd0	0.01445289
241	0x3ddfce1e	0.109279856
242	0xbd057138	-0.032578677
243	0x3d87fda8	0.06640178
244	0x3d3693dc	0.044574603
245	0xbd7f6fdc	-0.062362537
246	0x3bf98e20	0.0076158196
247	0x3db3c8b8	0.087785184
248	0xbdbd393a	-0.09239431
249	0xbda4f72e	-0.08054958
250	0xbdaed96c	-0.08537564
251	0x3d642e74	0.055708364
252	0x3c72b730	0.014814183
253	0x3cd7d1c0	0.026345134
254	0xbaf38280	-0.0018578321
255	0x3daee696	0.085400745

fc2.main_module.bias f4 [64]
0	0x3d53d8db	0.05172048
1	0xbc882cc6	-0.016622912
2	0x3d550fc7	0.052017
3	0x3d88c2fd	0.06677816
4	0xbdc79740	-0.097456455
5	0x3b58c163	0.0033074252
6	0xbd52303b	-0.051315527
7	0xbcc89cec	-0.024488889
8	0xbd860406	-0.06543736
9	0xbd36e2a8	-0.04464975
10	0x3d902715	0.07038704
11	0x3d7df8b2	0.062004752
12	0x3dfef220	0.124485254
13	0xbbfbd020	-0.0076847225
14	0xbb78d912	-0.003797118
15	0xbd4ed030	-0.05049151
16	0x3d8072a2	0.062718645
17	0xbd44f47c	-0.04808472
18	0xbddb5846	-0.10710196
19	0x3ddc0243	0.10742619
20	0x3cdb3f31	0.02676353
21	0xbda6d207	-0.08145528
22	0xbdeb2154	-0.11480966
23	0xbb38a688	-0.0028175432
24	0x3da85cae	0.08220802
25	0x3df4b5de	0.11948751
26	0x3e06e310	0.13172555
27	0x3c1893ca	0.009312579
28	0x3d789e14	0.06069763
29	0x3d934ce6	0.071924016
30	0x3ddbe0ba	0.107362226
31	0x3d24b91e	0.040215604
32	0xbdd95e52	-0.10613693
33	0x3d0efbac	0.03490798
34	0x3c473972	0.012159692
35	0xbd26c658	-0.0407165
36	0xbe09051c	-0.13380855
37	0x3d24b3e0	0.040210605
38	0x3caf02e9	0.021363692
39	0x3caaa4cf	0.02083054
40	0xbe3d8858	-0.18509042
41	0x3d5265e2	0.051366694
42	0xbcac8150	-0.021057755
43	0x3d9b3c6c	0.07579884
44	0x3d979b96	0.074027225
45	0xbdd799f2	-0.105274096
46	0x3dd46dd1	0.10372508
47	0x3d9a89c8	0.07545811
48	0xbbd0ebc0	-0.00637576
49	0xbe2b08b8	-0.16702545
50	0xbdbd9f6c	-0.09258923
51	0xbdd4bac1	-0.10387183
52	0xbccb8254	-0.024842419
53	0xbc87afe8	-0.01656337
54	0x3da86546	0.082224414
55	0x3ca23c86	0.01980425
56	0xbdaff934	-0.085924536
57	0xbbb8b0a0	-0.0056362897
58	0x3d9fcc1a	0.07802601
59	0x3c943eb0	0.018096298
60	0x3c227cd7	0.009917459
61	0xbda71224	-0.08157757
62	0xbda6f99c	-0.08153078
63	0xbd9b5129	-0.075838394

fc2.main_module.weight f4 [64, 64]
0	0xbdf71925	-0.12065343
1	0x3c6210c0	0.013797939
2	0xbdd17a45	-0.10228399
3	0xbdf7f0cb	-0.121064745
4	0x3c23dd31	0.010001467
5	0xbd4b0324	-0.049563542
6	0xbdeac6a0	-0.11463666
7	0xbc9a26ff	-0.018817423
8	0x3d32a1d0	0.043611348
9	0x3dd624ac	0.10456213
10	0x3db5c2e6	0.088750646
11	0xbdc26c9a	-0.0949337
12	0x3d300f63	0.042983424
13	0x3d927512	0.07151236
14	0x3cb23250	0.021752506
15	0x3c580fb0	0.013187334
16	0x3db07542	0.08616115
17	0x3d5de1f9	0.054170582
18	0xbde08c38	-0.109642446
19	0x3d037b18	0.032099813
20	0x3d6c0d2e	0.057629757
21	0x3de54748	0.111952364
22	0xbdc5091f	-0.0962088
23	0xbdc2e528	-0.09516364
24	0x3ca67777	0.020320637
25	0xbd49109f	-0.049088117
26	0xbd2c7240	-0.042101145
27	0x3d45b3dd	0.048267234
28	0x3d8470f9	0.0646686
29	0x3d9d0a40	0.07667971
30	0xbd198531	-0.037480537
31	0xbcf6bf98	-0.030120656
32	0xbcb224d0	-0.02174607
33	0xbcc46149	-0.02397217
34	0xbdc1694f	-0.09443914
35	0xbd4ab11c	-0.04948531
36	0x3dc560da	0.096376136
37	0x3d8bf8b8	0.06834549
38	0x3e01d3aa	0.126784
39	0xbdc70db7	-0.09719413
40	0xbdb9804d	-0.090576746
41	0x3ddeb1ad	0.10873733
42	0x3dc1c1b8	0.09460777
43	0xbd271aa5	-0.040796895
44	0xbc1bb09c	-0.009502556
45	0x3e0023c1	0.12513639
46	0x3ce714e0	0.028208196
47	0xbbf3b56d	-0.007437399
48	0xbdf2ee76	-0.11861889
49	0xbd99cfad	-0.07510314
50	0x3df70fb2	0.120635405
51	0xbdc29a0a	-0.09502037
52	0x3cc6dc45	0.024274955
53	0xbd161ed6	-0.0366505
54	0x3ce05c88	0.027387872
55	0xbdb6bffa	-0.089233354
56	0x3d288e94	0.041151598
57	0xbd153c9e	-0.036434762
58	0x3b93e9ba	0.0045139464
59	0xbcb87928	-0.02251871
60	0x3d34e214	0.044160917
61	0x3cdac5ec	0.026705705
62	0x3dada5bf	0.08478879
63	0x3de7c6ad	0.11317191
64	0x3cffd300	0.031228542
65	0xbcf875f8	-0.03032969
66	0xbd8fb0ce	-0.07016145
67	0x3b5de9b5	0.0033861224
68	0xbcdbf8bd	-0.026852006
69	0xbdb16378	-0.0866155
70	0x3dc15ed2	0.09441914
71	0xbc724014	-0.014785785
72	0x3da457d2	0.08024563
73	0x3de1ba92	0.110219136
74	0xbdc71468	-0.09720689
75	0xbdcd153c	-0.10013816
76	0xbcf8ead3	-0.03038541
77	0x3c0a1556	0.008427938
78	0xbd4b8690	-0.049688876
79	0x3da2759c	0.079325885
80	0xbd963bcd	-0.07335625
81	0x3addc82c	0.0016920618
82	0x3d3a2a00	0.04545021
83	0x3d8be860	0.068314314
84	0xbda8558f	-0.08219444
85	0xbce42489	-0.027849453
86	0x3d0a4fdd	0.03376757
87	0xbcaafbe8	-0.020872071
88	0xbe35f188	-0.17767918
89	0xbe09dc53	-0.13462953
90	0x3da696c8	0.08134228
91	0xbcdc52a5	-0.026894877
92	0x3d291f75	0.041289765
93	0xbd90a6a0	-0.07063031
94	0x3d5c0996	0.05372008
95	0xbd34e738	-0.04416582
96	0xbc17fa30	-0.009275958
97	0xbd8ada6d	-0.06779943
98	0xbdce6ef2	-0.10079755
99	0xbdcc2cbc	-0.0996947
100	0xbbb05af3	-0.0053819357
101	0x3ccce678	0.02501224
102	0xbe3387fa	-0.1753234
103	0x3d579a8f	0.052637633
104	0xbd705e10	-0.058683455
105	0xbd98292b	-0.07429727
106	0x3cdbe4b8	0.02684246
107	0xbe115941	-0.14194204
108	0xbe20a1c4	-0.15686709
109	0xbe2e9c87	-0.17051898
110	0x3d411f04	0.04714872
111	0xbd8e2363	-0.06940343
112	0xbc233c40	-0.009963095
113	0xbe1cd102	-0.15314105
114	0xbd3eb920	-0.046563268
115	0x3ddc3ad6	0.107534096
116	0x3d4877f8	0.048942536
117	0xbde145ac	-0.10999617
118	0xbd1b9394	-0.03798254
119	0xbda32028	-0.07965118
120	0xbda96922	-0.082720056
121	0xbd8733a2	-0.06601645
122	0xbdef2c19	-0.11678333
123	0xbd347fb0	-0.044067085
124	0x3c60a840	0.013711989
125	0x3bb35b18	0.0054735057
126	0x3d0b12ce	0.03395348
127	0xbe282490	-0.16420197
128	0xbd919b89	-0.07109744
129	0xbdfdccbc	-0.123925656
130	0x3d063a1b	0.032770257
131	0xbdc3aa8b	-0.09554013
132	0xbdba1864	-0.090866834
133	0x3dcfde46	0.10149817
134	0x3daa1dc0	0.083064556
135	0xbb3d3356	-0.002886971
136	0xbd29c6e4	-0.041449443
137	0x3d83d236	0.06436579
138	0xbd122be4	-0.03568639
139	0xbd9196e6	-0.0710886
140	0xbd772ed7	-0.060347404
141	0xbe15e82b	-0.14639346
142	0xbd32a1f8	-0.043611497
143	0xbd8b416e	-0.06799589
144	0x390c9854	0.00013408187
145	0xbda4233c	-0.08014533
146	0x3d514194	0.05108793
147	0xbdfca0e0	-0.12335372
148	0xbc626275	-0.013817419
149	0xbd20f81f	-0.039299127
150	0xbe363535	-0.17793734
151	0x3dc426f2	0.09577741
152	0xbdc3d665	-0.09562377
153	0xbe46aa6b	-0.19400947
154	0x3c4ead70	0.012614593
155	0xbe2a4fde	-0.1663203
156	0x3bac4fc6	0.005258533
157	0x3cdd4928	0.027012423
158	0x3d29d336	0.041461192
159	0xbd910140	-0.070803165
160	0xbdccc59e	-0.0999863
161	0xbd564744	-0.052314058
162	0x3d1a6ea5	0.037703175
163	0x3c4cc0a0	0.012497097
164	0xbd9dea82	-0.077107444
165	0x3dd76dd6	0.105189964
166	0x3d4605c1	0.04834533
167	0xbd47233a	-0.04861758
168	0xbd728833	-0.05921192
169	0xbd1f50fa	-0.038895585
170	0x3ddcff6a	0.10790904
171	0xbd0cda8e	-0.034388117
172	0x3cda6ba4	0.026662655
173	0xbd17d43c	-0.037067637
174	0x3c133a26	0.008986032
175	0xbdb97bc9	-0.09056813
176	0x3d7b8efc	0.061415657
177	0xbd8b44e5	-0.0680025
178	0xbda21361	-0.079138525
179	0xbc048a20	-0.008089572
180	0xbe089352	-0.13337448
181	0xbdc7cf20	-0.09756303
182	0xbd11d59c	-0.035604104
183	0x3dc847de	0.097793326
184	0xbd3a0e9e	-0.045424096
185	0xbdd8b825	-0.10581998
186	0x3cdd5246	0.02701677
187	0xbdd49f1e	-0.10381912
188	0xbd1442f8	-0.03619668
189	0x3d12337b	0.035693627
190	0x3ce5df45	0.028060565
191	0xbdd05429	-0.10172302
192	0x3df73256	0.12070148
193	0x3da5f498	0.08103293
194	0x3c7ef3f4	0.015561093
195	0x3dc883cc	0.09790763
196	0xbc46328e	-0.012097014
197	0x3dffde80	0.124936104
198	0x3cb65d40	0.022261262
199	0xbd7368ac	-0.059425995
200	0x3c7c5570	0.015401229
201	0x3c81d490	0.015848428
202	0x3cb305a8	0.021853283
203	0x3cff1288	0.031136766
204	0x3c5c0ade	0.013430325
205	0x3dea2430	0.114326835
206	0x3cb77ce8	0.022398427
207	0x3d10b1bc	0.03532575
208	0x3e167bd4	0.14695674
209	0x3e158cf2	0.14604548
210	0x3de40454	0.11133638
211	0x3da49540	0.0803628
212	0x3cff8a19	0.03119378
213	0x3ce36de6	0.027762365
214	0x3d4bbdc5	0.049741525
215	0x3d4338a4	0.04766144
216	0xbc4446b6	-0.011979749
217	0xbc134f74	-0.008991111
218	0x3dede0ec	0.11615166
219	0x3d186ff7	0.037216153
220	0x3d6048fb	0.0547571
221	0xbd2e2f64	-0.042525664
222	0x3d6522ab	0.055941265
223	0xbd2653b0	-0.040607154
224	0xbd83821e	-0.06421302
225	0x3cbb69fa	0.022877682
226	0x3e1346db	0.14382498
227	0x3d70bc94	0.058773592
228	0x3b8ac32c	0.004234692
229	0xbd8c1a56	-0.06840961
230	0x3d26eec6	0.040755056
231	0x3cee44a1	0.02908546
232	0x3ce3b3d6	0.027795713
233	0x3d519edc	0.05117689
234	0x3da1fd82	0.07909681
235	0x3c5a098c	0.01330794
236	0x3bb0cdb2	0.0053956145
237	0x3e03d36b	0.12873618
238	0x3d89564e	0.067059144
239	0xbd6c5d88	-0.057706386
240	0x3c6ccbd0	0.01445289
241	0x3e1027ea	0.14077726
242	0xbab8e834	-0.0014107288
243	0x3d87fda8	0.06640178
244	0x3d99acc9	0.07503659
245	0xbda4a701	-0.08039666
246	0x3bf98e20	0.0076158196
247	0x3db3c8b8	0.087785184
248	0xbd7b565b	-0.061361652
249	0xbd58a168	-0.052888304
250	0xbd5cc986	-0.053903125
251	0x3d642e74	0.055708364
252	0x3c72b730	0.014814183
253	0x3d6c453c	0.057683215
254	0x3ce10cbe	0.027471896
255	0x3de0b899	0.10972709

fc3.dendrite_module.parent_module.weight f4 [1, 64]
0	0x3cac2f70	0.021018714
1	0xbccb5110	-0.024818927
2	0xbdb25748	-0.08708054
3	0x3dfe16a2	0.124066606
4	0x3d51c840	0.051216364
5	0xbd775cc0	-0.060391188
6	0xbddec5ee	-0.10877596
7	0xbdeacfb8	-0.114654005
8	0x3d5fab64	0.05460681
9	0xbd9a5052	-0.07534851
10	0x3d503c30	0.05083865
11	0x3d71580c	0.05892186
12	0x3df9c236	0.12195246
13	0xbda2398a	-0.07921131
14	0xbdad2c58	-0.084557235
15	0xbd236da8	-0.0398995
16	0x3c9e3d70	0.019316405
17	0xbdef6054	-0.11688295
18	0xbb491300	-0.003068149
19	0x3dd45890	0.103684545
20	0xbb30e100	-0.002698958
21	0x3d246e50	0.040144265
22	0x3d010a68	0.031504065
23	0xbc5c4d60	-0.013446182
24	0x3dd5bb5e	0.10436128
25	0xbd8897b2	-0.066695586
26	0x3dd7bbd0	0.10533869
27	0xbda6b050	-0.08139098
28	0x3dcde380	0.10053158
29	0x3dc76f54	0.09738031
30	0x3d334300	0.043765068
31	0x3db2c374	0.08728686
32	0x3cc8aa40	0.024495244
33	0xbddfdf32	-0.10931243
34	0xbb05d380	-0.0020420253
35	0x3db77d2c	0.089594215
36	0xbc742960	-0.014902443
37	0x3d2c0e18	0.04200563
38	0x3d458d38	0.04823038
39	0xbdab0b56	-0.083517715
40	0xbc8cd378	-0.01719068
41	0xbd2adf98	-0.041717142
42	0x3db4dc46	0.08831076
43	0x3d579e3c	0.05264114
44	0x3cdcb8c0	0.026943564
45	0x3d256270	0.04037708
46	0x3df94eee	0.12173258
47	0x3d483244	0.048876062
48	0xbcc81d50	-0.02442804
49	0xbdbc9e0c	-0.092098325
50	0xbdf3b808	-0.119003356
51	0xbd5e9ecc	-0.05435066
52	0xbc9eb170	-0.019371718
53	0x3d005ce4	0.031338587
54	0xbd1d92cc	-0.038470075
55	0xbc56b1c0	-0.013103902
56	0x3cc706e8	0.024295285
57	0x3d724b0c	0.0591536
58	0x3d6d9d90	0.05801159
59	0xbd24f4ec	-0.04027264
60	0x3d99fd6e	0.07519041
61	0xbde241ee	-0.11047731
62	0xbd8111aa	-0.06302197
63	0x3def965e	0.11698602

fc3.main_module.weight f4 [1, 64]
0	0x3c4bdaca	0.0124423
1	0x3d26b08e	0.04069572
2	0xbcd251d8	-0.025673792
3	0x3e00d40c	0.1258089
4	0x3d51c840	0.051216364
5	0xbc2f1bed	-0.01068781
6	0xbd5d44a2	-0.05402053
7	0xbd755839	-0.05989859
8	0x3d5fab64	0.05460681
9	0xbd9a5052	-0.07534851
10	0x3d504f44	0.050856844
11	0x3d55a6e3	0.05216111
12	0x3df9c236	0.12195246
13	0xbda2398a	-0.07921131
14	0xbcf422ee	-0.029801812
15	0xbd236da8	-0.0398995
16	0x3c9e3d70	0.019316405
17	0xbdef6054	-0.11688295
18	0xbb491300	-0.003068149
19	0x3ddc3bd1	0.107535966
20	0x3d352ded	0.04423325
21	0x3d1092f5	0.0352964
22	0x3d010a68	0.031504065
23	0x3d2933e2	0.041309245
24	0x3dd5bb5e	0.10436128
25	0xbd8897b2	-0.066695586
26	0x3dd0749b	0.10178491
27	0xbcb4e0aa	-0.022079784
28	0x3dcde380	0.10053158
29	0x3dc76f54	0.09738031
30	0x3d334300	0.043765068
31	0x3da8355e	0.08213304
32	0x3b3e2aba	0.0029017166
33	0xbddfdf32	-0.10931243
34	0x3d1626d2	0.036658116
35	0x3db77d2c	0.089594215
36	0x3d233ce2	0.039852984
37	0x3d563adf	0.052302238
38	0xbc6047fd	-0.013689038
39	0xbceb9ee0	-0.028762281
40	0x3d3e2a7c	0.046427235
41	0x3c5f4eae	0.013629599
42	0x3db4dc46	0.08831076
43	0x3d579e3c	0.05264114
44	0x3cdcb8c0	0.026943564
45	0x3d256270	0.04037708
46	0x3df6593f	0.12028741
47	0x3d5532ed	0.05205052
48	0xbcc81d50	-0.02442804
49	0xbcfc7eb6	-0.03082214
50	0xbdf3b808	-0.119003356
51	0x39d43658	0.0004047628
52	0x3d18e908	0.03733161
53	0x3d005ce4	0.031338587
54	0xbd1d92cc	-0.038470075
55	0x3d2a9ac7	0.041651513
56	0x3cc706e8	0.024295285
57	0x3d724b0c	0.0591536
58	0x3d6d9d90	0.05801159
59	0xbd24f4ec	-0.04027264
60	0x3db91aba	0.09038301
61	0xbd643ca5	-0.055721898
62	0xbd8111aa	-0.06302197
63	0x3de3af9a	0.11117478

tracker_string u1 [1396]
0	0x64	100
1	0x6f	111
2	0x69	105
3	0x6e	110
4	0x67	103
5	0x5f	95
6	0x70	112
7	0x61	97
8	0x69	105
9	0x2c	44
10	0x54	84
11	0x72	114
12	0x75	117
13	0x65	101
14	0x0a	10
15	0x6e	110
16	0x75	117
17	0x6d	109
18	0x5f	95
19	0x64	100
20	0x65	101
21	0x6e	110
22	0x64	100
23	0x72	114
24	0x69	105
25	0x74	116
26	0x65	101
27	0x73	115
28	0x5f	95
29	0x61	97
30	0x64	100
31	0x64	100
32	0x65	101
33	0x64	100
34	0x2c	44
35	0x30	48
36	0x0a	10
37	0x6e	110
38	0x75	117
39	0x6d	109
40	0x5f	95
41	0x63	99
42	0x79	121
43	0x63	99
44	0x6c	108
45	0x65	101
46	0x73	115
47	0x2c	44
48	0x30	48
49	0x0a	10
50	0x6d	109
51	0x6f	111
52	0x64	100
53	0x65	101
54	0x2c	44
55	0x6e	110
56	0x0a	10
57	0x6e	110
58	0x75	117
59	0x6d	109
60	0x5f	95
61	0x65	101
62	0x70	112
63	0x6f	111
64	0x63	99
65	0x68	104
66	0x73	115
67	0x5f	95
68	0x72	114
69	0x75	117
70	0x6e	110
71	0x2c	44
72	0x30	48
73	0x0a	10
74	0x74	116
75	0x6f	111
76	0x74	116
77	0x61	97
78	0x6c	108
79	0x5f	95
80	0x65	101
81	0x70	112
82	0x6f	111
83	0x63	99
84	0x68	104
85	0x73	115
86	0x5f	95
87	0x72	114
88	0x75	117
89	0x6e	110
90	0x2c	44
91	0x30	48
92	0x0a	10
93	0x65	101
94	0x70	112
95	0x6f	111
96	0x63	99
97	0x68	104
98	0x5f	95
99	0x6c	108
100	0x61	97
101	0x73	115
102	0x74	116
103	0x5f	95
104	0x69	105
105	0x6d	109
106	0x70	112
107	0x72	114
108	0x6f	111
109	0x76	118
110	0x65	101
111	0x64	100
112	0x2c	44
113	0x30	48
114	0x0a	10
115	0x72	114
116	0x75	117
117	0x6e	110
118	0x6e	110
119	0x69	105
120	0x6e	110
121	0x67	103
122	0x5f	95
123	0x61	97
124	0x63	99
125	0x63	99
126	0x75	117
127	0x72	114
128	0x61	97
129	0x63	99
130	0x79	121
131	0x2c	44
132	0x39	57
133	0x38	56
134	0x38	56
135	0x2e	46
136	0x33	51
137	0x37	55
138	0x38	56
139	0x32	50
140	0x33	51
141	0x34	52
142	0x39	57
143	0x37	55
144	0x36	54
145	0x30	48
146	0x31	49
147	0x31	49
148	0x38	56
149	0x0a	10
150	0x6d	109
151	0x61	97
152	0x78	120
153	0x69	105
154	0x6d	109
155	0x69	105
156	0x7a	122
157	0x69	105
158	0x6e	110
159	0x67	103
160	0x5f	95
161	0x73	115
162	0x63	99
163	0x6f	111
164	0x72	114
165	0x65	101
166	0x2c	44
167	0x46	70
168	0x61	97
169	0x6c	108
170	0x73	115
171	0x65	101
172	0x0a	10
173	0x73	115
174	0x77	119
175	0x69	105
176	0x74	116
177	0x63	99
178	0x68	104
179	0x5f	95
180	0x6d	109
181	0x6f	111
182	0x64	100
183	0x65	101
184	0x2c	44
185	0x30	48
186	0x0a	10
187	0x6c	108
188	0x61	97
189	0x73	115
190	0x74	116
191	0x5f	95
192	0x73	115
193	0x77	119
194	0x69	105
195	0x74	116
196	0x63	99
197	0x68	104
198	0x2c	44
199	0x30	48
200	0x0a	10
201	0x63	99
202	0x75	117
203	0x72	114
204	0x72	114
205	0x65	101
206	0x6e	110
207	0x74	116
208	0x5f	95
209	0x62	98
210	0x65	101
211	0x73	115
212	0x74	116
213	0x5f	95
214	0x76	118
215	0x61	97
216	0x6c	108
217	0x69	105
218	0x64	100
219	0x61	97
220	0x74	116
221	0x69	105
222	0x6f	111
223	0x6e	110
224	0x5f	95
225	0x73	115
226	0x63	99
227	0x6f	111
228	0x72	114
229	0x65	101
230	0x2c	44
231	0x39	57
232	0x38	56
233	0x38	56
234	0x2e	46
235	0x33	51
236	0x37	55
237	0x38	56
238	0x32	50
239	0x33	51
240	0x34	52
241	0x39	57
242	0x37	55
243	0x36	54
244	0x30	48
245	0x31	49
246	0x31	49
247	0x38	56
248	0x0a	10
249	0x69	105
250	0x6e	110
251	0x69	105
252	0x74	116
253	0x69	105
254	0x61	97
255	0x6c	108
