backend/forecast_run_1767084234/best_model.pt (safetensors, 40254 bytes, 11 tensors)

fc1.dendrite_module.parent_module.bias f4 [64]
0	0xbf10948a	-0.5647665
1	0x3e3d8fa8	0.18511832
2	0xbf2084ca	-0.6270262
3	0x3e3edec8	0.18639672
4	0xbda78a50	-0.08180678
5	0xbe1a2790	-0.15054154
6	0x3e0ffe40	0.14061832
7	0xbf37dd5a	-0.7182213
8	0xbd5715e0	-0.052511096
9	0xbf545f98	-0.82958364
10	0xbf7d9272	-0.9905158
11	0xbf6bb43e	-0.920719
12	0xbf0a25b0	-0.53963757
13	0x3ee3d810	0.4450078
14	0x3f256174	0.64601827
15	0xbedc2a30	-0.43000937
16	0x3e0252b0	0.12726855
17	0xbe486540	-0.19569874
18	0xbf6d5b56	-0.9271749
19	0xbf591caa	-0.8480936
20	0xbc0de180	-0.00865972
21	0x3f655de2	0.8959638
22	0x3f1b59fa	0.6068417
23	0xbea424a4	-0.32059205
24	0xbf73836c	-0.9512241
25	0x3cb28080	0.02178979
26	0xbf577d1e	-0.8417529
27	0xbf064902	-0.5245515
28	0xbeb46bd0	-0.35238504
29	0xbeea777c	-0.45794284
30	0x3f74b878	0.95593977
31	0x3f79cbd2	0.9757663
32	0x3f1891b8	0.5959735
33	0x3ccfb680	0.025355577
34	0x3f1c203a	0.60986674
35	0x3e8b3be0	0.27194118
36	0xbf22191a	-0.6331955
37	0xbf018162	-0.5058805
38	0xbf501836	-0.8128694
39	0x3ef31374	0.4747578
40	0x3e20d1e0	0.15705061
41	0xbeaee734	-0.3416077
42	0x3f448828	0.7677026
43	0xbf7bdb5a	-0.9838158
44	0xbe3288d8	-0.17435014
45	0xbf761eba	-0.96140635
46	0xbf03b43e	-0.514469
47	0x3e373178	0.17889965
48	0xbf0a8ed8	-0.5412421
49	0xbf0db872	-0.55359566
50	0x3f293822	0.66101277
51	0x3f0f9c36	0.56097734
52	0x3f3a4b60	0.72771263
53	0x3eff9e00	0.49925232
54	0x3e90a9c0	0.2825451
55	0x3e8aac00	0.2708435
56	0x3f722adc	0.9459665
57	0xbe9d5830	-0.30731344
58	0xbea0915c	-0.313609
59	0xbec21448	-0.37906098
60	0xbea57388	-0.32314706
61	0x3ef4cf2c	0.4781431
62	0xbf67c6be	-0.9053763
63	0xbd5c0f00	-0.053725243

fc1.dendrite_module.parent_module.weight f4 [64, 1]
0	0x3ed57114	0.41687834
1	0x3ec83044	0.39099324
2	0xbf1add36	-0.6049379
3	0x3f55aed0	0.8346987
4	0xbde116b0	-0.109906554
5	0xbe84f1d4	-0.2596575
6	0x3dd738d0	0.10508883
7	0xbec51e28	-0.3849957
8	0x3f094ea0	0.536356
9	0x3c3d3a80	0.011549592
10	0xbeef7ab4	-0.46773303
11	0xbebdc1c0	-0.37061882
12	0xbf55ec0e	-0.83563316
13	0xbeb9e18c	-0.3630489
14	0x3f167412	0.5877086
15	0x3ecbb808	0.39788842
16	0xbf6b8dc6	-0.92013204
17	0x3f6b7d02	0.9198762
18	0xbf45b89c	-0.77234817
19	0xbf23ac3c	-0.63934684
20	0x3f1466ce	0.5796937
21	0xbf21fafa	-0.63273585
22	0xbf50ff14	-0.8163922
23	0xbf2f1464	-0.6839049
24	0xbed70a64	-0.42000115
25	0xbf509582	-0.8147813
26	0xbf10c9e6	-0.5655807
27	0x3ea0dbe8	0.31417775
28	0x3f0621ce	0.5239533
29	0xbf174dec	-0.59103274
30	0x3f302986	0.6881336
31	0xbe8eb3a4	-0.2787143
32	0xbee76d38	-0.45200515
33	0x3f3c3c8c	0.7352989
34	0x3f44261c	0.7662065
35	0xbe867b60	-0.26266003
36	0x3f378edc	0.7170236
37	0xbf11546e	-0.56769454
38	0xbf4d1f90	-0.80126286
39	0x3f091e16	0.5356153
40	0xbd36fe60	-0.044676185
41	0x3e9766dc	0.29570663
42	0x3f03d254	0.5149281
43	0x3e4dd5d0	0.20101094
44	0x3e831490	0.25601625
45	0x3ee0b9e0	0.4389181
46	0x3d86ac50	0.06575835
47	0x3f6eeca0	0.9332981
48	0xbf7a4f7c	-0.97777534
49	0x3e98e308	0.2986071
50	0xbf4b9c38	-0.79535246
51	0xbf55f938	-0.835834
52	0x3eb18f6c	0.34679735
53	0xbd111500	-0.035420418
54	0x3ed801c8	0.4218886
55	0x3ecfe8ec	0.40607393
56	0xbed7abb4	-0.42123187
57	0x3e2bb320	0.1676755
58	0xbf51ffb8	-0.8203082
59	0xbf41e712	-0.7574321
60	0xbe8b9930	-0.2726531
61	0x3b9d7b00	0.0048059225
62	0xbe341340	-0.17585468
63	0xbf3eb8d4	-0.74500775

fc1.main_module.bias f4 [64]
0	0xbf2422b3	-0.64115447
1	0x3d98d25c	0.07461998
2	0xbf2084ca	-0.6270262
3	0x3da72ce3	0.08162858
4	0xbda78a50	-0.08180678
5	0xbe1a2790	-0.15054154
6	0x3c9d4f71	0.01920292
7	0xbf37dd5a	-0.7182213
8	0xbe39838b	-0.18116586
9	0xbf62640b	-0.88433903
10	0xbf7d9272	-0.9905158
11	0xbf6bb43e	-0.920719
12	0xbf0a25b0	-0.53963757
13	0x3ee3d810	0.4450078
14	0x3f04fdb6	0.5194963
15	0xbee81ea0	-0.45335865
16	0x3e0252b0	0.12726855
17	0xbe88e802	-0.26739508
18	0xbf6d5b56	-0.9271749
19	0xbf591caa	-0.8480936
20	0xbd0cccfe	-0.034375183
21	0x3f655de2	0.8959638
22	0x3f1b59fa	0.6068417
23	0xbea424a4	-0.32059205
24	0xbf73836c	-0.9512241
25	0x3cb28080	0.02178979
26	0xbf577d1e	-0.8417529
27	0xbf03e3f9	-0.51519734
28	0xbeae2919	-0.3401573
29	0xbeea777c	-0.45794284
30	0x3f776ed9	0.96653515
31	0x3f79cbd2	0.9757663
32	0x3f1891b8	0.5959735
33	0x3cb653f2	0.022256825
34	0x3f057f08	0.5214696
35	0x3e8b3be0	0.27194118
36	0xbf3550c6	-0.70826375
37	0xbf018162	-0.5058805
38	0xbf501836	-0.8128694
39	0x3eca5f17	0.39525673
40	0x3e20d1e0	0.15705061
41	0xbeb5f9fb	-0.35542282
42	0x3f2e28ab	0.68030804
43	0xbf7fc0f6	-0.9990381
44	0xbe837870	-0.25677824
45	0xbf75857e	-0.9590682
46	0xbf0546ec	-0.52061343
47	0x3dea3311	0.114355214
48	0xbf0a8ed8	-0.5412421
49	0xbf149607	-0.58041424
50	0x3f293822	0.66101277
51	0x3f0f9c36	0.56097734
52	0x3f363c95	0.7118619
53	0x3eff9e00	0.49925232
54	0x3e330260	0.17481375
55	0x3e8403f7	0.25784275
56	0x3f722adc	0.9459665
57	0xbedd69a5	-0.43244663
58	0xbea0915c	-0.313609
59	0xbec21448	-0.37906098
60	0xbea57388	-0.32314706
61	0x3ef89069	0.48547676
62	0xbf67c6be	-0.9053763
63	0xbd5c0f00	-0.053725243

fc1.main_module.weight f4 [64, 1]
0	0x3eae0105	0.33985153
1	0x3e93a027	0.28833124
2	0xbf1add36	-0.6049379
3	0x3f3bb849	0.7332807
4	0xbde116b0	-0.109906554
5	0xbe84f1d4	-0.2596575
6	0xbc9725e6	-0.018450689
7	0xbec51e28	-0.3849957
8	0x3ecffec6	0.40624064
9	0xbd30f89a	-0.043205835
10	0xbeef7ab4	-0.46773303
11	0xbebdc1c0	-0.37061882
12	0xbf55ec0e	-0.83563316
13	0xbeb9e18c	-0.3630489
14	0x3eecd826	0.46258658
15	0x3ec2c05a	0.38037378
16	0xbf6b8dc6	-0.92013204
17	0x3f5995f5	0.8499444
18	0xbf45b89c	-0.77234817
19	0xbf23ac3c	-0.63934684
20	0x3f0ecca5	0.5578101
21	0xbf21fafa	-0.63273585
22	0xbf50ff14	-0.8163922
23	0xbf2f1464	-0.6839049
24	0xbed70a64	-0.42000115
25	0xbf509582	-0.8147813
26	0xbf10c9e6	-0.5655807
27	0x3eab8312	0.33498436
28	0x3f0c707c	0.5485914
29	0xbf174dec	-0.59103274
30	0x3f35c80a	0.7100836
31	0xbe8eb3a4	-0.2787143
32	0xbee76d38	-0.45200515
33	0x3f3d8f2c	0.7404659
34	0x3f2e5a36	0.681064
35	0xbe867b60	-0.26266003
36	0x3f24b6ae	0.6434125
37	0xbf11546e	-0.56769454
38	0xbf4d1f90	-0.80126286
39	0x3eea5fbd	0.45776168
40	0xbd36fe60	-0.044676185
41	0x3e946476	0.28982896
42	0x3eddffbd	0.43359175
43	0x3e475a0a	0.19467941
44	0x3e3104fe	0.1728706
45	0x3ee6fffd	0.4511718
46	0x3d8ecd7b	0.06972786
47	0x3f5ec69b	0.870218
48	0xbf7a4f7c	-0.97777534
49	0x3e906678	0.28203177
50	0xbf4b9c38	-0.79535246
51	0xbf55f938	-0.835834
52	0x3ead4503	0.33841714
53	0xbd111500	-0.035420418
54	0x3ea499b5	0.3214852
55	0x3eccd167	0.4000351
56	0xbed7abb4	-0.42123187
57	0x3d2841a3	0.04107822
58	0xbf51ffb8	-0.8203082
59	0xbf41e712	-0.7574321
60	0xbe8b9930	-0.2726531
61	0x3cdd56fb	0.027019015
62	0xbe341340	-0.17585468
63	0xbf3eb8d4	-0.74500775

fc2.dendrite_module.parent_module.bias f4 [64]
0	0xbda78ab4	-0.081807524
1	0x3cb53580	0.022120237
2	0xbd965dd2	-0.073421136
3	0x3de8260a	0.113353804
4	0xbdd0b684	-0.10191062
5	0xbdb2a1b4	-0.08722249
6	0xbdb9794e	-0.0905634
7	0x3c21d060	0.009876341
8	0xbd3d3c64	-0.04620017
9	0x3d035160	0.032060027
10	0xbd633320	-0.05546868
11	0x3ccf6028	0.025314406
12	0x3c915f10	0.017745525
13	0x3d87a3bc	0.06623027
14	0x3db7e8c2	0.08979942
15	0xbd6b01d4	-0.05737479
16	0xbdc43d1c	-0.09581968
17	0xbd4b0150	-0.0495618
18	0xbdce3c7c	-0.1007013
19	0xbd5c8794	-0.053840235
20	0x3b04e440	0.002027765
21	0xbda09d94	-0.07842556
22	0x3df39fa0	0.118956804
23	0x3c80eb90	0.015737325
24	0xbca61828	-0.02027519
25	0xbbe8a7e0	-0.0071000904
26	0xbd3be498	-0.0458723
27	0x3ca19bf0	0.019727677
28	0xbce6d560	-0.028177917
29	0xbda6dbc4	-0.08147386
30	0x3ddd1d14	0.10796562
31	0xbdb748a2	-0.089494005
32	0xbda655be	-0.08121823
33	0xbd0e2ef4	-0.034712747
34	0x3d947f52	0.07250847
35	0x3db83488	0.089943945
36	0x3db67d86	0.089106604
37	0x3dce8cd4	0.100854546
38	0x3d03eb5c	0.032206878
39	0xbdf01c34	-0.11724129
40	0x3df83940	0.121202946
41	0xbd94d1e6	-0.072665974
42	0xbdf0b846	-0.11753897
43	0x3de66c14	0.11251083
44	0xbdbe949a	-0.09305687
45	0x3dbcd618	0.09220523
46	0x3dc9e5ac	0.098582596
47	0xbdfe5378	-0.12418264
48	0xbde0802c	-0.10961947
49	0x3c8c6fc8	0.017143145
50	0xbc298bf0	-0.010348305
51	0xbd217088	-0.03941396
52	0xbdf682c6	-0.12036662
53	0xbdcf55b0	-0.101237655
54	0x3d182a58	0.037149757
55	0xbaf9cf00	-0.0019058883
56	0x3da51f28	0.08062583
57	0x3c971ff8	0.018447861
58	0x3dbc8580	0.092051506
59	0xbd9070a6	-0.07052736
60	0x3d14d1c4	0.03633286
61	0x3dc967e4	0.09834269
62	0xbdd5c092	-0.104371205
63	0xbcbee488	-0.023302332

fc2.dendrite_module.parent_module.weight f4 [64, 64]
0	0xbddb01fc	-0.10693738
1	0xbdfee814	-0.12446609
2	0x3b922f60	0.004461214
3	0x3d3bb2c8	0.045824796
4	0xbdf6678c	-0.12031469
5	0xbcd186c0	-0.02557695
6	0xbd3db4a8	-0.046314865
7	0xbd8c102e	-0.068390235
8	0xbcabd518	-0.020975634
9	0xbdaf379a	-0.08555527
10	0x3d919aa6	0.07109575
11	0xbd05cbb0	-0.032664955
12	0xbca8f0a8	-0.020622566
13	0x3da6d81e	0.0814669
14	0x3c1b7270	0.009487733
15	0xbd211ec8	-0.039335996
16	0x3d2489d0	0.04017049
17	0x3df8d634	0.12150231
18	0xbdcebf72	-0.10095109
19	0x3dd6ec66	0.10494308
20	0xbddb16e8	-0.106977284
21	0xbdf8265c	-0.121166915
22	0x3d1daea8	0.038496643
23	0xbbc9d820	-0.0061597973
24	0xbc133c10	-0.008986488
25	0x3db964c6	0.09052424
26	0xbdd024e0	-0.10163283
27	0xbdea1ee6	-0.11431675
28	0x3d975ce2	0.07390763
29	0x3d8be8b8	0.06831497
30	0x3db51be8	0.08843213
31	0xbd268a98	-0.040659517
32	0xbdae0d8e	-0.08498679
33	0xbbc19e40	-0.0059087574
34	0x3c48c170	0.01225315
35	0x3d84c652	0.06483139
36	0x3d9874a8	0.074441254
37	0xbd85b4f0	-0.06528652
38	0x3ddbbc2a	0.10729249
39	0xbdd03710	-0.10166752
40	0x3c968e20	0.018378317
41	0x3c664380	0.014054179
42	0xbdd8f5d0	-0.1059376
43	0xbccbbe20	-0.024870932
44	0xbdb7fe98	-0.08984107
45	0x3de43380	0.11142635
46	0xbd669248	-0.05629185
47	0x3da1d9a4	0.0790284
48	0x3dc2bb22	0.09508349
49	0xbd80c4e0	-0.06287551
50	0xbd84e342	-0.064886585
51	0x3deaf656	0.11472766
52	0x3d59766c	0.05309145
53	0xbcd0a350	-0.025468498
54	0xbd84f20e	-0.06491481
55	0xbdb28fda	-0.08718844
56	0x3c980be0	0.01856035
57	0xbd509304	-0.050921455
58	0xbc88c208	-0.016694084
59	0x3d1a452c	0.037663624
60	0x3ded207a	0.1157846
61	0x3dffa4ae	0.12482582
62	0x3d00c4a4	0.03143753
63	0x3dd26c82	0.102746025
64	0xbc369d30	-0.011145875
65	0xbdb9259c	-0.090403765
66	0xbd8d589a	-0.06901665
67	0x3b41cbc0	0.0029570907
68	0x3ddb0268	0.10693818
69	0x3d837e0c	0.06420526
70	0x39afd000	0.00033533573
71	0x3c793c10	0.015212074
72	0x3d8d8822	0.06910731
73	0x3dd3e2a4	0.10345963
74	0xbded7774	-0.115950495
75	0x3d782b84	0.060588375
76	0xbd6d11f0	-0.057878435
77	0xbd427a0c	-0.047479674
78	0x3dad316c	0.08456692
79	0x3cca4bc0	0.024694324
80	0xbd4c0714	-0.049811438
81	0xbddfa7a8	-0.1092065
82	0xbd38d74c	-0.045127198
83	0xbd422fe4	-0.047408953
84	0x3dbe81c6	0.09302096
85	0xbde21fe8	-0.11041242
86	0x3da26430	0.079292655
87	0xbd2152d4	-0.03938563
88	0xbde2defc	-0.11077687
89	0xbcb52b70	-0.02211544
90	0x3d636818	0.055519193
91	0xbb8d9a20	-0.0043213516
92	0xbd92921c	-0.071567744
93	0x3dea30d2	0.11435093
94	0xbde2a564	-0.11066702
95	0xbb7ed540	-0.003888443
96	0x3d19c1f4	0.037538484
97	0x3d0bb080	0.03410387
98	0xbdf88650	-0.12134993
99	0xbd8658e0	-0.0655992
100	0xbd15ce70	-0.036573827
101	0xbd703444	-0.058643594
102	0x3d4632b0	0.048388183
103	0x3d1f1194	0.038835123
104	0x3d82421a	0.06360264
105	0x3c9647f0	0.01834485
106	0xbd3cfeac	-0.04614131
107	0x3dc4162a	0.0957454
108	0xbdd457b4	-0.103682905
109	0x3c460e10	0.012088314
110	0xbd571354	-0.052508667
111	0xbd33604c	-0.043793008
112	0x3dc3c0bc	0.095582455
113	0xbd769a9c	-0.06020604
114	0x3da83b64	0.08214453
115	0x3d101a04	0.03518106
116	0x3da9889a	0.08278008
117	0x3d791a58	0.06081614
118	0xbbc2c440	-0.005943805
119	0xbdc99850	-0.098435044
120	0xbdf89fea	-0.12139876
121	0x3d9387a0	0.07203603
122	0xbd41a00c	-0.047271773
123	0x3df0e4fa	0.11762424
124	0xbda14e3e	-0.07876252
125	0xbd9d37fa	-0.07676692
126	0xbdbbdcee	-0.09172998
127	0x3c9adc50	0.018903881
128	0x3dcf5a6e	0.1012467
129	0xbde2de66	-0.110775754
130	0x3cdf0428	0.027223662
131	0xbd6cd508	-0.05782035
132	0xbdbdcb1c	-0.09267256
133	0xbd22da44	-0.039758936
134	0xbd6f863c	-0.058477625
135	0xbcba7140	-0.02275908
136	0xbcf85828	-0.030315474
137	0x3cfb0440	0.030641675
138	0x3dc56e84	0.0964022
139	0x3c88f078	0.016716227
140	0xbcee4fa0	-0.029090703
141	0xbd3b3558	-0.04570517
142	0xbd8aacd6	-0.06771247
143	0xbde8090c	-0.113298506
144	0xbd6ab6c8	-0.05730322
145	0x3d91fb38	0.07127994
146	0xbdca4610	-0.098766446
147	0xbde06f9c	-0.10958788
148	0x3d4fc584	0.050725475
149	0x3ca06148	0.019577637
150	0x3cec9c00	0.02888298
151	0x3dc70a8e	0.0971881
152	0x3ceb1e18	0.028700873
153	0xbdafa38e	-0.085761175
154	0x3ca2e230	0.019883245
155	0xbdcd77f4	-0.10032645
156	0xbb0996c0	-0.0020994395
157	0x3dc3e168	0.09564477
158	0x3db81c44	0.08989766
159	0xbdfad52c	-0.122476906
160	0xbd28d1ec	-0.041215822
161	0xbdb60770	-0.08888137
162	0xbdb9da2e	-0.090748176
163	0xbdf7aff4	-0.12094107
164	0x3dfab38e	0.122412786
165	0x3d30d76c	0.043174192
166	0xbc95b498	-0.01827459
167	0x3ccf19d8	0.025280878
168	0xbda10158	-0.078615844
169	0x3d072ca4	0.033001557
170	0xbdad0b34	-0.084494025
171	0xbdd61e7a	-0.10455032
172	0x3d0e7da8	0.034787804
173	0xbdd84448	-0.105598986
174	0xbde82c1c	-0.11336538
175	0x3c960fa0	0.018317997
176	0x3d67083c	0.056404337
177	0xbca5e8a8	-0.02025254
178	0xbdb97d88	-0.09057146
179	0xbdf17d52	-0.11791481
180	0xbcda9a70	-0.02668497
181	0xbd8db986	-0.069201514
182	0x3d5f84e8	0.05457011
183	0x3dd28518	0.10279292
184	0xbba915e0	-0.0051600784
185	0xbc910f40	-0.017707467
186	0xbddb73a8	-0.10715419
187	0xbba84f40	-0.0051364005
188	0x3d4f44f8	0.050602883
189	0x3d805400	0.06266022
190	0x3d0dd36c	0.034625456
191	0x3dd5c2fa	0.104375795
192	0xbcffa010	-0.031204253
193	0x3dce91d2	0.10086407
194	0x3d1ed77c	0.03877972
195	0xbdbe95ee	-0.093059406
196	0x3c705380	0.014668345
197	0x3b709480	0.0036709607
198	0x3b7a6780	0.0038208663
199	0xbc17c830	-0.009264037
200	0xbdc4ac32	-0.09603156
201	0xbda42c36	-0.08016245
202	0xbd23d760	-0.04000032
203	0x3da2f81c	0.07957479
204	0x3d377904	0.044793144
205	0xbd11bdf4	-0.035581544
206	0x3dbaecd8	0.091272056
207	0x3d00c4f0	0.031437814
208	0xbd73c390	-0.059512675
209	0x3dadceb2	0.084866896
210	0x3d7229a0	0.059121728
211	0x3cfd25f8	0.030901894
212	0xbb80ac40	-0.003926784
213	0x3dad7e12	0.08471312
214	0x3ccae848	0.024768963
215	0x3d1591a0	0.036515832
216	0xbdc90bde	-0.098167166
217	0x3db24318	0.08704203
218	0x3d678b28	0.056529194
219	0xbdfe17dc	-0.124068946
220	0xbdd8191a	-0.10551663
221	0x3dfc308e	0.123139486
222	0xba2b3700	-0.0006531328
223	0x3db3983e	0.08769272
224	0x3d72d850	0.059288323
225	0xbdd4bf04	-0.10387996
226	0x3dca4744	0.09876874
227	0x3ca9baa0	0.020718873
228	0xbd97ee94	-0.07418552
229	0xbd9534b6	-0.072854444
230	0xbd8e99b4	-0.0696291
231	0x3df4543a	0.119301274
232	0xbdeff408	-0.11716467
233	0xbd841fac	-0.064513534
234	0x3dac9dc0	0.08428526
235	0x3dd6996c	0.10478482
236	0x3d25325c	0.04033123
237	0x3b5aaa80	0.0033365786
238	0x3d3ecb84	0.046580806
239	0xbbaee280	-0.0053370595
240	0x3de580be	0.11206196
241	0xbda847da	-0.082168296
242	0x3dabaacc	0.08382186
243	0x3d68f9c4	0.05687882
244	0x3cde7a18	0.027157828
245	0xbdf873c4	-0.121314555
246	0x3dc46440	0.09589434
247	0x3ccef7b8	0.025264606
248	0xbca70990	-0.020390302
249	0x3ce62188	0.02809216
250	0x3d98c4ac	0.07459387
251	0x3df213be	0.11820172
252	0x3daf83b0	0.08570039
253	0x3d89ee0e	0.067348585
254	0x3de66e18	0.112514675
255	0x3d87dbd2	0.06633724

fc2.main_module.bias f4 [64]
0	0xbd2b0b1f	-0.041758653
1	0x3cb53580	0.022120237
2	0xbd965dd2	-0.073421136
3	0x3d7004dc	0.058598384
4	0xbdad4b09	-0.084615774
5	0xbe25085a	-0.16116467
6	0xbdb9794e	-0.0905634
7	0xbd95c7e8	-0.0731352
8	0xbd23e4a9	-0.04001299
9	0x3d8087fd	0.06275938
10	0xbde1bd2b	-0.11022409
11	0x3ccf6028	0.025314406
12	0x3d560a0b	0.05225567
13	0x3d893937	0.06700366
14	0x3d0f8a4a	0.035043992
15	0xbde5a485	-0.1121302
16	0xbe1a305b	-0.15057509
17	0xbd4b0150	-0.0495618
18	0xbd7408d2	-0.059578724
19	0xbdde6765	-0.10859565
20	0x3d26c17e	0.040711872
21	0xbe17957c	-0.14803118
22	0x3df39fa0	0.118956804
23	0x3c80eb90	0.015737325
24	0x3aaa0b61	0.0012973362
25	0xbd7d5c32	-0.061855502
26	0xbd3be498	-0.0458723
27	0x3ca19bf0	0.019727677
28	0xbda9d8f4	-0.08293334
29	0xbd72bec2	-0.059263952
30	0x3ddd1d14	0.10796562
31	0xbdb748a2	-0.089494005
32	0xbda655be	-0.08121823
33	0xbdb73b16	-0.089468166
34	0x3daf2a24	0.085529596
35	0x3db83488	0.089943945
36	0x3db67d86	0.089106604
37	0x3dce8cd4	0.100854546
38	0x3d03eb5c	0.032206878
39	0xbdf01c34	-0.11724129
40	0x3df83940	0.121202946
41	0xbd07ed52	-0.03318531
42	0xbdd882eb	-0.105718456
43	0x3de66c14	0.11251083
44	0xbdc18f24	-0.0945113
45	0x3c046867	0.008081532
46	0x3da32507	0.07966047
47	0xbdfe5378	-0.12418264
48	0xbde0802c	-0.10961947
49	0x3c8c6fc8	0.017143145
50	0x3ccbcce0	0.024877965
51	0xbd217088	-0.03941396
52	0xbdf682c6	-0.12036662
53	0xbdcf55b0	-0.101237655
54	0x3d182a58	0.037149757
55	0xbaf9cf00	-0.0019058883
56	0x3ddaf5c8	0.1069141
57	0x3c971ff8	0.018447861
58	0x3e07a5f6	0.13246903
59	0xbd9070a6	-0.07052736
60	0x3cb738ec	0.02236601
61	0x3dabb629	0.08384354
62	0xbda78b9d	-0.08180926
63	0xbd9fdcbd	-0.07805774

fc2.main_module.weight f4 [64, 64]
0	0xbd6bd16c	-0.057572767
1	0xbd944fdd	-0.07241795
2	0x3b922f60	0.004461214
3	0x3dc583a8	0.09644252
4	0xbdf6678c	-0.12031469
5	0xbcd186c0	-0.02557695
6	0x3c2d3526	0.010571754
7	0xbd8c102e	-0.068390235
8	0x3cfd3b04	0.03091193
9	0xbcfc4ff1	-0.030799838
10	0x3d919aa6	0.07109575
11	0xbd05cbb0	-0.032664955
12	0xbca8f0a8	-0.020622566
13	0x3da6d81e	0.0814669
14	0x3d79f3f9	0.061023686
15	0x3c00eb97	0.007868669
16	0x3d2489d0	0.04017049
17	0x3e2f5c04	0.17124945
18	0xbdcebf72	-0.10095109
19	0x3dd6ec66	0.10494308
20	0xbd724303	-0.05914594
21	0xbdf8265c	-0.121166915
22	0x3d1daea8	0.038496643
23	0xbbc9d820	-0.0061597973
24	0xbc133c10	-0.008986488
25	0x3db964c6	0.09052424
26	0xbdd024e0	-0.10163283
27	0xbd8bcc7d	-0.068261124
28	0x3df8fce7	0.12157612
29	0x3d8be8b8	0.06831497
30	0x3e0bb56a	0.13643423
31	0xbd268a98	-0.040659517
32	0xbdae0d8e	-0.08498679
33	0x3d2d1630	0.042257488
34	0x3d7ffba2	0.062495835
35	0x3d84c652	0.06483139
36	0x3dfe9f28	0.124327004
37	0xbd85b4f0	-0.06528652
38	0x3ddbbc2a	0.10729249
39	0xbd548058	-0.05188021
40	0x3c968e20	0.018378317
41	0x3d754aec	0.059885904
42	0xbd5e3932	-0.054253764
43	0x3c9c233b	0.019059768
44	0xbd25c617	-0.040472116
45	0x3e226332	0.15858153
46	0xbcbf5ab5	-0.023358682
47	0x3e0399d0	0.12851644
48	0x3dc2bb22	0.09508349
49	0xbc7dcb9b	-0.015490438
50	0xbd84e342	-0.064886585
51	0x3deaf656	0.11472766
52	0x3dcb455a	0.09925337
53	0xbcd0a350	-0.025468498
54	0xbc5728ae	-0.013132257
55	0xbd258d67	-0.040418055
56	0x3c980be0	0.01856035
57	0x3bbae453	0.005703488
58	0xbc88c208	-0.016694084
59	0x3d1a452c	0.037663624
60	0x3ded207a	0.1157846
61	0x3dfa4cc3	0.122216724
62	0x3d00c4a4	0.03143753
63	0x3dd26c82	0.102746025
64	0xbc369d30	-0.011145875
65	0xbdb9259c	-0.090403765
66	0xbd8d589a	-0.06901665
67	0x3b41cbc0	0.0029570907
68	0x3ddb0268	0.10693818
69	0x3d837e0c	0.06420526
70	0x39afd000	0.00033533573
71	0x3c793c10	0.015212074
72	0x3d8d8822	0.06910731
73	0x3dd3e2a4	0.10345963
74	0xbded7774	-0.115950495
75	0x3d782b84	0.060588375
76	0xbd6d11f0	-0.057878435
77	0xbd427a0c	-0.047479674
78	0x3dad316c	0.08456692
79	0x3cca4bc0	0.024694324
80	0xbd4c0714	-0.049811438
81	0xbddfa7a8	-0.1092065
82	0xbd38d74c	-0.045127198
83	0xbd422fe4	-0.047408953
84	0x3dbe81c6	0.09302096
85	0xbde21fe8	-0.11041242
86	0x3da26430	0.079292655
87	0xbd2152d4	-0.03938563
88	0xbde2defc	-0.11077687
89	0xbcb52b70	-0.02211544
90	0x3d636818	0.055519193
91	0xbb8d9a20	-0.0043213516
92	0xbd92921c	-0.071567744
93	0x3dea30d2	0.11435093
94	0xbde2a564	-0.11066702
95	0xbb7ed540	-0.003888443
96	0x3d19c1f4	0.037538484
97	0x3d0bb080	0.03410387
98	0xbdf88650	-0.12134993
99	0xbd8658e0	-0.0655992
100	0xbd15ce70	-0.036573827
101	0xbd703444	-0.058643594
102	0x3d4632b0	0.048388183
103	0x3d1f1194	0.038835123
104	0x3d82421a	0.06360264
105	0x3c9647f0	0.01834485
106	0xbd3cfeac	-0.04614131
107	0x3dc4162a	0.0957454
108	0xbdd457b4	-0.103682905
109	0x3c460e10	0.012088314
110	0xbd571354	-0.052508667
111	0xbd33604c	-0.043793008
112	0x3dc3c0bc	0.095582455
113	0xbd769a9c	-0.06020604
114	0x3da83b64	0.08214453
115	0x3d101a04	0.03518106
116	0x3da9889a	0.08278008
117	0x3d791a58	0.06081614
118	0xbbc2c440	-0.005943805
119	0xbdc99850	-0.098435044
120	0xbdf89fea	-0.12139876
121	0x3d9387a0	0.07203603
122	0xbd41a00c	-0.047271773
123	0x3df0e4fa	0.11762424
124	0xbda14e3e	-0.07876252
125	0xbd9d37fa	-0.07676692
126	0xbdbbdcee	-0.09172998
127	0x3c9adc50	0.018903881
128	0x3dcf5a6e	0.1012467
129	0xbde2de66	-0.110775754
130	0x3cdf0428	0.027223662
131	0xbd6cd508	-0.05782035
132	0xbdbdcb1c	-0.09267256
133	0xbd22da44	-0.039758936
134	0xbd6f863c	-0.058477625
135	0xbcba7140	-0.02275908
136	0xbcf85828	-0.030315474
137	0x3cfb0440	0.030641675
138	0x3dc56e84	0.0964022
139	0x3c88f078	0.016716227
140	0xbcee4fa0	-0.029090703
141	0xbd3b3558	-0.04570517
142	0xbd8aacd6	-0.06771247
143	0xbde8090c	-0.113298506
144	0xbd6ab6c8	-0.05730322
145	0x3d91fb38	0.07127994
146	0xbdca4610	-0.098766446
147	0xbde06f9c	-0.10958788
148	0x3d4fc584	0.050725475
149	0x3ca06148	0.019577637
150	0x3cec9c00	0.02888298
151	0x3dc70a8e	0.0971881
152	0x3ceb1e18	0.028700873
153	0xbdafa38e	-0.085761175
154	0x3ca2e230	0.019883245
155	0xbdcd77f4	-0.10032645
156	0xbb0996c0	-0.0020994395
157	0x3dc3e168	0.09564477
158	0x3db81c44	0.08989766
159	0xbdfad52c	-0.122476906
160	0xbd28d1ec	-0.041215822
161	0xbdb60770	-0.08888137
162	0xbdb9da2e	-0.090748176
163	0xbdf7aff4	-0.12094107
164	0x3dfab38e	0.122412786
165	0x3d30d76c	0.043174192
166	0xbc95b498	-0.01827459
167	0x3ccf19d8	0.025280878
168	0xbda10158	-0.078615844
169	0x3d072ca4	0.033001557
170	0xbdad0b34	-0.084494025
171	0xbdd61e7a	-0.10455032
172	0x3d0e7da8	0.034787804
173	0xbdd84448	-0.105598986
174	0xbde82c1c	-0.11336538
175	0x3c960fa0	0.018317997
176	0x3d67083c	0.056404337
177	0xbca5e8a8	-0.02025254
178	0xbdb97d88	-0.09057146
179	0xbdf17d52	-0.11791481
180	0xbcda9a70	-0.02668497
181	0xbd8db986	-0.069201514
182	0x3d5f84e8	0.05457011
183	0x3dd28518	0.10279292
184	0xbba915e0	-0.0051600784
185	0xbc910f40	-0.017707467
186	0xbddb73a8	-0.10715419
187	0xbba84f40	-0.0051364005
188	0x3d4f44f8	0.050602883
189	0x3d805400	0.06266022
190	0x3d0dd36c	0.034625456
191	0x3dd5c2fa	0.104375795
192	0xbdb00ba0	-0.08595967
193	0x3d3cdc6d	0.046108652
194	0x3d1ed77c	0.03877972
195	0xbe175cc4	-0.14781481
196	0x3c705380	0.014668345
197	0x3b709480	0.0036709607
198	0xbd50a0c3	-0.050934564
199	0xbc17c830	-0.009264037
200	0xbe1a67e6	-0.15078697
201	0xbe0a27e9	-0.13491787
202	0xbd23d760	-0.04000032
203	0x3da2f81c	0.07957479
204	0x3d377904	0.044793144
205	0xbd11bdf4	-0.035581544
206	0x3d159276	0.03651663
207	0xbcbf0497	-0.023317618
208	0xbd73c390	-0.059512675
209	0x3cf6ac52	0.030111466
210	0x3d7229a0	0.059121728
211	0x3cfd25f8	0.030901894
212	0xbd705cc3	-0.058682214
213	0x3dad7e12	0.08471312
214	0x3ccae848	0.024768963
215	0x3d1591a0	0.036515832
216	0xbdc90bde	-0.098167166
217	0x3db24318	0.08704203
218	0x3d678b28	0.056529194
219	0xbe371dbc	-0.17882437
220	0xbe241e5b	-0.16027205
221	0x3dfc308e	0.123139486
222	0xbd62f413	-0.05540855
223	0x3db3983e	0.08769272
224	0x3d72d850	0.059288323
225	0xbe227150	-0.15863538
226	0x3d34474e	0.044013314
227	0x3ca9baa0	0.020718873
228	0xbe040918	-0.12894094
229	0xbd9534b6	-0.072854444
230	0xbd8e99b4	-0.0696291
231	0x3d84309f	0.06454586
232	0xbdeff408	-0.11716467
233	0xbdf44347	-0.11926895
234	0x3cf1e88a	0.029529829
235	0x3d4ceba1	0.0500294
236	0xbc6c5378	-0.014424197
237	0xbd529c94	-0.051418856
238	0xbc05eed4	-0.008174617
239	0xbd76238b	-0.06009249
240	0x3de580be	0.11206196
241	0xbe0c35bc	-0.13692373
242	0x3dabaacc	0.08382186
243	0x3d68f9c4	0.05687882
244	0xbce2145b	-0.027597597
245	0xbdf873c4	-0.121314555
246	0x3d288146	0.04113891
247	0xbcf196bd	-0.029490823
248	0xbca70990	-0.020390302
249	0xbcda6cee	-0.02666327
250	0x3d98c4ac	0.07459387
251	0x3df213be	0.11820172
252	0x3daf83b0	0.08570039
253	0x3c4e5386	0.012593156
254	0x3de66e18	0.112514675
255	0x3d87dbd2	0.06633724

fc3.dendrite_module.parent_module.weight f4 [1, 64]
0	0x3dd1f6a8	0.10252124
1	0xbde6ced8	-0.11269921
2	0xbd33c50c	-0.04388909
3	0xbdc5c70e	-0.09657107
4	0x3ce4d170	0.027931899
5	0xbdc71ac8	-0.09721905
6	0x3d9384f0	0.0720309
7	0xbddd7b96	-0.10814588
8	0x3c383cc0	0.011244953
9	0x3d457e04	0.04821588
10	0xbc1a40f0	-0.009414896
11	0xbddce898	-0.10786551
12	0x3d8b56ea	0.06803687
13	0x3db69064	0.08914259
14	0xbd6f9210	-0.058488905
15	0xbdfb4c66	-0.12270431
16	0xbd599758	-0.05312285
17	0xbdf7db5e	-0.12102388
18	0x3df18214	0.117923886
19	0xbcb85098	-0.022499368
20	0x3dc3b42e	0.09555851
21	0xbb383a80	-0.002811104
22	0xbd2e21b4	-0.04251261
23	0x3db0644a	0.086128786
24	0x3ce2cd78	0.027685866
25	0xbde36f4a	-0.11105211
26	0xbdd82634	-0.10554162
27	0x3de72258	0.112858474
28	0xbd879676	-0.06620495
29	0x3d0a9164	0.03383006
30	0x3dc73eb4	0.097287565
31	0x3db6982e	0.08915745
32	0x3dc0df1e	0.09417556
33	0xbde40efa	-0.11135669
34	0x3ca19e10	0.01972869
35	0xbd1a6838	-0.037697047
36	0x3dad9262	0.08475186
37	0xbdb5a164	-0.088686734
38	0x3df917ee	0.12162767
39	0xbd985c42	-0.07439472
40	0xbdd0f0b2	-0.10202159
41	0x3dcf0398	0.10108107
42	0x3c8a4130	0.016876787
43	0x3c3e9780	0.0116328
44	0x3c2c3310	0.010510221
45	0xbdbcd9bc	-0.09221217
46	0x3b133c80	0.002246648
47	0xbddeffc8	-0.1088863
48	0xbdd3dc48	-0.1034475
49	0x3ce82540	0.028338075
50	0x3d969afc	0.0735378
51	0xbce7bc68	-0.028288081
52	0xbdf86d82	-0.12130262
53	0x3d4f1488	0.05055669
54	0x3dcd45d8	0.10023087
55	0xbdb51732	-0.08842315
56	0x3d0d71b4	0.034532264
57	0xbcaf21f8	-0.021378502
58	0x3de20a38	0.11037105
59	0xbd378638	-0.044805735
60	0x3b947e20	0.004531637
61	0x3bd3aac0	0.006459564
62	0x3d127b14	0.035761908
63	0xbdb5fa48	-0.08885628

fc3.main_module.weight f4 [1, 64]
0	0x3db99136	0.090609
1	0xbde6ced8	-0.11269921
2	0xbd33c50c	-0.04388909
3	0xbd2b46e2	-0.041815646
4	0x3cf64c11	0.030065568
5	0xbcf41c0d	-0.029798532
6	0x3d9384f0	0.0720309
7	0xbceea3b0	-0.029130787
8	0x3d27f7dd	0.041007865
9	0x3d993cd8	0.07482308
10	0x3d39b6fe	0.04534053
11	0xbddce898	-0.10786551
12	0x3da3a437	0.07990306
13	0x3d0fadcf	0.035077866
14	0xbb74ad6c	-0.0037334813
15	0xbd8b28ca	-0.06794889
16	0x3ad5fc21	0.0016325751
17	0xbdf7db5e	-0.12102388
18	0x3deb758f	0.11497032
19	0x3d041eed	0.032256056
20	0x3dc0ebee	0.0942
21	0x3cb98319	0.02264552
22	0xbd2e21b4	-0.04251261
23	0x3db0644a	0.086128786
24	0x3d68ca3d	0.056833494
25	0xbd66975b	-0.056296688
26	0xbdd82634	-0.10554162
27	0x3de72258	0.112858474
28	0xbc3b96c9	-0.011449524
29	0x3d367ced	0.044552732
30	0x3dc73eb4	0.097287565
31	0x3db6982e	0.08915745
32	0x3dc0df1e	0.09417556
33	0xbd67d6be	-0.05660128
34	0x3d1c4231	0.038149063
35	0xbd1a6838	-0.037697047
36	0x3dad9262	0.08475186
37	0xbdb5a164	-0.088686734
38	0x3df917ee	0.12162767
39	0xbd985c42	-0.07439472
40	0xbdd0f0b2	-0.10202159
41	0x3dc6aff5	0.0970153
42	0x3d2c66d0	0.042090237
43	0x3c3e9780	0.0116328
44	0x3c8d27e0	0.017230928
45	0xbcc82665	-0.02443237
46	0x3c41d2c3	0.011830035
47	0xbddeffc8	-0.1088863
48	0xbdd3dc48	-0.1034475
49	0x3ce82540	0.028338075
50	0x3d9ea38a	0.07746036
51	0xbce7bc68	-0.028288081
52	0xbdf86d82	-0.12130262
53	0x3d4f1488	0.05055669
54	0x3dcd45d8	0.10023087
55	0xbdb51732	-0.08842315
56	0x3d8b4682	0.06800558
57	0xbcaf21f8	-0.021378502
58	0x3ddb72ab	0.107152306
59	0xbd378638	-0.044805735
60	0x3c13a5ec	0.009011727
61	0xbbefe1d7	-0.0073206234
62	0x3cad3612	0.021143947
63	0xbd0bad56	-0.034100853

tracker_string u1 [1402]
0	0x64	100
1	0x6f	111
2	0x69	105
3	0x6e	110
4	0x67	103
5	0x5f	95
6	0x70	112
7	0x61	97
8	0x69	105
9	0x2c	44
10	0x54	84
11	0x72	114
12	0x75	117
13	0x65	101
14	0x0a	10
15	0x6e	110
16	0x75	117
17	0x6d	109
18	0x5f	95
19	0x64	100
20	0x65	101
21	0x6e	110
22	0x64	100
23	0x72	114
24	0x69	105
25	0x74	116
26	0x65	101
27	0x73	115
28	0x5f	95
29	0x61	97
30	0x64	100
31	0x64	100
32	0x65	101
33	0x64	100
34	0x2c	44
35	0x30	48
36	0x0a	10
37	0x6e	110
38	0x75	117
39	0x6d	109
40	0x5f	95
41	0x63	99
42	0x79	121
43	0x63	99
44	0x6c	108
45	0x65	101
46	0x73	115
47	0x2c	44
48	0x30	48
49	0x0a	10
50	0x6d	109
51	0x6f	111
52	0x64	100
53	0x65	101
54	0x2c	44
55	0x6e	110
56	0x0a	10
57	0x6e	110
58	0x75	117
59	0x6d	109
60	0x5f	95
61	0x65	101
62	0x70	112
63	0x6f	111
64	0x63	99
65	0x68	104
66	0x73	115
67	0x5f	95
68	0x72	114
69	0x75	117
70	0x6e	110
71	0x2c	44
72	0x30	48
73	0x0a	10
74	0x74	116
75	0x6f	111
76	0x74	116
77	0x61	97
78	0x6c	108
79	0x5f	95
80	0x65	101
81	0x70	112
82	0x6f	111
83	0x63	99
84	0x68	104
85	0x73	115
86	0x5f	95
87	0x72	114
88	0x75	117
89	0x6e	110
90	0x2c	44
91	0x30	48
92	0x0a	10
93	0x65	101
94	0x70	112
95	0x6f	111
96	0x63	99
97	0x68	104
98	0x5f	95
99	0x6c	108
100	0x61	97
101	0x73	115
102	0x74	116
103	0x5f	95
104	0x69	105
105	0x6d	109
106	0x70	112
107	0x72	114
108	0x6f	111
109	0x76	118
110	0x65	101
111	0x64	100
112	0x2c	44
113	0x30	48
114	0x0a	10
115	0x72	114
116	0x75	117
117	0x6e	110
118	0x6e	110
119	0x69	105
120	0x6e	110
121	0x67	103
122	0x5f	95
123	0x61	97
124	0x63	99
125	0x63	99
126	0x75	117
127	0x72	114
128	0x61	97
129	0x63	99
130	0x79	121
131	0x2c	44
132	0x31	49
133	0x35	53
134	0x32	50
135	0x35	53
136	0x2e	46
137	0x35	53
138	0x39	57
139	0x30	48
140	0x30	48
141	0x32	50
142	0x34	52
143	0x34	52
144	0x35	53
145	0x30	48
146	0x35	53
147	0x35	53
148	0x30	48
149	0x38	56
150	0x0a	10
151	0x6d	109
152	0x61	97
153	0x78	120
154	0x69	105
155	0x6d	109
156	0x69	105
157	0x7a	122
158	0x69	105
159	0x6e	110
160	0x67	103
161	0x5f	95
162	0x73	115
163	0x63	99
164	0x6f	111
165	0x72	114
166	0x65	101
167	0x2c	44
168	0x46	70
169	0x61	97
170	0x6c	108
171	0x73	115
172	0x65	101
173	0x0a	10
174	0x73	115
175	0x77	119
176	0x69	105
177	0x74	116
178	0x63	99
179	0x68	104
180	0x5f	95
181	0x6d	109
182	0x6f	111
183	0x64	100
184	0x65	101
185	0x2c	44
186	0x30	48
187	0x0a	10
188	0x6c	108
189	0x61	97
190	0x73	115
191	0x74	116
192	0x5f	95
193	0x73	115
194	0x77	119
195	0x69	105
196	0x74	116
197	0x63	99
198	0x68	104
199	0x2c	44
200	0x30	48
201	0x0a	10
202	0x63	99
203	0x75	117
204	0x72	114
205	0x72	114
206	0x65	101
207	0x6e	110
208	0x74	116
209	0x5f	95
210	0x62	98
211	0x65	101
212	0x73	115
213	0x74	116
214	0x5f	95
215	0x76	118
216	0x61	97
217	0x6c	108
218	0x69	105
219	0x64	100
220	0x61	97
221	0x74	116
222	0x69	105
223	0x6f	111
224	0x6e	110
225	0x5f	95
226	0x73	115
227	0x63	99
228	0x6f	111
229	0x72	114
230	0x65	101
231	0x2c	44
232	0x31	49
233	0x35	53
234	0x32	50
235	0x35	53
236	0x2e	46
237	0x35	53
238	0x39	57
239	0x30	48
240	0x30	48
241	0x32	50
242	0x34	52
243	0x34	52
244	0x35	53
245	0x30	48
246	0x35	53
247	0x35	53
248	0x30	48
249	0x38	56
250	0x0a	10
251	0x69	105
252	0x6e	110
253	0x69	105
254	0x74	116
255	0x69	105
